KAIR/denoising/dncnn25/models/10000_G.pth (torch, 772933 bytes, 111 tensors)

model.0.bias f4 [64]
00000000: 0000 0000 0000 0000 0000 0000 0000 0000
00000010: 0000 0000 0000 0000 0000 0000 0000 0000
00000020: 0000 0000 0000 0000 0000 0000 0000 0000
00000030: 0000 0000 0000 0000 0000 0000 0000 0000
00000040: 0000 0000 0000 0000 0000 0000 0000 0000
00000050: 0000 0000 0000 0000 0000 0000 0000 0000
00000060: 0000 0000 0000 0000 0000 0000 0000 0000
00000070: 0000 0000 0000 0000 0000 0000 0000 0000
00000080: 0000 0000 0000 0000 0000 0000 0000 0000
00000090: 0000 0000 0000 0000 0000 0000 0000 0000
000000a0: 0000 0000 0000 0000 0000 0000 0000 0000
000000b0: 0000 0000 0000 0000 0000 0000 0000 0000
000000c0: 0000 0000 0000 0000 0000 0000 0000 0000
000000d0: 0000 0000 0000 0000 0000 0000 0000 0000
000000e0: 0000 0000 0000 0000 0000 0000 0000 0000
000000f0: 0000 0000 0000 0000 0000 0000 0000 0000
0.0 0.0 0.0 0.0 0.0 0.0 0.0 0.0
0.0 0.0 0.0 0.0 0.0 0.0 0.0 0.0
0.0 0.0 0.0 0.0 0.0 0.0 0.0 0.0
0.0 0.0 0.0 0.0 0.0 0.0 0.0 0.0
0.0 0.0 0.0 0.0 0.0 0.0 0.0 0.0
0.0 0.0 0.0 0.0 0.0 0.0 0.0 0.0
0.0 0.0 0.0 0.0 0.0 0.0 0.0 0.0
0.0 0.0 0.0 0.0 0.0 0.0 0.0 0.0

model.0.A f4 [3, 3, 3]
00000000: 6bb5 a3be 8f80 163f 416b f83e ae44 533e
00000010: faa1 c03e 0105 6cbd 8dfb 62bd e8c7 fcbe
00000020: 1c38 47be 392c a9bd 452d 973e 4d47 e8be
00000030: 5ee2 ccbd b226 ed3e f997 a93e 5398 a3be
00000040: 8d83 053e c281 19bd c7d7 91be 47ab 56be
00000050: abde d8bd 0952 d93e 0211 3abe 7ba6 c63e
00000060: 87c5 b63e 7678 023f 982c 9cbe
-0.31974348 0.58789915 0.48519328 0.20631668 0.37623578 -0.05762196 -0.05541568 -0.49371266
-0.19454998 -0.08260388 0.29526725 -0.45366898 -0.100041136 0.46318585 0.33123758 -0.31952152
0.13038464 -0.037477262 -0.28484938 -0.20963775 -0.105893455 0.424454 -0.1817055 0.3879889
0.35697576 0.5096506 -0.30502772

model.0.F f4 [3, 21, 1, 3, 3]
00000000: 6ca9 57bd 1898 9b3d 7377 07be c930 373e
00000010: de6d 3b3e ea5c 883c f86c e6bc 35fd 983c
00000020: 36ca 93bc 8695 2f3e 1eda 193e 73a5 053d
00000030: 5270 3c3b 2526 d8bd 77f3 b5bd 10b4 083e
00000040: f47e 9fbd c91b ac3d 2ada 13be b061 1fbe
00000050: 1a45 e53d d75a 043e 4455 e63c 4d36 8fbd
00000060: 052c 9b3d 3382 b5bd 1b8d 1bbd c6e6 023e
00000070: 839e 1cbe 5c9c 813d 9704 b2ba fe98 ed3d
00000080: 0bd4 d7bc d31e 4cbb 5254 babc d0db 0a3e
00000090: f4c6 a9bd 31c7 1abd f3b4 86bd 20cf 72be
000000a0: 04e3 39be 0f3d 263d 7b5c 3f3c 4bc0 49be
000000b0: 8152 9abb 4084 b2bd 6033 0c3e c1b7 963c
000000c0: 777f f83d b887 1a3e 1142 803d e8da e23d
000000d0: 5d38 083e 078d 0c3e 1235 e63c 8291 a2bb
000000e0: 837c a63d 742f f6bd dc9c 933d 6976 943c
000000f0: 0033 2e3d 9b39 9abd ac12 4dbd 4832 8abd
00000100: 1902 4abc 04bc 08be 32d8 20be 6eb2 4bbd
00000110: 7f7d ac3b 51df e6bd 8afa 003e 1cb9 be3d
00000120: 23cb 893d 75d9 833c d5d8 1d3e 3417 27bd
00000130: 0a75 83bd 7e71 01bd 46a4 0dbe aba0 d4bd
00000140: 27bc d5bd a8cf f3bd deab 52bd 3fbb e3bd
00000150: 5c35 aa3d 1222 ba3c c568 b9b8 bb98 10be
00000160: 1628 613d e0ad 19be 6890 4cbd 26ef 433e
00000170: 5234 be3d ba0c 203e c55a 0e3e cb2a 983d
00000180: 4947 f23c 679a c63c 581b ddbc b2e3 803d
00000190: ca0d 03bd 176f b83b 5def 06bd 2999 ef3c
000001a0: 2d77 8d3c ab51 d53d da14 a8bd 0d34 b73b
000001b0: da69 36bd 1ddc 38be af6c 0fbe fc48 25bd
000001c0: 19ab 36bd df95 813d 1d9e a1bd 20ca b83c
000001d0: 4bbb 0a3d a9ea cabd 169f 24be 482e cf3c
000001e0: af8c d7bd b8ea 3bbe 90db debd 2c16 f73d
000001f0: 6810 1abe 0b56 843c 3a50 5a3d a5d3 7abc
00000200: d345 a63d ed6c 61bc 61f0 893c 92d0 15be
00000210: cf26 f3bd 2fbb d33d b57f 08be fc48 9e3d
00000220: 8cdb adbc 83fa 073e 2049 02be dcb5 1c3e
00000230: 8d85 0f3e 2c83 ab3b 3cce a23d 4c60 c43d
00000240: 09b7 123d 9609 10be 4ad4 d73d e4d9 163e
00000250: 1751 003d ae8e f73d f7cb 7bbc 7607 93bc
00000260: e2fd 053e 2d24 213e a297 7a3d 0bac 48bd
00000270: 07b9 543e a89d 713d cca3 17bd 7c76 a6bd
00000280: f13d 923d e7a6 e43d 3bc6 703d bc91 0fbe
00000290: a2e6 fa3c f100 203e 3293 74bd 7fb3 043e
000002a0: 6c58 c13d 338c cd3d f8fb acbd 3502 923d
000002b0: 5282 ba3d 0837 643d 0220 683d 5a90 a33d
000002c0: 59aa c5bb ea01 c5bd 4529 f53d 9bc7 af3d
000002d0: a3cf f9bd a40d 253d c8b1 e7bd 7688 d0bd
000002e0: 502a eabd 2325 9cbd 0785 04be a474 4dbe
000002f0: 8553 ebbd 814f 10be ed07 5bbd c57d 463d
00000300: 1c2f 82bd 96d1 3a3d a68b e33d 734b 0dbe
00000310: 35ea f8bc af7f debd 0c54 31be 4345 38bd
00000320: 0caf 0ebd e53a 6e3d b951 5d3c ba93 c7bc
00000330: 501b aebd 890b 35bd 79c3 d0bc 5d65 093e
00000340: bc21 97bc 3774 033e 0853 8b3c 5cb8 d33d
00000350: abe1 063d 6c71 debd a6a0 c13d 777a b73d
00000360: e3c7 7ebd f17b 33be 7e50 efbd 2df6 c4bd
00000370: 3f2e 5cbe c405 91bd e4f5 373d 0748 0d3d
00000380: b47f fd3d d43b ef3d 2899 96bd 3b00 a2bd
00000390: 96c9 f1bc cfe8 233e 5c5c aabc 1f12 4a3d
000003a0: bc1c d33d 123f c0bc 1ecf 163d 386a 193d
000003b0: 35e2 e83d 6614 9e3d 2bb0 42bd eb1a 043e
000003c0: 8ee8 2ebd 9be5 4bbb c449 96bd b19e 193e
000003d0: 03b3 e8bd c412 823d 1dea c9bb 41a0 4d3e
000003e0: bdc6 d93d af3f 7b3c cc89 7b3d fc3a c2bd
000003f0: cc4a e43d ac44 a83d 8061 1e3e e412 283e
-0.052651808 0.07597369 -0.1322916 0.17889704 0.1830363 0.016645867 -0.028128132 0.018675426
-0.018040758 0.17146882 0.15024611 0.032628488 0.0028753472 -0.105541505 -0.08884328 0.13349938
-0.07787886 0.08403737 -0.14438692 -0.15564609 0.11194821 0.12925278 0.02811683 -0.06992779
0.075767554 -0.08862724 -0.037976366 0.12783346 -0.15294842 0.06328651 -0.001358169 0.116014466
-0.026346227 -0.0031146302 -0.022745285 0.13560414 -0.082899004 -0.03778762 -0.06577482 -0.23711824
-0.18153006 0.040585574 0.011679764 -0.1970226 -0.0047095423 -0.08716631 0.13691473 0.018398168
0.12133687 0.15090835 0.06262601 0.11076909 0.13302751 0.13725673 0.028101478 -0.0049611935
0.081292175 -0.1202077 0.07207653 0.018122869 0.042529106 -0.075305186 -0.050066635 -0.06747872
-0.012329602 -0.13352972 -0.15707472 -0.04973071 0.0052639837 -0.11273063 0.12595573 0.093126506
0.067281984 0.016094903 0.15414746 -0.040793613 -0.06418808 -0.031602375 -0.13832197 -0.103822075
-0.10436278 -0.11904842 -0.051433437 -0.11119699 0.08310959 0.022721324 -8.841002e-05 -0.14120762
0.05496987 -0.15007734 -0.049942404 0.19134197 0.09287323 0.15629855 0.13901813 0.07430037
0.029575007 0.024243547 -0.026990578 0.062934294 -0.031995572 0.0056284773 -0.03294312 0.029247837
0.017268742 0.104159676 -0.08207102 0.0055909217 -0.04453454 -0.18052717 -0.14006303 -0.040352806
-0.044596765 0.06327414 -0.07891486 0.022557318 0.033870023 -0.09908039 -0.16076311 0.025290623
-0.1052488 -0.18351257 -0.10881722 0.12064776 -0.15045321 0.01615431 0.053299166 -0.015309249
0.08118787 -0.01375888 0.016838254 -0.14630345 -0.118726365 0.10338437 -0.13329966 0.077287644
-0.021222852 0.13279156 -0.12723207 0.15303749 0.1401579 0.0052341428 0.07949492 0.0958868
0.035819087 -0.14066157 0.10538538 0.14731556 0.031327333 0.12087761 -0.015368453 -0.017947894
0.1308513 0.15736456 0.061179765 -0.048992198 0.20773707 0.058988243 -0.037021443 -0.08128068
0.07140721 0.111646466 0.058782797 -0.14020437 0.030627552 0.15625359 -0.05971069 0.12959097
0.09440693 0.100365065 -0.08446497 0.07129327 0.09106888 0.055716544 0.05667115 0.07986517
-0.00603227 -0.09619506 0.11970762 0.085829936 -0.12197807 0.04029621 -0.11313206 -0.10182278
-0.11433852 -0.07624271 -0.12941371 -0.20064026 -0.114905395 -0.14092828 -0.053474355 0.048459787
-0.06356642 0.045610033 0.1111062 -0.13798313 -0.030385116 -0.108641975 -0.17317218 -0.044987928
-0.034834906 0.058161635 0.013508254 -0.024362434 -0.08501303 -0.044200454 -0.025483834 0.13417573
-0.018448703 0.12837301 0.017007366 0.10337898 0.032930057 -0.10861477 0.094544694 0.08958905
-0.062202346 -0.17527749 -0.116852745 -0.09617267 -0.21502016 -0.07081178 0.044912234 0.03449252
0.12377873 0.11681333 -0.07353431 -0.079102 -0.029515069 0.16006778 -0.020795994 0.049333688
0.10308215 -0.023467574 0.036818616 0.037454814 0.113712706 0.077187344 -0.047531288 0.12900893
-0.04270225 -0.0031112197 -0.073382884 0.15001942 -0.11362269 0.063512355 -0.0061619417 0.20080663
0.106336094 0.015335008 0.06141071 -0.094839066 0.11147079 0.08216223 0.15466881 0.16413456

model.2.bias f4 [64]
00000000: 0000 0000 0000 0000 0000 0000 0000 0000
00000010: 0000 0000 0000 0000 0000 0000 0000 0000
00000020: 0000 0000 0000 0000 0000 0000 0000 0000
00000030: 0000 0000 0000 0000 0000 0000 0000 0000
00000040: 0000 0000 0000 0000 0000 0000 0000 0000
00000050: 0000 0000 0000 0000 0000 0000 0000 0000
00000060: 0000 0000 0000 0000 0000 0000 0000 0000
00000070: 0000 0000 0000 0000 0000 0000 0000 0000
00000080: 0000 0000 0000 0000 0000 0000 0000 0000
00000090: 0000 0000 0000 0000 0000 0000 0000 0000
000000a0: 0000 0000 0000 0000 0000 0000 0000 0000
000000b0: 0000 0000 0000 0000 0000 0000 0000 0000
000000c0: 0000 0000 0000 0000 0000 0000 0000 0000
000000d0: 0000 0000 0000 0000 0000 0000 0000 0000
000000e0: 0000 0000 0000 0000 0000 0000 0000 0000
000000f0: 0000 0000 0000 0000 0000 0000 0000 0000
0.0 0.0 0.0 0.0 0.0 0.0 0.0 0.0
0.0 0.0 0.0 0.0 0.0 0.0 0.0 0.0
0.0 0.0 0.0 0.0 0.0 0.0 0.0 0.0
0.0 0.0 0.0 0.0 0.0 0.0 0.0 0.0
0.0 0.0 0.0 0.0 0.0 0.0 0.0 0.0
0.0 0.0 0.0 0.0 0.0 0.0 0.0 0.0
0.0 0.0 0.0 0.0 0.0 0.0 0.0 0.0
0.0 0.0 0.0 0.0 0.0 0.0 0.0 0.0

model.2.A f4 [3, 3, 3]
00000000: b62d edbe b4f4 0c3f 06ff 283e 0a06 dc3e
00000010: e264 89be 06a1 78be 0481 a73e b9ca ecbe
00000020: 7f37 9e3e 106f 9abe b811 dcbe 4af9 7c3d
00000030: 2bca fc3d 5422 ccbe 3188 5e3e 002c 8fbe
00000040: 9193 a9be ed78 1dbd 06f8 8d3e 3e10 003f
00000050: 8708 ecbe 7017 e2bd 6fd7 0fbe d72c 80be
00000060: 206d 93be 0c7d f1be 4b30 9b3d
-0.46323937 0.5506089 0.16503534 0.42973357 -0.2683478 -0.24280176 0.3271562 -0.46248415
0.30901715 -0.3016286 -0.42982268 0.061761178 0.12343248 -0.3986994 0.2173164 -0.27963257
-0.33120397 -0.038445402 0.2772829 0.50024784 -0.46100256 -0.110396266 -0.14047025 -0.2503421
-0.28794193 -0.47165716 0.075775705

model.2.F f4 [3, 21, 21, 3, 3]
00000000: e139 8b3c 3f00 ccbc fb6d dabc a646 6cbc
00000010: 6bc4 78bc 37c8 bf3b 8a0c afbc 6d6a f43c
00000020: a7b5 2abc 73a6 103c 24b5 b6bc 9cb0 783b
00000030: def7 f1bb ec6c 44bc 5de0 803b 6395 0cbd
00000040: bf32 44bc 74d0 3b3c 0bf8 87bc af63 e2bc
00000050: 0729 083d 953b 65bc 14ae f2bc f8fd 243c
00000060: 6774 cd3c 0aec f03c 73dd 283c 2f99 c63c
00000070: 1d40 31bc 9430 873c 8a26 e33c 3f77 e7bc
00000080: 5e02 c3bb 33e2 953c 2ade 14bc 0ee5 913b
00000090: 9643 a73c 1036 72bc 839c 073c 1a2b 2ebb
000000a0: 7fdd 5c3b 3846 3c3d 03a7 dbbb 4679 0fbc
000000b0: 1e31 d93a 9b11 9bbc e4cb 69bd 1567 babc
000000c0: e660 4d3b 82e6 05bc 37ee a3bc c60d a5bb
000000d0: 8269 f2bb ff53 ce3c 2c62 d23c 1e41 8abc
000000e0: 83a9 8eba b816 633b 1f6b 503c 64f5 a2bc
000000f0: 7ccf 133d c36f fe3c 8723 463d 3f96 f53c
00000100: 9cde cbbc ab3f abbc 3939 153d ce7e 563c
00000110: 7f8f be3c 60a6 b13c 6b16 1d3c 3b34 703b
00000120: 492a 683c 4d00 0fbd 4baa 23bc 1222 efbc
00000130: aff1 de3a 28fc 34bc 2e88 8f3c e608 563c
00000140: 9df8 dd3a bb43 10bd bb97 3e3d 1fed 20bd
00000150: d130 bebc b4a0 953b 0303 1abd 36df d03c
00000160: 971e d43c dc3f 0b3b 9328 f3b8 17d1 05bd
00000170: 5874 063a 8095 20bc 3b54 5fbd 967f 0a3c
00000180: 54a4 263c 1099 0dbc 7ba5 d43c 7ed5 12bd
00000190: 74e1 733c abc7 25bc 22cc 4fbc b379 2bbd
000001a0: 1631 23bd 6839 453c 6b55 63ba 61b1 93bb
000001b0: 1e22 473b ec53 80bc d186 0fbd cbec 8fbc
000001c0: 031e 3a3a 5023 a33c adbf a0bb bacc 02ba
000001d0: fe37 ebbc 369e a03a 257c bcbc ce44 7abc
000001e0: 6513 3abd 79bf c33c 9ab1 113d f3ca 003c
000001f0: e1e5 3e3c d159 5a3d 4675 a2bb 98ef 1abb
00000200: 30bd 30bc cd79 59bc d985 453d ec41 89bb
00000210: 562b c93b 7103 a6bc 95fc e0bb 656d 36bc
00000220: 04b4 4e3c a9b7 0e3c 418e 2cbd d534 dbbc
00000230: aecc 4dbd b1e9 633c 0242 cfbb d17a 613c
00000240: 4c1d 8b3b 003e e93b db98 93bc a387 08bd
00000250: 202b 833c 0f53 c5bb fb3b cfbc 0ffa d13c
00000260: c119 053d 7791 3fbd 24d6 dd3a 9686 383d
00000270: e0ca cc3c 6902 8f3d f804 4fbc c924 b93c
00000280: 1134 113b df3b 06bd 76fa ffbb e3bc dd3c
00000290: b621 323c 2bae bebb 24cb 4bbb b582 19bd
000002a0: 0ecb ee3c 15e4 343d 988c 403c 914f a1bc
000002b0: e13a b7bb fc30 0bbd 82e2 adbc ab49 153d
000002c0: 9341 a4bc bad5 03bd 5b92 cf3a a8e8 bdbb
000002d0: 03ec 9abb ec1b 46bd 9d5b cbbc cebe f53c
000002e0: d941 7d3c f38f 3a3b 60e3 25bd 9ca5 543d
000002f0: 64fe 303c ed3f e53b cd8d c63c 9874 913a
00000300: dec4 553d 2e3e 993b 0042 a03c ca4f 623c
00000310: 5cbe e23b 87da 49bb 01ca 693c 661c 223c
00000320: 2fd8 12bc b402 b6bc c0b8 323b 0b26 693d
00000330: 1248 e3ba 9c2c 04bd 9999 ffbc b60f 1a3c
00000340: d7ce ec3c d20d 72ba e863 a13c 6724 1bbd
00000350: 4c52 283c b8c2 09bd c013 1dbd 9844 a8bc
00000360: d969 eb3c f2ea 7aba 51b3 8bb9 0e16 f03c
00000370: 72bb 92bb a311 41bc 375a 343d 7012 e5bb
00000380: b01e 83bc a11f 0b3a fc0a 3c3d 41da 9dbb
00000390: 861c f7bb 10bc 563d e3a2 ba3c 2671 8b3a
000003a0: edf2 143b b877 423c 07be 79bc 98ce 2fbb
000003b0: 95e5 c13c 925c 2f3c 853b 163a 23c2 4a3c
000003c0: 180a c3bc 4bbf cd3c 5245 193c 0c10 a6bc
000003d0: 95af 38bd 6d84 2db9 16c6 183d 6f2e e93b
000003e0: 630d 4bbc cc2d 063a f2ed 9abc 6157 563c
000003f0: a9f2 113c b3fa 4bbb 5c9a f6bc fa2e 90bc
0.016995372 -0.024902461 -0.02666377 -0.014421141 -0.015183548 0.005852725 -0.021368284 0.029835904
-0.010419286 0.008828747 -0.022303171 0.0037947064 -0.0073842844 -0.01198886 0.003932996 -0.034322154
-0.011974989 0.011463273 -0.016597768 -0.027635423 0.03324225 -0.013991256 -0.029624023 0.0100703165
0.025079919 0.029409427 0.010306704 0.024242966 -0.010818508 0.016502656 0.027728338 -0.028255103
-0.00595121 0.018296337 -0.009086171 0.0044523543 0.02041797 -0.014783397 0.008277061 -0.0026575984
0.0033701358 0.045965403 -0.006703259 -0.008756941 0.0016570424 -0.018929293 -0.05707921 -0.022754231
0.0031338274 -0.008172633 -0.02001105 -0.0050370423 -0.0073978314 0.025186537 0.025681578 -0.016876753
-0.0010884259 0.0034650993 0.012720852 -0.019892402 0.036086544 0.031059152 0.048373725 0.02997887
-0.024886422 -0.020904383 0.036431525 0.013091756 0.023261784 0.02168578 0.009587864 0.0036652226
0.014170238 -0.034912396 -0.0099893315 -0.02919105 0.0017009283 -0.011046447 0.01752099 0.013063645
0.0016935054 -0.035220843 0.04653142 -0.039288636 -0.023216637 0.0045662764 -0.03760053 0.02549706
0.025893493 0.002124778 -0.000115947005 -0.032670107 0.0005129031 -0.009801269 -0.054523688 0.00845327
0.010171015 -0.00864245 0.025957813 -0.035848133 0.014885295 -0.010118405 -0.012682946 -0.04186411
-0.039841734 0.0120376125 -0.0008672091 -0.004507229 0.0030385326 -0.015665017 -0.03504068 -0.017568966
0.0007099809 0.0199143 -0.004905662 -0.0004989613 -0.028713223 0.0012254182 -0.023008415 -0.015275193
-0.045428652 0.023895012 0.035569765 0.007860887 0.011651487 0.05330831 -0.0049578277 -0.0023641344
-0.010787293 -0.0132736685 0.04822335 -0.0041887667 0.0061391992 -0.020265313 -0.0068660476 -0.01113448
0.012616161 0.00871078 -0.04212785 -0.02675859 -0.050244026 0.013910697 -0.0063250074 0.013762192
0.004245436 0.0071179867 -0.018017223 -0.03333248 0.016011775 -0.0060218642 -0.025297156 0.025631933
0.032495264 -0.046769585 0.0016924781 0.045050226 0.024999082 0.069828816 -0.012635462 0.022600548
0.0022156278 -0.03277194 -0.0078118397 0.027067607 0.010872295 -0.0058191023 -0.0031096423 -0.037478168
0.029149558 0.04416283 0.01175227 -0.01969126 -0.0055917357 -0.033982262 -0.021226171 0.03644721
-0.0200508 -0.032186247 0.0015836464 -0.005795557 -0.004727842 -0.048366472 -0.024823958 0.02999821
0.015457594 0.0028467148 -0.040500045 0.05191575 0.010802839 0.006996146 0.024237538 0.001109737
0.0521897 0.004676602 0.019562721 0.0138129685 0.0069196653 -0.0030800418 0.014269353 0.009894466
-0.008962675 -0.022218086 0.0027270764 0.056921046 -0.0017340204 -0.032269105 -0.03120117 0.00940316
0.028907223 -0.0009233627 0.01970096 -0.037876513 0.010273527 -0.033632964 -0.038348913 -0.02054052
0.028736996 -0.0009571753 -0.00026645747 0.029307391 -0.0044779116 -0.01178399 0.044031348 -0.0069907233
-0.016005844 0.0005307142 0.045908913 -0.0048172777 -0.007541242 0.052425444 0.022782749 0.0010638579
0.0022727803 0.0118693635 -0.01524306 -0.002682602 0.023669044 0.010703223 0.0005730915 0.012375387
-0.023808524 0.02511563 0.009354906 -0.020271324 -0.045089323 -0.00016547898 0.037298284 0.007116131
-0.012393328 0.00051185186 -0.01891229 0.013082356 0.008907952 -0.003112477 -0.030102901 -0.017600525

model.3.weight f4 [63]
00000000: ba30 c33e 1c96 493f d742 dc3e 1413 a33e
00000010: 33f8 a33d fefb 5d3f e42a d03d e7d4 4e3f
00000020: ed4c 113e ad36 963e cb1e 1e3f d8d4 543e
00000030: 2bcc 543f b619 773f 53b5 483f 288c d73e
00000040: a590 273f 966a d33d 856c ec3e eefb 483e
00000050: 39af 5b3e 2398 243f 4787 383f ce77 633f
00000060: c9bf 563f 2911 1d3f 8bbf a43e 5846 bd3e
00000070: 9e27 d13e 12b7 1d3e 67f6 993e 7922 083e
00000080: 6a46 3f3f b0fa 0c3f c9fb 173f 4344 823e
00000090: a208 543f 1397 6e3e 21a5 933e f114 3f3f
000000a0: 2e51 2b3f a992 273f a2a4 673e 0bbc 203f
000000b0: 63b3 cb3e 4ce3 cc3e 818c 753f 43f5 c73e
000000c0: eb0c 413e 732a 683f 5924 503e 92c9 6e3e
000000d0: 1119 9e3e e954 6d3f 6081 743f 996a 5d3f
000000e0: f5d9 0f3e 0fee c83e 86a2 ba3e 0eac 4b3f
000000f0: 5db5 9c3e 6f2b d23e 3829 6a3f
0.38123113 0.78744674 0.43019745 0.31850493 0.080063246 0.86712635 0.10164431 0.80793613
0.14189501 0.2933859 0.61765736 0.20784318 0.83124036 0.96523607 0.7840168 0.42099118
0.65455085 0.10323064 0.46176544 0.19627354 0.21453561 0.6429464 0.72081417 0.8885468
0.8388639 0.6135431 0.32177386 0.3696773 0.40850538 0.15401867 0.30070803 0.132944
0.7471682 0.5507002 0.5936857 0.25442705 0.8282567 0.23299818 0.2883692 0.7464133
0.66920745 0.6545816 0.22621396 0.6278693 0.397853 0.40017164 0.95917517 0.39054307
0.18852584 0.9068977 0.20326366 0.2331908 0.308785 0.9270769 0.9550991 0.8649078
0.14047988 0.39244124 0.3645212 0.7955941 0.3060712 0.41048762 0.91469145

model.3.bias f4 [63]
00000000: 3461 c73d 1555 233e d5a5 cd3d ca1d 873d
00000010: fbca 21b9 f591 ce3d 1ea8 5abd 05c4 c93b
00000020: 9a25 803e a8d5 133e 7958 a93e 3472 2a3d
00000030: c3fe e33d 75c6 0abd fd19 05bd 79a5 d73c
00000040: d5c4 35bd 62bf 143e 038a 61bb 273a f0bc
00000050: 281e e33d 7708 753d 7099 afbc b44c 983d
00000060: 1f68 c93d 4cc6 ff3d 5d31 ea3d 4364 0d3e
00000070: 0162 c53d eb3c 1f3d e7be 373d 9956 6abd
00000080: 6a65 b8bd 8730 62bd e9d7 b2bc b4ec ac3d
00000090: 9f93 1c3e 8efe c83c 930c 77bc ccdb 4a3e
000000a0: dcdb 8fbc 7fad 52bd d68c cc3d 63a5 b1bd
000000b0: 8619 263e 6b6f 383d fca3 cc3d 2a75 f43d
000000c0: fe3c 823e c875 063e a1c2 873e d883 593e
000000d0: 8dad 4dbd 5be3 7dbd 1d1a ecbd 2614 4bbc
000000e0: cc3d 823d e871 083d eae3 8bbc f497 a6bd
000000f0: 2984 403d 36ce f43c 7d04 96bd
0.09735337 0.15950425 0.100413956 0.06597479 -0.00015429773 0.10086433 -0.053382985 0.0061574006
0.25028688 0.14436972 0.33075312 0.04161282 0.11132576 -0.03388067 -0.032495487 0.02632402
-0.044377167 0.14526132 -0.0034414537 -0.029324604 0.11089736 0.059822526 -0.02143547 0.07436505
0.09834313 0.12488994 0.114351965 0.13807778 0.096378334 0.038876455 0.044859793 -0.057211492
-0.09003718 -0.05522206 -0.02183147 0.08443585 0.15290688 0.024535444 -0.0150786815 0.19810408
-0.017560892 -0.05143499 0.099878 -0.08674123 0.16220674 0.04502813 0.09992215 0.1193641
0.25437158 0.13130867 0.26515678 0.212417 -0.05021434 -0.0619844 -0.11528418 -0.0123949405
0.06359443 0.033311754 -0.017076451 -0.081344515 0.047001038 0.029883485 -0.07325075

model.3.running_mean f4 [63]
00000000: bf9f 083c 0931 b6bd 3d17 7bbd 8d7b d33c
00000010: 3a79 5f3d 6cbd 99bd eb21 fd3c 8898 a03d
00000020: 9a63 003c a091 093c 3a89 9bbd 5d97 f1bd
00000030: 6f05 b8bd 8e31 d73d d6fb f83d 0155 8a3d
00000040: 42b2 813d 5327 7ebd 602b bc3d cf2c 4e3d
00000050: be8b d1bc d7dc 66bd f65a 703d c6b3 92bd
00000060: 43e0 04bd 509c 0abd 0014 ecbc 6412 21bd
00000070: f3bd fcbc 0d85 21bd 97ad 1abd d91f 3c3d
00000080: bb67 303d bdb7 ca3d 9a88 dc3d f875 24bd
00000090: 5e48 49bd 4baa 71bc c7b3 e63d dca4 32bd
000000a0: f6e6 0f3d bc6b 663d 08a7 26bd 3e61 b83d
000000b0: 8890 4ebd 7321 b8bd 321e b7bd 339c d1bd
000000c0: 6ada 35bd 45da c9bd 290c 2dbd 3738 c6bc
000000d0: 43dc 993d c3b3 c73d 1227 2b3e 007d c43d
000000e0: a071 77bc 2a06 143d d90e 943d b366 db3d
000000f0: d132 00bd 8d8f fd3c 97c5 9a3d
0.008338868 -0.088960715 -0.06130146 0.02581575 0.05455897 -0.075068325 0.030899962 0.07841593
0.007836247 0.008396536 -0.07594533 -0.117964484 -0.089854114 0.10507499 0.12157409 0.067544945
0.06332828 -0.06204922 0.091879606 0.0503357 -0.02557933 -0.056362953 0.058680497 -0.07163195
-0.032440435 -0.033840477 -0.02881813 -0.03932418 -0.030852294 -0.039433528 -0.037763204 0.04592881
0.043067675 0.098983265 0.10768242 -0.040151566 -0.04914128 -0.014750074 0.112647586 -0.043614253
0.03513237 0.056255087 -0.040686637 0.090029225 -0.050430804 -0.08990755 -0.08941306 -0.10234871
-0.04439775 -0.09856085 -0.042247925 -0.024196727 0.07512715 0.09751084 0.16714123 0.09594154
-0.015102774 0.03613869 0.072293945 0.10712948 -0.031298462 0.03095224 0.075572185

model.3.running_var f4 [63]
00000000: b260 873a 50ce 403b cbbb e63a ecdc e239
00000010: 47a4 a33a 1bb5 023b 0193 083a 6e95 1a3b
00000020: 3941 e638 9656 6e39 26cd 0f3b b5da ab3b
00000030: 26e3 433b dc59 813b 0bee ab3b 1d82 023b
00000040: 22d7 b93a 71c3 ce3a f78b 4d3b 4539 a13a
00000050: a346 083a 96b7 973a faab 9a3a f53d ff3a
00000060: 395a e839 f283 dd39 2a28 d039 c74f 2e3a
00000070: d06b c739 ec84 323a 3d1f 2b3a 582d 5c3a
00000080: 2275 2a3a dd01 643b 0b59 8e3b 2858 083a
00000090: 7bd1 743a 6a62 1a39 58fa 953b be56 4c3a
000000a0: 89e5 fd39 24ca 9c3a a3d4 363a 5890 3b3b
000000b0: 558e 7a3a 858e 383b c437 393b a7e0 753b
000000c0: 15b9 483a 74af 6d3b d5bf 3e3a bc5b 8039
000000d0: 38ad 0a3b 4b07 5d3b 8459 253c 0fdc 5c3b
000000e0: 9cf3 1939 10ab 023a a65f 033b a457 803b
000000f0: 8cf7 f639 7e6a c639 e3b3 043b
0.00103285 0.0029419847 0.0017603574 0.0004327068 0.0012484872 0.0019944373 0.00052098936 0.0023587602
0.00010979403 0.00022729705 0.0021942346 0.005244578 0.002989003 0.0039474797 0.005246883 0.001991398
0.0014178494 0.0015774799 0.0031363943 0.0012300393 0.0005198514 0.0011575099 0.0011800521 0.0019473421
0.0004431771 0.00042250712 0.00039702776 0.0006649461 0.00038036564 0.0006809968 0.0006527787 0.0008399091
0.00065024395 0.003479115 0.004344111 0.00052011246 0.00093390764 0.00014723247 0.0045769624 0.0007794908
0.00048426937 0.0011962098 0.00069744344 0.002861997 0.0009557952 0.002816112 0.0028261999 0.0037517936
0.0007656974 0.0036267908 0.000727651 0.0002448241 0.0021160375 0.003372627 0.010092143 0.00337005
0.00014681969 0.0004984597 0.0020046025 0.0039166976 0.00047105213 0.00037844846 0.0020248822

model.5.bias f4 [64]
00000000: 0000 0000 0000 0000 0000 0000 0000 0000
00000010: 0000 0000 0000 0000 0000 0000 0000 0000
00000020: 0000 0000 0000 0000 0000 0000 0000 0000
00000030: 0000 0000 0000 0000 0000 0000 0000 0000
00000040: 0000 0000 0000 0000 0000 0000 0000 0000
00000050: 0000 0000 0000 0000 0000 0000 0000 0000
00000060: 0000 0000 0000 0000 0000 0000 0000 0000
00000070: 0000 0000 0000 0000 0000 0000 0000 0000
00000080: 0000 0000 0000 0000 0000 0000 0000 0000
00000090: 0000 0000 0000 0000 0000 0000 0000 0000
000000a0: 0000 0000 0000 0000 0000 0000 0000 0000
000000b0: 0000 0000 0000 0000 0000 0000 0000 0000
000000c0: 0000 0000 0000 0000 0000 0000 0000 0000
000000d0: 0000 0000 0000 0000 0000 0000 0000 0000
000000e0: 0000 0000 0000 0000 0000 0000 0000 0000
000000f0: 0000 0000 0000 0000 0000 0000 0000 0000
0.0 0.0 0.0 0.0 0.0 0.0 0.0 0.0
0.0 0.0 0.0 0.0 0.0 0.0 0.0 0.0
0.0 0.0 0.0 0.0 0.0 0.0 0.0 0.0
0.0 0.0 0.0 0.0 0.0 0.0 0.0 0.0
0.0 0.0 0.0 0.0 0.0 0.0 0.0 0.0
0.0 0.0 0.0 0.0 0.0 0.0 0.0 0.0
0.0 0.0 0.0 0.0 0.0 0.0 0.0 0.0
0.0 0.0 0.0 0.0 0.0 0.0 0.0 0.0

model.5.A f4 [3, 3, 3]
00000000: 9ef7 60be 3d48 eabd 3229 e4be dd44 003f
00000010: 6831 1c3d 5a3b 04bf e204 02bf 8d4a bfbd
00000020: dd3a 08bf 61c7 1bbe b0be 2dbe 2b5b 023f
00000030: d754 f2be 32a3 00bf ef2b b13d 7dc4 3eb9
00000040: 905a d4be 0656 e5be ffc2 fdbe 37f4 143e
00000050: a76f a4be 18ac e43e 88ec d63d 3681 fc3e
00000060: b052 3cbd 1e5a 033f 4ed0 333d
-0.21969458 -0.114395596 -0.4456268 0.5010508 0.038133055 -0.51653063 -0.507887 -0.09340391
-0.5321482 -0.15212776 -0.16967273 0.5092036 -0.47330353 -0.50249016 0.08650958 -0.0001819301
-0.41475344 -0.44792193 -0.49562833 0.14546286 -0.32116434 0.44662547 0.104943335 0.4931733
-0.045977294 0.5130938 0.043899827

model.5.F f4 [3, 21, 21, 3, 3]
00000000: bef7 58bb d609 e73a 287c 0b3d f0b6 583b
00000010: de2b 0a3b b14c 843b cf49 92bb 4407 9ebb
00000020: 96c1 dcbc 30bd ccbb c2a5 143d c2d6 133d
00000030: 70c8 ea3c d551 26bd f075 1f3d 4fcd 8fbc
00000040: 911f b03c 3fa2 dc3c 4a9a da3c f7a4 933c
00000050: 9d3b 30b9 d26f 303c c47a 143d e419 bd3c
00000060: 7788 d8bc 201e d33c 0100 923b 2a2f 123d
00000070: bef5 98bc 43e6 1d3c 3ba2 663c 5efd bd3c
00000080: 24a4 d93c d2ab 183b 80ef f9bb daa3 2c3d
00000090: 2dec ac3b cbf9 0c3b bbc2 e23c c9fd 6dbc
000000a0: c792 3d3d 216d 71bb 9df3 863c 30f7 b6bc
000000b0: f9d7 953b 37f7 78bc 66cc 183d 1e72 653c
000000c0: 3cd7 00bd 6bd2 b1bc cd16 b83c 6634 b83b
000000d0: e64c 2d38 2e36 c43c f44e 8c3c c3a8 183c
000000e0: f34a 073d b4b5 343d 232c 29bd 0bd2 563b
000000f0: 7c07 6bbc 684d 2f3d 8e10 a4bb a895 313c
00000100: d86f fb3a d050 3c3d 9bfa 1d3c 9a96 a33b
00000110: 518b 173d f80a 9dbc 6e75 eab9 7d87 09bd
00000120: 192a bdbc 8820 643b 5f98 e63c 0ae3 4bbc
00000130: 0ae8 ab3a 9fa3 bcbb d0c2 17bc 644b 9d3d
00000140: f1d7 c8bc f300 37bc 3d02 293d b0d6 ecbc
00000150: 4cf0 60bd 058d 833c afb1 0d3c 8dd7 cc3b
00000160: 19d7 19bc eab5 cfbb 40a4 a2bb e11a 2e3b
00000170: d665 7d3b b833 e0bc 75ba d2bb 56b4 fb3c
00000180: 73ea 5c3c f0c9 763b 3088 103b 87f4 583c
00000190: 3c5a 9ebc 793c 05bd c38d da3b d361 693c
000001a0: f507 9f3c 70b9 50ba 8ceb 2fbd 316e e3bc
000001b0: 2af7 65bc 2a38 18bd 7aba 69bc ecb0 8e3c
000001c0: 9058 f1bc db19 cb3b 1d60 9c3c 56b5 32bb
000001d0: cdb9 a23c cad3 edbc f78c 08ba 9322 83bc
000001e0: ab02 413c 3bb6 bfbc dcab 92bb a687 06bd
000001f0: 4202 1d3c ec6a 5c3c d233 09bd 7292 cebc
00000200: 616d 06bd 208c 93bd 877f 55bc f27e 1bbd
00000210: c887 59bd c792 16bd b76a 9cbc cff7 f63c
00000220: 16ca 583a 3793 073d a8ca 313c 60cf a03c
00000230: d9ca a53c 0cc5 a03c a718 0cbc 95aa c13c
00000240: 8670 28bb c7cb 55bb aaab 943c cfc2 b53c
00000250: 224f 973c 849c a23c c4d1 ac3c 281e 123d
00000260: 7c8d 3ebb 8065 f83a bce5 30bc 7689 6e3b
00000270: c123 dfbc 9f94 d73c 4330 653c 3b01 03bd
00000280: 2c17 4e3c 74f7 ccbc 8713 63bc 75b2 c53b
00000290: 106b b0bc a48b 5cbd e52e 37bd 4395 4ebd
000002a0: 0d8d 493c 46ba 17bc 4c18 c9ba 68a4 93bc
000002b0: 7e5c 9c3c 21e5 d23a c8b2 21bd 4ef4 e93c
000002c0: 613b a8bc a10a 13bb 63b0 883c 7b0d aaba
000002d0: cd7d 463c ce1a 8cbc c52c 26bc c697 613c
000002e0: b298 08bd 6940 7bbc 1a20 bb3b 0787 6ebb
000002f0: 4aeb f73c 0466 543c bff7 c43c f461 0cbc
00000300: 3a72 42bc f986 b83c 818f 003c f9d5 a13c
00000310: 1881 8fb8 c50f b7ba 7bfc e33c bddb b83c
00000320: 4b3e 19ba b19c 4cbc 2dd9 96bc 5fb4 fab9
00000330: fb18 403c 6014 c93c d01d 45bc f93f e4bb
00000340: e679 d43c b6af 923c 15b3 573c 39fd 09bd
00000350: 8c09 193b 95f4 0c3d 533b e1bc e779 1fbc
00000360: 9ba1 963c eb11 69bb 48de 5d3c 4bf7 933c
00000370: 5253 1a3d 330a 993c 3f32 6139 5d52 053d
00000380: 8702 43bb 2181 05bd 9f7e 4ebc 155d c63c
00000390: 0649 c73c 9b5e 053d ed90 22bc 9baf 28bd
000003a0: b933 eeb8 b34a 513b cb7b 1bbd 7b65 243d
000003b0: 805a 58bb 8f8c bdbc 9820 d23b 1a0f 84bc
000003c0: ab2e f1bc 2c9b fa3c 3f34 c73a 2a18 05bd
000003d0: 7abe 03bd fb37 7a3b e179 c03b 9e6b 223c
000003e0: 6560 eb3b 9688 ffbc 14c1 803c 0bc8 3ebc
000003f0: c86a d93c b92d 2c3c fbab 77bc 76d1 613c
-0.003310665 0.0017626833 0.03405395 0.0033068024 0.0021083276 0.0040374626 -0.004464365 -0.0048226435
-0.026947778 -0.006248139 0.03629089 0.03609348 0.02866003 -0.040605385 0.038930833 -0.017553953
0.021499427 0.026932834 0.026684899 0.018022997 -0.00016806876 0.010768848 0.03624989 0.023083635
-0.026432259 0.0257712 0.004455567 0.03568951 -0.018671867 0.009637418 0.014076765 0.023192104
0.026567526 0.0023295772 -0.0076274276 0.04214845 0.005277178 0.0021511193 0.027680745 -0.014525839
0.046282556 -0.0036838728 0.016473586 -0.022334665 0.004572865 -0.015195659 0.037304305 0.014004258
-0.031455263 -0.02170678 0.02247181 0.0056214808 4.131803e-05 0.023951616 0.017127492 0.00931758
0.03303046 0.044118598 -0.041301858 0.0032779004 -0.014345046 0.04279843 -0.0050068563 0.0108389035
0.0019183112 0.045975506 0.0096422685 0.0049923183 0.036998097 -0.01917027 -0.0004471945 -0.033576477
-0.023091363 0.003480943 0.028148828 -0.012444267 0.0013115418 -0.00575681 -0.0092627555 0.07680395
-0.024517031 -0.01116966 0.0412619 -0.028910965 -0.054916665 0.016058454 0.00864832 0.0062512816
-0.009389662 -0.0063388245 -0.004963428 0.0026566314 0.0038665435 -0.027368411 -0.006430919 0.03072564
0.013483631 0.0037656985 0.002205383 0.013241894 -0.019330136 -0.032528374 0.0066697313 0.0142445145
0.019412974 -0.00079622027 -0.042949244 -0.027762504 -0.014035979 -0.037162937 -0.014265651 0.017418347
-0.029461175 0.0061981506 0.0190888 -0.002726873 0.019863987 -0.029031653 -0.00052089937 -0.016007697
0.011780421 -0.023402324 -0.0044760536 -0.03284421 0.009583058 0.013453227 -0.033496685 -0.025216315
-0.032819156 -0.07204461 -0.013030893 -0.03796286 -0.053108007 -0.03676107 -0.019093854 0.030147461
0.0008269859 0.03309938 0.01085154 0.019630134 0.020238327 0.01962521 -0.008550799 0.02364091
-0.0025701835 -0.0032622681 0.018148262 0.022187619 0.01847035 0.019850023 0.021096118 0.03567329
-0.002907603 0.0018951148 -0.01079696 0.003639785 -0.027238728 0.026315985 0.013988557 -0.031983595
0.012578767 -0.025020339 -0.013859636 0.0060332366 -0.021535426 -0.05384411 -0.044722456 -0.050435316
0.0123016955 -0.00926072 -0.0015342324 -0.018022731 0.019087072 0.0016090014 -0.03947714 0.028558876
-0.020536127 -0.0022436755 0.01668567 -0.0012973988 0.012114954 -0.017102625 -0.01014251 0.013769096
-0.033348747 -0.015335181 0.005710614 -0.00363964 0.030263562 0.012963776 0.024043916 -0.008568276
-0.011868054 0.022525297 0.007846714 0.01975535 -6.842817e-05 -0.0013966492 0.027830353 0.022565717
-0.0005845769 -0.01248853 -0.018414104 -0.00047818103 0.011724706 0.024545848 -0.012031034 -0.006965634
0.025937032 0.017906051 0.013165255 -0.033688758 0.0023351638 0.03441294 -0.027494108 -0.009733654
0.018387606 -0.0035563658 0.0135417655 0.018062254 0.037677117 0.018681621 0.0002147639 0.03254925
-0.0029756145 -0.03259385 -0.012603431 0.024214307 0.024326812 0.032560926 -0.009922248 -0.041183095
-0.000113583585 0.0031935393 -0.037959855 0.04013584 -0.0033012927 -0.023138313 0.006412577 -0.016120482
-0.029441198 0.03059157 0.0015198066 -0.032493748 -0.032164074 0.003818034 0.005873904 0.009913353
0.007183122 -0.031193059 0.015717067 -0.011644374 0.026540175 0.010508948 -0.015116687 0.01378285

model.6.weight f4 [63]
00000000: 7a34 2b3f f9ca 143f b75f 283f 6311 6f3f
00000010: 3d39 2d3f fc76 213f 62c2 013f 3c13 153f
00000020: 659e 3d3f 9e30 993e b6f3 093e 7d8f 3d3e
00000030: 2af1 293f 8a42 b93e 012d 6e3f cebd 713f
00000040: 1d50 583f b686 5a3f 866d 3a3e d7c2 763f
00000050: 83ac a93d 2c06 363f 5a3a 503f 5e7f 053e
00000060: e5a1 463e 5874 373f f609 f73e e6c4 6c3f
00000070: c4a4 5e3f 32f1 7c3f c43a db3e d035 373e
00000080: 354a ae3e fd50 0f3e 4982 0a3e 5077 f93e
00000090: 0945 8c3e fad1 863e 7f75 8f3e 4786 403f
000000a0: c5cd ca3e 5abb 483f 8103 3e3f 8435 d23e
000000b0: f135 ba3e fc25 fa3e 920d 6b3e 4cc8 2a3f
000000c0: 4ea7 183f 0170 183f f3cb a43e af35 3b3f
000000d0: 3553 473f 7f74 b23e 62b5 a13e c5dd 4e3f
000000e0: 630a 723f ac8e ab3e 0811 633f c241 283e
000000f0: 5617 783f 3b53 513f cf02 453f
0.6687695 0.5812221 0.6577105 0.93385905 0.67665464 0.6307218 0.5068723 0.58232474
0.74069816 0.29919904 0.13471875 0.18511768 0.6638361 0.36183578 0.9303742 0.94430244
0.84497243 0.853618 0.18205842 0.9639105 0.08284857 0.7110317 0.8133904 0.13036868
0.19397695 0.716619 0.48249787 0.92487943 0.8697016 0.98805535 0.42818272 0.17891622
0.3404099 0.13995738 0.13526262 0.4872384 0.2739642 0.26332074 0.2801933 0.7520489
0.39610115 0.78410876 0.74224097 0.41056454 0.3636928 0.48857105 0.22954395 0.6671188
0.59630287 0.59545904 0.3218685 0.7312879 0.7786134 0.34854504 0.31583697 0.80807143
0.945471 0.33507288 0.8869786 0.16431335 0.9691061 0.81767625 0.7695741

model.6.bias f4 [63]
00000000: 2eca 6d3d e05a 503d b1cc 713e 0ce6 e13d
00000010: e382 47be 7ff9 ddbd fcad e63d 6c30 dabd
00000020: 0a8a b23d d10f fa3c 245f f43c 1dad a73d
00000030: dc0c 463e 19a6 2c3e b330 fc3d b2fd 08bd
00000040: 6752 523c 3caa e3bd 9559 f43c 9514 f23d
00000050: a4a0 f2bc 8343 6d3d d2d1 093d 1b21 563d
00000060: 6706 853d 33b7 853d a40d 633d 78e6 70bd
00000070: 3453 0e3d 3f4a 083d 44f3 07bc 179e 6d3d
00000080: 8731 323e f982 3a3d eff3 4239 06c5 6b3d
00000090: 77a7 853d ab6b 0abc 8f32 6e3d 63bf 41bd
000000a0: 5077 213e e134 393d 0ba8 86bb 7ee8 8dbc
000000b0: c316 443e 6973 8c3d 6781 903b 0c87 0e3d
000000c0: 4a75 88bc f023 4dbd c615 0dbb 447c 113c
000000d0: a7cd 563d 1585 173e a250 a73d 1f1f 8ebd
000000e0: a85e fe3d 8271 cdbc 8c0b 3bbd 6a4b 073d
000000f0: ec10 c6bb 5c4b dc3d 3822 293e
0.05805414 0.050867915 0.2361324 0.11030206 -0.19483523 -0.10838603 0.11263654 -0.10653767
0.08717735 0.03052512 0.029830523 0.081873156 0.19340843 0.16860236 0.12313976 -0.033445068
0.012837029 -0.11116454 0.029827872 0.11820332 -0.029617615 0.057925712 0.033647366 0.052277666
0.06495362 0.06529083 0.05543293 -0.058813542 0.034747317 0.03327393 -0.008297745 0.058012094
0.17401706 0.04553506 0.00018592154 0.057560943 0.06526082 -0.008448522 0.058153685 -0.04730166
0.1576817 0.045216445 -0.0041093878 -0.017322775 0.19149308 0.0685795 0.004409957 0.03479676
-0.01665749 -0.0500831 -0.002152787 0.008879725 0.05244222 0.1479686 0.08169676 -0.0693953
0.12420398 -0.025078539 -0.04566531 0.033030905 -0.0060444977 0.10756561 0.1651696

model.6.running_mean f4 [63]
00000000: 1ec1 373c 9b12 0b3d 7b08 f5bd 98b1 2dbe
00000010: c436 a53e bab3 823e 9064 5bbe ef8e 533e
00000020: a829 1cbe b9f4 aebd ea29 b53d afbf ecbd
00000030: f13a 08bb 8451 29bd e938 40be ac58 4b3e
00000040: 1dc8 323e 8024 b03e a903 863c e111 8cbd
00000050: 505d 2f3e 0f89 80bd f96c 21bb a349 cc3d
00000060: a1e5 873d fcde 28be f9f6 e9bd 8064 d63e
00000070: 76ca 1fbb ecff 78bd bf99 8d3e 04b2 b33d
00000080: 0afc 00bd f6e2 b13d e659 d63d cf81 5d3e
00000090: c850 9abc 77cc babc 2f3f 16be 58a3 4a3e
000000a0: ed2b 34be fbc3 36be 74a0 00bd f3bd 793d
000000b0: dac5 85bc c00c 7ebe ca67 cd3d 2217 173b
000000c0: 9f38 ad3e 6929 4c3e fa2a d5bd 0003 9d3e
000000d0: 8c21 1b3e a0e2 5ebd aa78 8c3c a181 833e
000000e0: 63e5 0ebe d567 a93e 068e a33e e04a 523e
000000f0: a2e2 493d aa1d 7cbe 42e9 2dbd
0.011215476 0.03395329 -0.11964508 -0.16962278 0.32268345 0.25527745 -0.2142508 0.20659994
-0.15250266 -0.08542771 0.08845885 -0.11559998 -0.0020787085 -0.041337505 -0.1877171 0.19858044
0.1745915 0.34402847 0.016359167 -0.06839348 0.1712544 -0.06276142 -0.0024631603 0.099749826
0.06635595 -0.16491312 -0.114240594 0.4187355 -0.002438215 -0.06079094 0.2765636 0.08774188
-0.031490363 0.086858675 0.104663655 0.2163155 -0.018837348 -0.022802575 -0.1467254 0.19788873
-0.17594881 -0.17848198 -0.03140302 0.060972165 -0.016329695 -0.24809551 0.10029562 0.002305456
0.3383226 0.19937672 -0.10408588 0.3066635 0.15149516 -0.054415345 0.01714738 0.25684837
-0.13954692 0.3308703 0.31944293 0.20536375 0.0492884 -0.24620691 -0.04245878

model.6.running_var f4 [63]
00000000: 8d4c 5c3c 65db c83c f226 f73c 2f40 073d
00000010: d57c c53b 68e4 b83c 36c7 453c ee4a 6a3c
00000020: 384b db3c 0bc8 2b3c 473c 833b 26ad e43b
00000030: ac65 aa3c d2cb 103c 6068 0e3d bc54 5d3d
00000040: e0a9 113d 3952 933c 968e dc3b f004 c03c
00000050: ab28 ad3c cf57 4b3d e478 473d 6513 173d
00000060: 4c51 383c e90f 253d f3e6 c43c c304 383d
00000070: 3f6a 633d c488 7e3d f6c5 113d 64f1 2b3c
00000080: c447 873c f29b 1b3d 8abd 0b3c 5130 a63c
00000090: a0ab 763c 7755 3d3c fca9 823c 94a8 143d
000000a0: 9d06 c13c 2b12 b03c f5ad 8a3d 6284 8c3d
000000b0: e41f a33c ac5c 193d 7179 d93d 7bea d83d
000000c0: 5224 bc3d cc85 f23c 3512 e23c 2da4 d63c
000000d0: cd73 9e3c a9e4 8a3c 874c a23c be8d 253d
000000e0: e529 253d 4598 063e 05e6 e13c 6e02 0b3e
000000f0: dabd 6e3d 6e7f 9e3d c0c9 0f3d
0.0134459855 0.024518678 0.030169938 0.033020195 0.006026844 0.02256985 0.012071421 0.014300091
0.026769266 0.010484706 0.0040049884 0.0069786487 0.020800434 0.008837657 0.03476751 0.054035887
0.035562396 0.017983543 0.0067308648 0.023439854 0.021137556 0.049644288 0.048699275 0.03688373
0.011249851 0.040298376 0.024035906 0.044926416 0.055521246 0.06214215 0.03558918 0.010494564
0.016513713 0.037990518 0.008529076 0.020286711 0.015055567 0.011556021 0.015950195 0.03629358
0.023562724 0.021493038 0.06771461 0.068611875 0.019912668 0.037441894 0.10618866 0.105915986
0.09186615 0.029604815 0.027596572 0.026201332 0.019342327 0.016954737 0.019811882 0.04041838
0.040323157 0.13144024 0.027575502 0.13575146 0.058286525 0.07739149 0.035104513

model.8.bias f4 [64]
00000000: 0000 0000 0000 0000 0000 0000 0000 0000
00000010: 0000 0000 0000 0000 0000 0000 0000 0000
00000020: 0000 0000 0000 0000 0000 0000 0000 0000
00000030: 0000 0000 0000 0000 0000 0000 0000 0000
00000040: 0000 0000 0000 0000 0000 0000 0000 0000
00000050: 0000 0000 0000 0000 0000 0000 0000 0000
00000060: 0000 0000 0000 0000 0000 0000 0000 0000
00000070: 0000 0000 0000 0000 0000 0000 0000 0000
00000080: 0000 0000 0000 0000 0000 0000 0000 0000
00000090: 0000 0000 0000 0000 0000 0000 0000 0000
000000a0: 0000 0000 0000 0000 0000 0000 0000 0000
000000b0: 0000 0000 0000 0000 0000 0000 0000 0000
000000c0: 0000 0000 0000 0000 0000 0000 0000 0000
000000d0: 0000 0000 0000 0000 0000 0000 0000 0000
000000e0: 0000 0000 0000 0000 0000 0000 0000 0000
000000f0: 0000 0000 0000 0000 0000 0000 0000 0000
0.0 0.0 0.0 0.0 0.0 0.0 0.0 0.0
0.0 0.0 0.0 0.0 0.0 0.0 0.0 0.0
0.0 0.0 0.0 0.0 0.0 0.0 0.0 0.0
0.0 0.0 0.0 0.0 0.0 0.0 0.0 0.0
0.0 0.0 0.0 0.0 0.0 0.0 0.0 0.0
0.0 0.0 0.0 0.0 0.0 0.0 0.0 0.0
0.0 0.0 0.0 0.0 0.0 0.0 0.0 0.0
0.0 0.0 0.0 0.0 0.0 0.0 0.0 0.0

model.8.A f4 [3, 3, 3]
00000000: cb1f 04bf 3354 053f 13a0 e63e 954f 343a
00000010: 9012 be3e 563e e53d 1af1 24be d8e5 093f
00000020: daa9 76be e1a1 a73d 5329 433d 17c7 89be
00000030: 6f57 5f3e 0c49 7ebe c0f7 c43e 93be 12bf
00000040: 0ca8 2ebe f549 693e 9d2b b73e 8dae 3bbd
00000050: a272 6abe a648 f33e bc31 1b3e 5275 ec3e
00000060: e99c a9be 26b8 dd3e c678 bcbe
-0.5161101 0.520816 0.45044002 0.0006878314 0.37123537 0.1119353 -0.16107598 0.5386634
-0.2408823 0.08185173 0.04764683 -0.26909706 0.21810697 -0.24832553 0.38470268 -0.57322043
-0.17056292 0.22782119 0.35775462 -0.04582076 -0.22895291 0.47516364 0.15155691 0.46183258
-0.33127525 0.43304557 -0.36810893

model.8.F f4 [3, 21, 21, 3, 3]
00000000: ea13 d4bc ed2a 803c b277 f5bc 8031 11bd
00000010: eeb6 07bb 19eb 333c 585f efbb d598 05bd
00000020: 8989 04bd 6ffa 92bc 0571 26bd c0a8 333c
00000030: a82e dcbc c356 943c a46b b1bc 8039 eebc
00000040: 6df9 24bb 7b5a 88bc cdfa 4f3c c41e 26bc
00000050: a895 3dbc 2489 c13c a36b 3abb d818 ecbc
00000060: 0c1f 3b3b aeff 04bd 60eb f93c b2b7 10bc
00000070: 1b7b 7a3a 7cb9 0c3d d971 9d3c e7c8 3b3d
00000080: bf9b 263c 9262 c3bc 7d25 fe3b fe14 073c
00000090: 24c5 2eba 40e9 d6bc cd2e 9bbc 2699 ecbc
000000a0: 69d6 51bc 7154 f43a 1102 20bd c1c3 13bd
000000b0: 6298 d5bc f478 19bd a8ab 8b3b c403 4cbd
000000c0: 3fe5 b2bc a02d 08bc 833c eabc c7e2 28bd
000000d0: 676e 36bd 4d42 03bd 2bc0 3d3c 01a2 9e3c
000000e0: 24bc 17bc e576 0ebd 518a 273c 3e65 89bc
000000f0: 923a a63a d807 b03c 2866 d93c 05f0 a7bc
00000100: d9af 963c 1904 77bc 6f03 adbc c137 8d3c
00000110: d559 2fbc 26c3 a03c ce37 9dbc 889c 4eba
00000120: 4aa1 703c 1e62 8abc 0331 7f3b 71ab f1bc
00000130: f2b4 cd3b dc83 14bb f75b c03c f17e b13c
00000140: 826d cf3c c5f0 a9bc cd33 043d 42d8 193c
00000150: 64f1 2f3c 7a3a 4b3b daa6 893c d872 fd3c
00000160: 4464 49bc 2cf0 903c 57d9 7d3c 3eb7 23bd
00000170: be77 a73c 70cf 10ba 423a 30bd a704 ad3c
00000180: 5455 063b f638 013d ab3e b2bc 8338 e63c
00000190: 9c9b 043d ccd0 bb3c ad40 963c 6bdd d13c
000001a0: de57 4ebc 52aa 283c 7851 1cbc 024e 6abb
000001b0: b4eb 353c b371 a6bc faad cdb7 2360 b6bc
000001c0: 3e98 2ebc ea5e d2bb 7909 a63b b580 953c
000001d0: 2f57 643b 7941 af3c b3e6 7039 58ac 383c
000001e0: 1a63 093c b0ee 4c3c 73bb a33c 2a2d d3ba
000001f0: 0a75 93bc e31d 883c 1391 7d3a 9b90 9d3c
00000200: e3df 88bc 1ce6 c03c 46a5 4b3c 24e5 7b3c
00000210: 5c17 1a3c 0883 023c e7cb 893b 45e3 cf3c
00000220: 2ae4 773c ef1a 3d3d 71db 923b 2a8d 1bbd
00000230: ed47 3a3b aede b7bc 0713 4bbd 7a1c 63bb
00000240: 4092 4a3c 6f18 e63b c2d6 2bbc f05b 4c3d
00000250: 0aa2 e03b f51f da3c 23f6 f53c ee0d 293d
00000260: afb2 c33c fc6d e2bc ba18 20bd 4ab5 58bd
00000270: 0703 82bc 91d9 503c 4030 153b aaf0 39bc
00000280: 2e7e b0bb 8a07 963c ef95 813b e3b1 673c
00000290: cd5a f5bb 1faa 06bd b8e8 f43a e9da 4a3b
000002a0: a026 de3b 9570 443c 8972 64bc 248e db3b
000002b0: 59c1 393d d3b9 51bb aaff 843c 3d45 ad3c
000002c0: d52e 4fba 432d 89bc e8c9 933c ad8c 40bc
000002d0: a9b1 2a3b 2a1c d33c 392b 12bb 36a7 ddbb
000002e0: c96b 6b3a 4c44 7e3c 1317 a9bc a774 0fbc
000002f0: 74d3 5c3c 9dfd 163d b1f7 54bd 334f 34bb
00000300: 6b1f ff3c 56e3 6a3a a25f e43c 1673 da3b
00000310: 3370 8838 cebd a33c 96c7 77bc 6b21 833c
00000320: a729 5c3c 6eaa 32bd b86b 413c aae4 c4bc
00000330: ad11 cb3c 8678 9abb b4ad 383b 54ba 47bc
00000340: dfae 463d 8bf3 253b 9eec febc 4f0b 91bc
00000350: be0f 003d b429 243d 3476 a63c 4afc adba
00000360: 702f 18bd 047c 283d b514 a43c 53bc d23c
00000370: dfa6 5e3b 15e2 fb3c bd31 a83b 2c1c abbc
00000380: fff6 23ba ce22 b53c 2495 ff39 cb97 b63c
00000390: db19 28bc 9dd8 853d 2a20 4cbc a098 6cbc
000003a0: 8e15 d1bc f81b 043d f12f 553c b376 273d
000003b0: dce7 ae3a 3cd8 6d3d d03d ed3c 15dc 77bc
000003c0: fc32 0f3d 0503 46bc 9427 5a3c ca2a 7f3c
000003d0: 87d0 c4bc d747 06bd 1cdd adbc 5f86 f7bc
000003e0: 2d0f 9a3c 0909 683c 327c 8e3c 1258 1b3c
000003f0: 807e 4f3c 97c3 983b 28b7 203d faaa bebc
-0.025888402 0.015645469 -0.029964302 -0.035447598 -0.00207084 0.010981345 -0.007305067 -0.032616455
-0.032357726 -0.017941682 -0.040635128 0.010965526 -0.026877716 0.018107777 -0.021657772 -0.029080153
-0.0025173083 -0.016644707 0.012694073 -0.010139171 -0.011571325 0.023624964 -0.0028445504 -0.02882044
0.002855244 -0.032470398 0.030507743 -0.008832859 0.00095550873 0.03435658 0.019219326 0.045845892
0.010168969 -0.023850713 0.007755934 0.008244751 -0.00066669495 -0.02623427 -0.018943215 -0.02888162
-0.012807467 0.0018640888 -0.03906447 -0.036075357 -0.026073638 -0.037468866 0.0042624064 -0.04980828
-0.021837829 -0.008311659 -0.028593307 -0.041231897 -0.04453888 -0.03204565 0.011581461 0.019364359
-0.009261165 -0.034781355 0.010225848 -0.016771909 0.001268225 0.021488115 0.02653797 -0.020500192
0.018394398 -0.015076661 -0.021119801 0.0172385 -0.01070257 0.019624304 -0.019191649 -0.00078816013
0.014686892 -0.016892489 0.0038939125 -0.029500695 0.006277674 -0.0022661602 0.023481352 0.021666976
0.025320772 -0.02074469 0.032275964 0.009389939 0.010738704 0.0031010197 0.016803194 0.03093855
-0.012291972 0.017692648 0.015493712 -0.039969675 0.02044284 -0.00055240747 -0.04302431 0.021120382
0.0020497637 0.031548463 -0.021758398 0.028103119 0.032374963 0.02292671 0.018341387 0.025618276
-0.012594191 0.010294514 -0.009540908 -0.0035752063 0.011103559 -0.020317888 -2.4518919e-05 -0.022262638
-0.010656415 -0.006420006 0.005067047 0.018249849 0.0034842005 0.021393524 0.00022974126 0.011271559
0.008385444 0.012508079 0.019986844 -0.0016111482 -0.018000145 0.016615814 0.0009672802 0.019233992
-0.01670832 0.023547225 0.012429541 0.015374456 0.009404983 0.007965811 0.0042052153 0.025376925
0.015130082 0.046168264 0.004481726 -0.03797642 0.0028424219 -0.02244505 -0.049578693 -0.0034654425
0.01236397 0.0070219557 -0.010488214 0.049892366 0.006855254 0.026626566 0.030024594 0.04127305
0.023888914 -0.027640335 -0.03908608 -0.052907266 -0.015870584 0.012747184 0.0022764355 -0.011348883
-0.0053861355 0.018314142 0.003954641 0.014141533 -0.007487631 -0.032877084 0.0018685078 0.0030953235
0.006779507 0.011989732 -0.013943323 0.006700294 0.045350406 -0.003200163 0.016235191 0.02115118
-0.0007903402 -0.016745215 0.018040612 -0.01175229 0.0026045835 0.025770266 -0.0022303595 -0.006764318
0.00089806 0.015519213 -0.020640885 -0.008755839 0.013478149 0.03686296 -0.05199403 -0.0027513027
0.031142911 0.00089602673 0.027877633 0.0066665513 6.505884e-05 0.019987967 -0.015123269 0.016007146
0.013437665 -0.043619566 0.011805467 -0.024034817 0.024788702 -0.0047140745 0.0028179707 -0.01219042
0.048506614 0.0025322165 -0.031118687 -0.017705588 0.031265013 0.040078834 0.020320036 -0.001327404
-0.037154615 0.041133896 0.020029405 0.025724566 0.0033973975 0.030747453 0.0051328824 -0.020887457
-0.0006254762 0.022111323 0.0004874851 0.022289177 -0.010260071 0.06535456 -0.01245884 -0.0144406855
-0.025522973 0.032253236 0.013011918 0.040884685 0.0013344246 0.058067545 0.028960139 -0.015128155
0.034960732 -0.012085681 0.0133151 0.015574167 -0.024025215 -0.032783356 -0.021223597 -0.03021544
0.018806065 0.01416231 0.017393205 0.009481447 0.012664437 0.004661988 0.03923717 -0.023274887

model.9.weight f4 [63]
00000000: 76c2 da3e 35e8 2a3e c236 483f dd03 283e
00000010: a764 453e 6d7d 423f a5e9 183f f99c 1b3e
00000020: 15cd 153f 1f12 4d3f 1953 643f 1864 903d
00000030: 7795 ae3e a5ab 113f f031 573f 1922 d63e
00000040: f9c5 333f e2f2 1c3f 3cb3 d83e 75ba 2c3f
00000050: 140e d93e 9726 3e3f adfa 4d3e d24f 533f
00000060: cb4d 203e 6a32 533f 352e d73e 15d9 b63e
00000070: a3e2 683f f894 253f b53e 413f 9775 4a3f
00000080: b500 623e b0ed 7b3f 8698 6c3f ba57 a63e
00000090: d629 5d3f fe0c 9c3e 9a94 2b3f 1742 6b3f
000000a0: 8755 423f 1f85 7b3f faf6 283f dfc0 483f
000000b0: 9b4e 133f cb6d 0c3f 04c4 9b3e df24 293e
000000c0: 6e10 6f3f 54d9 c33e be59 1c3f dab0 b73e
000000d0: 519c 3a3f aeec 4c3f e0cb 003f cb00 fe3d
000000e0: bacb 723f 31fc d33e 57b7 c33e 2adb 5a3f
000000f0: 983e 313f 5564 663f 7c1a 523e
0.42726487 0.16690142 0.78208554 0.16407724 0.19276677 0.75972635 0.59731513 0.15196599
0.58516055 0.80105776 0.89189297 0.07050341 0.34098408 0.56902534 0.84060574 0.4182289
0.7022396 0.6130811 0.42324245 0.6747201 0.42393553 0.74277633 0.20115156 0.8254367
0.15654676 0.824988 0.4202744 0.35712495 0.9097082 0.64680433 0.7548631 0.7908568
0.22070582 0.9840956 0.9242023 0.32488805 0.8639196 0.30478662 0.67023623 0.9189772
0.75911754 0.9825 0.66001856 0.784193 0.5754182 0.5485503 0.30422986 0.16517971
0.93384445 0.38251746 0.61074436 0.35877115 0.7289477 0.80048645 0.5031109 0.12402495
0.9484211 0.41403344 0.38225815 0.8549067 0.69236135 0.89996845 0.20517915

model.9.bias f4 [63]
00000000: 4343 37be 3b63 803d b9b0 8e3d f6ba 893c
00000010: 85e0 dd3c 7140 aebb 17dc 7abc 430c d73c
00000020: 6364 2f3e 3278 2bbe 70cb 5dbe 5dd7 ff3c
00000030: 1437 afbc f933 aabc 1fc0 c83d c1b6 a1bc
00000040: 40e7 eebc ae41 533c 5a3c 063c f77a ce3d
00000050: 9ead ab3c 2845 19be 3618 173d f6f8 233d
00000060: be26 ecbc 77bb 3e3e 5556 a43d 06a1 1ebd
00000070: cb30 e63d c11d d73c 7a0e 01be 9d41 15bb
00000080: 97ed b33d 8a9f b13d aa73 06be b2be adba
00000090: 9f0d a83d 702c 03bd c16a c73d 47d5 4a3d
000000a0: 7542 baba bcd3 c8bc 67da e23d 27e5 ad3c
000000b0: e944 7bbd 5867 393e d466 4ebd 261e bb3c
000000c0: 061e f73d aaca 9cbc 594e 1f3c f3ec 313d
000000d0: 7025 01be 700b cabc c6ef dcbc a706 d73a
000000e0: ba6c 0ebe 33db c83c fed6 a23c 1488 03bc
000000f0: acf9 6b3c 21b2 d03d b6ba a93d
-0.17896752 0.06268927 0.06967301 0.016812783 0.027084598 -0.0053177406 -0.015311263 0.026250964
0.17128138 -0.1674507 -0.21659636 0.031230623 -0.021388568 -0.020776736 0.09802269 -0.019740464
-0.029163003 0.012894077 0.0081931 0.100820474 0.02095681 -0.14967787 0.036888324 0.04003235
-0.028827067 0.186262 0.08024279 -0.038727783 0.11239775 0.026259305 -0.12603179 -0.0022774704
0.08785551 0.08673008 -0.1313006 -0.0013255684 0.08205723 -0.0320248 0.097371586 0.049519803
-0.001421048 -0.024515025 0.11076813 0.021227432 -0.061345015 0.18105829 -0.050391033 0.022841524
0.120662734 -0.019139607 0.009723269 0.043438863 -0.12611938 -0.024663657 -0.026969802 0.0016405181
-0.13908663 0.024518585 0.019877907 -0.008028049 0.014402788 0.101902254 0.082875654

model.9.running_mean f4 [63]
00000000: 4f80 1bbd fdcc 643d e204 d53c da7b 60ba
00000010: 30ca a8bd 6e78 7fbd 21d7 2d3d b665 bbbd
00000020: 304d 483d 76b1 45bd 7af8 acbd 3138 fbbd
00000030: a301 533d 2466 c03d d8ef 6dbd b0fa 853c
00000040: e800 693d 581a c33c b88d 393d bde2 3ebd
00000050: dec5 153d 0866 bd3d b212 d4bc 9e77 45be
00000060: efef 9ebd 9882 92bd 22c7 bd3d f1ec 263c
00000070: 4531 bcbd ff15 533c ea48 2a3d 2fc8 efbd
00000080: 0178 6cbd fdc3 57bd 338a de3d db19 54be
00000090: 0e3c 3cbd 9add b03d a097 e3bd fe4a 01be
000000a0: 0344 cd3c aa70 4c3e 7731 1cbe 6832 963d
000000b0: bcdd 023e d5f2 963d 6206 fe3b 70e0 03be
000000c0: 05ba c8bb 754b d53d 469e 963c 77bd 09be
000000d0: db3b ca3c 91e2 c53d 4a1e ac3c dfab 38be
000000e0: cd58 aa3b 17b5 983d 5c8b 9a3d 45a5 003e
000000f0: ee29 583c f6a5 2bbc da37 c4bd
-0.03796416 0.055859555 0.026003305 -0.0008563377 -0.08241689 -0.06237071 0.04244149 -0.09150259
0.048901737 -0.048264943 -0.08445831 -0.12266577 0.051515233 0.09394482 -0.05809006 0.016354889
0.05688563 0.023816273 0.04530117 -0.046602953 0.036565654 0.092479765 -0.02588782 -0.19283912
-0.077606075 -0.07153815 0.09266497 0.010188327 -0.09189085 0.012883662 0.041573443 -0.11708104
-0.057731632 -0.052677143 0.10866203 -0.20712988 -0.04595571 0.08636017 -0.111129045 -0.12626263
0.025056845 0.19964853 -0.15253244 0.07333833 0.12779897 0.07370535 0.0077522257 -0.12878585
-0.006125691 0.10414783 0.018386018 -0.13451181 0.024686744 0.09662355 0.021010537 -0.18034314
0.005198574 0.07456415 0.07546112 0.12563045 0.013193591 -0.01047658 -0.09580965
