KAIR/denoising/dncnn25/models/15000_G.pth (torch, 772933 bytes, 111 tensors)

model.0.bias f4 [64]
0.0 0.0 0.0 0.0 0.0 0.0 0.0 0.0
0.0 0.0 0.0 0.0 0.0 0.0 0.0 0.0
0.0 0.0 0.0 0.0 0.0 0.0 0.0 0.0
0.0 0.0 0.0 0.0 0.0 0.0 0.0 0.0
0.0 0.0 0.0 0.0 0.0 0.0 0.0 0.0
0.0 0.0 0.0 0.0 0.0 0.0 0.0 0.0
0.0 0.0 0.0 0.0 0.0 0.0 0.0 0.0
0.0 0.0 0.0 0.0 0.0 0.0 0.0 0.0
00000000: 0000 0000 0000 0000 0000 0000 0000 0000
00000010: 0000 0000 0000 0000 0000 0000 0000 0000
00000020: 0000 0000 0000 0000 0000 0000 0000 0000
00000030: 0000 0000 0000 0000 0000 0000 0000 0000
00000040: 0000 0000 0000 0000 0000 0000 0000 0000
00000050: 0000 0000 0000 0000 0000 0000 0000 0000
00000060: 0000 0000 0000 0000 0000 0000 0000 0000
00000070: 0000 0000 0000 0000 0000 0000 0000 0000
00000080: 0000 0000 0000 0000 0000 0000 0000 0000
00000090: 0000 0000 0000 0000 0000 0000 0000 0000
000000a0: 0000 0000 0000 0000 0000 0000 0000 0000
000000b0: 0000 0000 0000 0000 0000 0000 0000 0000
000000c0: 0000 0000 0000 0000 0000 0000 0000 0000
000000d0: 0000 0000 0000 0000 0000 0000 0000 0000
000000e0: 0000 0000 0000 0000 0000 0000 0000 0000
000000f0: 0000 0000 0000 0000 0000 0000 0000 0000

model.0.A f4 [3, 3, 3]
-0.31388038 0.5904023 0.4818366 0.20625962 0.36414698 -0.051411755 -0.07013246 -0.5071992
-0.19975568 -0.08625444 0.28537408 -0.45177722 -0.09230858 0.46825126 0.32781085 -0.31748185
0.11789112 -0.0107011935 -0.29462707 -0.21453613 -0.10698632 0.42134577 -0.17296852 0.3980449
0.36899918 0.5115288 -0.2889065
00000000: eeb4 a0be 9b24 173f 49b3 f63e b935 533e
00000010: 7971 ba3e 2295 52bd 9ba1 8fbd cfd7 01bf
00000020: c18c 4cbe 2ba6 b0bd 8d1c 923e 584f e7be
00000030: 480c bdbd a1be ef3e d3d6 a73e fb8c a2be
00000040: e670 f13d 0f54 2fbc 5cd9 96be 5caf 5bbe
00000050: a51b dbbd a2ba d73e a91e 31be 8bcc cb3e
00000060: 76ed bc3e 8df3 023f 8eeb 93be

model.0.F f4 [3, 21, 1, 3, 3]
-0.047498986 0.07651383 -0.12543479 0.17347041 0.17839636 0.010389152 -0.022491496 0.0199639
-0.014089184 0.16773094 0.14876594 0.03315108 0.005595198 -0.10548646 -0.080696605 0.13630986
-0.07393747 0.08424147 -0.13464889 -0.1537379 0.1016638 0.1250082 0.01820147 -0.074178204
0.07006151 -0.08770902 -0.036250543 0.12534669 -0.14559792 0.06418584 0.0024095913 0.124833845
-0.018130153 0.0030890938 -0.0176072 0.12922697 -0.080101594 -0.053097725 -0.066613294 -0.25524005
-0.19139695 0.030020071 0.0048137647 -0.19599427 -0.012936608 -0.08426099 0.13536699 0.0178725
0.117568694 0.1533148 0.06216748 0.10936656 0.13420157 0.13600764 0.022090267 -0.0023200156
0.082409725 -0.11975495 0.077273004 0.012255741 0.02670974 -0.0777397 -0.043615445 -0.06871611
-0.012167085 -0.12576309 -0.15386455 -0.058123033 0.015752245 -0.10570814 0.12809658 0.09122153
0.069026195 0.023063786 0.15444514 -0.03724981 -0.063238695 -0.032179855 -0.13547872 -0.104896836
-0.099936694 -0.11549744 -0.049248185 -0.109285094 0.08167243 0.025210526 -0.008150858 -0.14295913
0.06522645 -0.15193559 -0.043926388 0.19462101 0.095537476 0.15394886 0.14960088 0.08097708
0.030284949 0.029655391 -0.019770442 0.05448429 -0.027098494 0.005287019 -0.033131696 0.02933903
0.017158188 0.107153535 -0.078026205 0.004611911 -0.039380148 -0.17777213 -0.13670833 -0.04230452
-0.051237207 0.058923006 -0.076232634 0.007585032 0.027118303 -0.09389486 -0.16599828 0.021260481
-0.11130191 -0.19659917 -0.10805639 0.115388095 -0.15650593 -0.0028623207 0.04406004 -0.019696945
0.08180348 -0.017154248 0.017137973 -0.1411134 -0.117418505 0.09817859 -0.1295286 0.07997582
-0.017381987 0.13141184 -0.12180166 0.16256875 0.13940191 0.0031119755 0.082340054 0.097965285
0.035586283 -0.13639897 0.10547858 0.14746113 0.03147256 0.11754464 -0.013173796 -0.014739812
0.12533405 0.15823855 0.0662512 -0.036909454 0.21429121 0.072458066 -0.032276683 -0.07277232
0.08110833 0.10589749 0.054711647 -0.1329827 0.028331473 0.15433751 -0.05979343 0.12303045
0.093986414 0.095012605 -0.07807548 0.07664717 0.095933415 0.058421172 0.06370209 0.08688952
-0.003166434 -0.091890335 0.123436235 0.08653973 -0.1251863 0.032164272 -0.11966917 -0.102087125
-0.12071001 -0.07816856 -0.1272255 -0.20318541 -0.116393246 -0.13560106 -0.06056632 0.033660974
-0.07682513 0.051112257 0.10346655 -0.14216127 -0.030476863 -0.103641585 -0.17901084 -0.025753964
-0.029984364 0.06504852 0.006270692 -0.03392538 -0.089415886 -0.06302091 -0.010613816 0.13913509
-0.007976309 0.11671711 0.019262435 0.11489424 0.039066393 -0.09514704 0.09840978 0.09178549
-0.06059147 -0.19555159 -0.11073803 -0.10380312 -0.22671802 -0.08223696 0.04230857 0.038542602
0.11618427 0.11557082 -0.06825991 -0.07494349 -0.02144497 0.16385795 -0.03472886 0.026574692
0.10003359 -0.033178084 0.050242368 0.05231063 0.112569876 0.0809129 -0.040636722 0.12362721
-0.037175886 -0.002269788 -0.065990545 0.1434017 -0.10186983 0.060322452 0.0058837575 0.20954403
0.10923579 0.020815741 0.061873984 -0.08166721 0.10953888 0.08196618 0.15177898 0.17670426
00000000: 4c8e 42bd 48b3 9c3d fa71 00be 3aa2 313e
00000010: 89ad 363e 4337 2a3c 1640 b8bc 558b a33c
00000020: 52d6 66bc a9c1 2b3e 1956 183e 6dc9 073d
00000030: ec57 b73b 4909 d8bd 4344 a5bd d094 0b3e
00000040: 876c 97bd cb86 ac3d 66e1 09be 786d 1dbe
00000050: 1c35 d03d 2602 003e 401b 953c beea 97bd
00000060: 697c 8f3d c9a0 b3bd 737b 14bd e25a 003e
00000070: 9f17 15be de73 833d 3cea 1d3b e3a8 ff3d
00000080: b085 94bc 6572 4a3b fa3c 90bc 1354 043e
00000090: 4e0c a4bd 007d 59bd 8d6c 88bd d3ae 82be
000000a0: 90fd 43be a7ec f53c c9bc 9d3b b9b2 48be
000000b0: 11f4 53bc 0791 acbd a59d 0a3e 5969 923c
000000c0: dbc7 f03d 8efe 1c3e 54a3 7e3d 93fb df3d
000000d0: 236c 093e 9645 0b3e a6f6 b43c 670b 18bb
000000e0: 6ec6 a83d 1542 f5bd 4f41 9e3d 4ecc 483c
000000f0: 62ce da3c fe35 9fbd 1ca6 32bd 08bb 8cbd
00000100: 7458 47bc 0ac8 00be ab8e 1dbe 6b12 6ebd
00000110: da0a 813c 827d d8bd c02b 033e 5bd2 ba3d
00000120: 9b5d 8d3d 44f0 bc3c de26 1e3e 4293 18bd
00000130: 4a83 81bd 06cf 03bd efba 0abe 27d4 d6bd
00000140: 9cab ccbd ec89 ecbd 77b8 49bd ddd0 dfbd
00000150: e043 a73d 4e86 ce3c 2d8b 05bc e163 12be
00000160: 7295 853d 0195 1bbe 28ec 33bd bb4a 473e
00000170: 27a9 c33d c5a4 1d3e f930 193e 50d7 a53d
00000180: 2418 f83c ddef f23c 9ff5 a1bc eb2a 5f3d
00000190: a9fd ddbc bb3e ad3b 1ab5 07bd 6858 f03c
000001a0: 548f 8c3c 5073 db3d 34cc 9fbd 831f 973b
000001b0: 144d 21bd e609 36be 45fd 0bbe 8147 2dbd
000001c0: 1bde 51bd 4059 713d db1f 9cbd dc8b f83b
000001d0: 3427 de3c f34b c0bd 74fb 29be 762a ae3c
000001e0: 41f2 e3bd 4b51 49be ab4c ddbd 9850 ec3d
000001f0: 1743 20be c695 3bbb 4d78 343d 7d5b a1bc
00000200: 9588 a73d 1187 8cbc ef64 8c3c 0880 10be
00000210: 1d79 f0bd db11 c93d 25a3 04be 5dca a33d
00000220: ab64 8ebc d390 063e 2673 f9bd 6c78 263e
00000230: 60bf 0e3e 49f2 4b3b e7a1 a83d 06a2 c83d
00000240: ecc2 113d 2cac 0bbe 2705 d83d 0d00 173e
00000250: 5fe9 003d 3fbb f03d e8d6 57bc 417f 71bc
00000260: 9257 003e 4909 223e b6ae 873d 5e2e 17bd
00000270: 286f 5b3e e564 943d 8e34 04bd a709 95bd
00000280: 201c a63d c9e0 d83d 5219 603d 9e2c 08be
00000290: 6817 e83c a70a 1e3e f5e9 74bd 63f7 fb3d
000002a0: f37b c03d f895 c23d 0ae6 9fbd 31f9 9c3d
000002b0: bd78 c43d 0a4b 6f3d 3e76 823d 22f3 b13d
000002c0: f283 4fbb 0031 bcbd 23cc fc3d be3b b13d
000002d0: d630 00be afbe 033d 1c15 f5bd 0e13 d1bd
000002e0: cf36 f7bd d716 a0bd 6747 02be d60f 50be
000002f0: 955f eebd 01db 0abe 6414 78bd 17e0 093d
00000300: 7e56 9dbd 165b 513d 45e6 d33d b992 11be
00000310: 9daa f9bc 0a42 d4bd 9e4e 37be faf9 d2bc
00000320: c5a1 f5bc 2938 853d 617a cd3b 57f5 0abd
00000330: ad1f b7bd 1b11 81bd 92e5 2dbc 6e79 0e3e
00000340: 11af 02bc 6109 ef3d 41cc 9d3c ac4d eb3d
00000350: 1504 203d 74dc c2bd 118b c93d 08fa bb3d
00000360: c32e 78bd ad3e 48be 9fca e2bd bb96 d4bd
00000370: c528 68be da6b a8bd c04b 2d3d d9de 1d3d
00000380: 05f2 ed3d 65b0 ec3d dacb 8bbd f97b 99bd
00000390: 5dad afbc 61ca 273e d93f 0ebd 2bb3 d93c
000003a0: 69de cc3d bee5 07bd f1ca 4d3d ac43 563d
000003b0: 098b e63d aab5 a53d b172 26bd 4330 fd3d
000003c0: be45 18bd b9c0 14bb 0d26 87bd e5d7 123e
000003d0: 21a1 d0bd ad14 773d 89cc c03b b692 563e
000003e0: 04b7 df3d c685 aa3c 936f 7d3d 2341 a7bd
000003f0: ec55 e03d e2dd a73d f36b 1b3e f6f1 343e

model.2.bias f4 [64]
0.0 0.0 0.0 0.0 0.0 0.0 0.0 0.0
0.0 0.0 0.0 0.0 0.0 0.0 0.0 0.0
0.0 0.0 0.0 0.0 0.0 0.0 0.0 0.0
0.0 0.0 0.0 0.0 0.0 0.0 0.0 0.0
0.0 0.0 0.0 0.0 0.0 0.0 0.0 0.0
0.0 0.0 0.0 0.0 0.0 0.0 0.0 0.0
0.0 0.0 0.0 0.0 0.0 0.0 0.0 0.0
0.0 0.0 0.0 0.0 0.0 0.0 0.0 0.0
00000000: 0000 0000 0000 0000 0000 0000 0000 0000
00000010: 0000 0000 0000 0000 0000 0000 0000 0000
00000020: 0000 0000 0000 0000 0000 0000 0000 0000
00000030: 0000 0000 0000 0000 0000 0000 0000 0000
00000040: 0000 0000 0000 0000 0000 0000 0000 0000
00000050: 0000 0000 0000 0000 0000 0000 0000 0000
00000060: 0000 0000 0000 0000 0000 0000 0000 0000
00000070: 0000 0000 0000 0000 0000 0000 0000 0000
00000080: 0000 0000 0000 0000 0000 0000 0000 0000
00000090: 0000 0000 0000 0000 0000 0000 0000 0000
000000a0: 0000 0000 0000 0000 0000 0000 0000 0000
000000b0: 0000 0000 0000 0000 0000 0000 0000 0000
000000c0: 0000 0000 0000 0000 0000 0000 0000 0000
000000d0: 0000 0000 0000 0000 0000 0000 0000 0000
000000e0: 0000 0000 0000 0000 0000 0000 0000 0000
000000f0: 0000 0000 0000 0000 0000 0000 0000 0000

model.2.A f4 [3, 3, 3]
-0.4610535 0.5517734 0.16511258 0.41834232 -0.2671564 -0.24286735 0.32498032 -0.4601567
0.3080567 -0.30052605 -0.42912742 0.06515368 0.12340443 -0.39042172 0.22077703 -0.28139585
-0.33063403 -0.03260182 0.2729229 0.49227816 -0.46506652 -0.110627264 -0.13748652 -0.25982198
-0.28734106 -0.46029308 0.07857299
00000000: 340f ecbe 0641 0d3f 4613 293e f730 d63e
00000010: b9c8 88be 38b2 78be d263 a63e a999 ebbe
00000020: 9cb9 9d3e 8dde 99be 97b6 dbbe 4b6f 853d
00000030: 76bb fc3d 5be5 c7be 6013 623e 1e13 90be
00000040: dd48 a9be 7c89 05bd 8dbc 8b3e e20b fc3e
00000050: 331d eebe 8c90 e2bd 44c9 0cbe 6307 85be
00000060: 5e1e 93be 89ab ebbe e0ea a03d

model.2.F f4 [3, 21, 21, 3, 3]
0.018731706 -0.022751426 -0.025819309 -0.016057765 -0.017468331 0.0048502176 -0.02037863 0.030069137
-0.008753149 0.0125785805 -0.021302631 0.00589005 -0.008916462 -0.011980391 0.0077349623 -0.035827838
-0.012036329 0.013217471 -0.016466115 -0.02985957 0.03149396 -0.01369785 -0.028602708 0.007846887
0.023881035 0.025605727 0.006809148 0.023260405 -0.010127567 0.017459659 0.028983908 -0.025952047
-0.00775698 0.017282283 -0.0069276216 0.005406983 0.02229312 -0.010361433 0.007632187 0.0041151564
0.0031166764 0.043863907 -0.0016784767 -0.0012479182 -0.0016843374 -0.015147786 -0.054865576 -0.02341664
0.001855423 -0.00277888 -0.020331355 -0.00669576 0.000483894 0.029932754 0.023765791 -0.01985332
-0.0044697104 0.005460724 0.0124542685 -0.019506242 0.035722166 0.033574138 0.045865092 0.029964516
-0.025840549 -0.020888917 0.039238725 0.017963337 0.026659116 0.024233066 0.010414311 0.0054428866
0.012492115 -0.036090747 -0.01048505 -0.028476378 0.00071134494 -0.011365771 0.013828805 0.01149804
-0.0014830999 -0.034430586 0.044532202 -0.039139662 -0.021864487 0.007222821 -0.04179219 0.024119064
0.023468398 -0.0011334945 -0.0035917948 -0.032587674 -0.00034287575 -0.010723533 -0.05769851 0.006685051
0.0076316874 -0.01052447 0.02621989 -0.03255555 0.014722492 -0.008954264 -0.016867537 -0.0482023
-0.045065235 0.011760562 -0.0008981556 -0.0053080088 0.0017224848 -0.015523026 -0.04070197 -0.016172305
-0.00091083994 0.018286288 -0.004655436 -0.0036979762 -0.031778455 -0.0008084997 -0.02669875 -0.0150026465
-0.046530023 0.027755463 0.037732113 0.009822535 0.011450645 0.047049582 -0.0048588957 -0.00213726
-0.0094481725 -0.011643128 0.05376539 -0.0012647444 0.00621452 -0.0211175 -0.009304263 -0.015127762
0.0145481285 0.0076331943 -0.043778826 -0.026377473 -0.051117532 0.0044738213 -0.011344133 0.015479026
0.006538971 0.011053449 -0.016518865 -0.034099653 0.014120342 -0.008976121 -0.023055967 0.024690581
0.032226175 -0.04487126 -0.0034734758 0.043223064 0.026720656 0.07005468 -0.0067636175 0.017657336
0.003835868 -0.030350624 -0.0067220344 0.027337702 0.01095198 -0.007053935 -0.006524048 -0.036818538
0.029447416 0.042589076 0.011349795 -0.02521406 -0.011535144 -0.038791362 -0.027897652 0.037547756
-0.014539592 -0.026328675 -0.0023660846 -0.005189564 -0.010587692 -0.053072065 -0.026661362 0.027835818
0.016506318 0.008532006 -0.034748573 0.054950114 0.010058321 0.009066028 0.02730499 0.0019682692
0.052817162 0.0045186114 0.017673135 0.013022439 0.007819558 -0.0027467543 0.017136259 0.014508211
-0.011115363 -0.023460947 -0.0012365007 0.06367841 -0.00039950828 -0.03156119 -0.031222556 0.008182929
0.028218351 9.76204e-05 0.019546518 -0.035821766 0.0033495603 -0.029249718 -0.03681755 -0.021794269
0.027713424 -0.0026144115 -0.0019355721 0.031092186 -0.005144469 -0.010339567 0.044767093 -0.012825618
-0.013752152 -0.0066157677 0.046142988 -0.0030945872 -0.014714732 0.05492774 0.026997054 -0.005171179
0.0040900493 0.0098101115 -0.008171288 -0.0032234625 0.01996437 0.013030262 -0.0018844963 0.00433646
-0.024056302 0.02001538 0.0069868877 -0.0194466 -0.04245519 -0.0040825643 0.037724696 0.006453357
-0.010404506 0.001596924 -0.011718442 0.011339363 0.006547043 -0.0041504805 -0.030144028 -0.017114006
00000000: 3c73 993c 3361 babc 0483 d3bc 938b 83bc
00000010: bf19 8fbc 93ee 9e3b 16f1 a6bc 8d53 f63c
00000020: 5e69 0fbc 6416 4e3c db82 aebc 5201 c13b
00000030: 5a16 12bc 6749 44bc 9175 fd3b 36c0 12bd
00000040: 0634 45bc 178e 583c f2e3 86bc 0f9c f4bc
00000050: d0ff 003d f26c 60bc 3a50 eabc 3b90 003c
00000060: 29a2 c33c 1ac3 d13c 461f df3b 9b8c be3c
00000070: 18ee 25bc 8f07 8f3c a96f ed3c 6399 d4bc
00000080: 442e febb 9393 8d3c 1a01 e3bb 102d b13b
00000090: 10a0 b63c 00c3 29bc 6d17 fa3b 6fd8 863b
000000a0: 2741 4c3b a4aa 333d 5500 dcba 3091 a3ba
000000b0: fcc4 dcba 6b2e 78bc baba 60bd 41d4 bfbc
000000c0: aa31 f33a df1d 36bb f18d a6bc 1b68 dbbb
000000d0: 27b3 fd39 8935 f53c 7ab0 c23c 6ea3 a2bc
000000e0: a676 92bb dfef b23b fd0c 4c3c 8ecb 9fbc
000000f0: 6851 123d 0985 093d 09dd 3b3d 2578 f53c
00000100: 8faf d3bc 3c1f abbc c9b8 203d d927 933c
00000110: 3864 da3c 6c84 c63c c9a0 2a3c 3e5a b23b
00000120: baab 4c3c e4d3 13bd 7dc9 2bbc 4b47 e9bc
00000130: 8d79 3a3a 8037 3abc 3692 623c 4662 3c3c
00000140: 9364 c2ba 1607 0dbd 6667 363d e950 20bd
00000150: 271d b3bc 6aad ec3b 4a2e 2bbd 5895 c53c
00000160: cc40 c03c c491 94ba 5164 6bbb a77a 05bd
00000170: 01c4 b3b9 c2b1 2fbc 4655 6cbd 460e db3b
00000180: 3c13 fa3b d46e 2cbc 18cb d63c f858 05bd
00000190: 9b36 713c e8b4 12bc ca2d 8abc c66f 45bd
000001a0: 5396 38bd 5faf 403c 3472 6bba ceee adbb
000001b0: 00c5 e13a 4a54 7ebc 1cb7 26bd c87b 84bc
000001c0: 6fc5 6eba 20cd 953c a18c 98bb bf59 72bb
000001d0: 202a 02bd 7ff1 53ba 56b7 dabc a9cd 75bc
000001e0: 4496 3ebd 6d5f e33c fd8c 1a3d b3ee 203c
000001f0: 7c9b 3b3c 10b7 403d 5f37 9fbb 4611 0cbb
00000200: 82cc 1abc d1c2 3ebc 1939 5c3d c8c5 a5ba
00000210: 2ca3 cb3b 9bfe acbc e870 18bc 6fda 77bc
00000220: 465b 6e3c e01f fa3b 6d51 33bd 9215 d8bc
00000230: 9e60 51bd 2299 923b bedc 39bc be9b 7d3c
00000240: dd44 d63b 8619 353c 9252 87bc 14ac 0bbd
00000250: 0259 673c 9510 13bc dedf bcbc e743 ca3c
00000260: 98ff 033d edca 37bd 41a3 63bb ab0a 313d
00000270: 47e5 da3c d478 8f3d 56a1 ddbb 1ea6 903c
00000280: 3063 7b3b dfa1 f8bc 8344 dcbb 51f3 df3c
00000290: ef6f 333c b224 e7bb aec7 d5bb 09cf 16bd
000002a0: b53b f13c e271 2e3d 7ef4 393c b78d cebc
000002b0: e7fd 3cbc b1e3 1ebd 9e89 e4bc adcb 193d
000002c0: 7837 6ebc 3caf d7bc 5010 1bbb 380d aabb
000002d0: 0078 2dbc 1862 59bd ee68 dabc f107 e43c
000002e0: 4238 873c d4c9 0b3c 8554 0ebd 5f13 613d
000002f0: a8cb 243c ad89 143c b7ae df3c 14fe 003b
00000300: cf56 583d dc10 943b 40c7 903c 115c 553c
00000310: 9a1d 003c e402 34bb 5761 8c3c d9b3 6d3c
00000320: 361d 36bc 2c31 c0bc 1412 a2ba d469 823d
00000330: 1875 d1b9 4e46 01bd 72c6 ffbc b111 063c
00000340: 2c2a e73c 8eb9 cc38 0520 a03c d8b9 12bd
00000350: 4c84 5b3b 1b9d efbc 00ce 16bd e589 b2bc
00000360: 4307 e33c 8c56 2bbb 06b3 fdba 0ab5 fe3c
00000370: ef92 a8bb 4a67 29bc b35d 373d 8a22 52bc
00000380: b550 61bc 15c9 d8bb 6e00 3d3d 8fce 4abb
00000390: 0f16 71bc e9fb 603d ed28 dd3c fe72 a9bb
000003a0: d205 863b 97ba 203c dee0 05bc ba40 53bb
000003b0: 528c a33c e17c 553c 3401 f7ba dd18 8e3b
000003c0: b911 c5bc 4bf7 a33c 43f2 e43b 7a4e 9fbc
000003d0: 7ee5 2dbd 08c7 85bb 3685 1a3d af76 d33b
000003e0: a977 2abc e14f d13a b5fe 3fbc bcc8 393c
000003f0: 9488 d63b c100 88bb 9cf0 f6bc ac32 8cbc

model.3.weight f4 [63]
0.39007178 0.78353894 0.42416307 0.31487268 0.074049644 0.8647774 0.08835948 0.80462146
0.14576317 0.28291553 0.6130696 0.20575331 0.82875305 0.96071804 0.7836069 0.41792217
0.6597252 0.103319496 0.4598713 0.18464832 0.21452837 0.6423056 0.7182405 0.884891
0.8363502 0.61451775 0.3164231 0.36259422 0.40982172 0.15616092 0.29615062 0.13383426
0.7450566 0.5490084 0.5909435 0.24098015 0.8275028 0.23463385 0.2873165 0.74422485
0.67736405 0.6552992 0.22264598 0.6277851 0.3921027 0.40012908 0.95501006 0.37563723
0.18856885 0.8983834 0.1977784 0.23158246 0.30415285 0.9216186 0.95214 0.85471064
0.14250198 0.38628656 0.36196128 0.7947922 0.30200002 0.40758157 0.9038658
00000000: 7db7 c73e 0296 483f e72b d93e fe36 a13e
00000010: 57a7 973d 0d62 5d3f d1f5 b43d acfb 4d3f
00000020: f142 153e 4eda 903e 21f2 1c3f ffb0 523e
00000030: 2929 543f 9ef1 753f 769a 483f e5f9 d53e
00000040: c0e3 283f 2c99 d33d 4074 eb3e 7314 3d3e
00000050: 53ad 5b3e 246e 243f 9cde 373f 3788 623f
00000060: 0c1b 563f 0951 1d3f 3502 a23e f3a5 b93e
00000070: 27d4 d13e a6e8 1f3e 0ea1 973e d90b 093e
00000080: 08bc 3e3f d18b 0c3f 1348 173f 80c3 763e
00000090: 39d7 533f db43 703e 261b 933e 8585 3e3f
000000a0: bb67 2d3f b0c1 273f 4ffd 633e 86b6 203f
000000b0: afc1 c83e b8dd cc3e 8a7b 743f 8653 c03e
000000c0: 3118 413e 74fc 653f 6c86 4a3e f423 6d3e
000000d0: ecb9 9b3e 32ef 6b3f 72bf 733f 51ce 5a3f
000000e0: 0aec 113e 5ac7 c53e fd52 b93e 8077 4b3f
000000f0: bf9f 9a3e 88ae d03e c063 673f

model.3.bias f4 [63]
0.094283074 0.16779204 0.1125857 0.06937913 0.0027160735 0.101138584 -0.06849653 -0.009917745
0.31086975 0.1519872 0.37592575 0.054412786 0.1125832 -0.040379785 -0.045971245 0.01901197
-0.05604852 0.17120102 -0.007926284 -0.028826108 0.1240723 0.05746236 -0.021366546 0.089230664
0.11733212 0.1383 0.15023544 0.15154383 0.10587916 0.030901382 0.037057094 -0.056485616
-0.114463344 -0.057505056 -0.020502854 0.09951768 0.1541688 0.02207463 -0.014734713 0.21746717
-0.023249943 -0.06317411 0.109431155 -0.079829454 0.18142766 0.046838198 0.10679352 0.1391397
0.2903959 0.1385281 0.30006936 0.24556857 -0.050622813 -0.07283927 -0.13678588 -0.019490106
0.08976981 0.030047413 -0.023072716 -0.08971218 0.052813046 0.030359829 -0.08444356
00000000: 7c17 c13d add1 2b3e 5593 e63d a516 8e3d
00000010: 2700 323b bf21 cf3d e947 8cbd 0a7e 22bc
00000020: 522a 9f3e 88a2 1b3e 5779 c03e f1df 5e3d
00000030: 0592 e63d 4665 25bd 584c 3cbd febe 9b3c
00000040: 2293 65bd 524f 2f3e 3fdd 01bc bb24 ecbc
00000050: 9e19 fe3d a75d 6b3d e508 afbc 91be b63d
00000060: d34b f03d 849e 0d3e 52d7 193e 4e2e 1b3e
00000070: 2cd7 d83d e524 fd3c 2ec9 173d 765d 67bd
00000080: c26b eabd 6c8a 6bbd 9af5 a7bc edcf cb3d
00000090: 6dde 1d3e dbd5 b43c de69 71bc b7af 5e3e
000000a0: aa76 bebc 6e61 81bd 711d e03d a07d a3bd
000000b0: 2cc8 393e 69d9 3f3d 90b6 da3d a37a 0e3e
000000c0: c5ae 943e 4fda 0d3e b1a2 993e 5476 7b3e
000000d0: de59 4fbd c12c 95bd 9911 0cbe b7a9 9fbc
000000e0: 3cd9 b73d fe25 f63c fe02 bdbc 05bb b7bd
000000f0: 7e52 583d 2db5 f83c bff0 acbd

model.3.running_mean f4 [63]
0.009595062 -0.10379987 -0.07364036 0.031302772 0.053349912 -0.078628495 0.036157053 0.089261964
0.012205568 0.005987818 -0.08925066 -0.12970454 -0.093796305 0.1253522 0.1344048 0.072573364
0.06891408 -0.09562484 0.11047686 0.051027346 -0.016551618 -0.06303846 0.07034852 -0.08424311
-0.033287875 -0.035674766 -0.031102993 -0.05383393 -0.036916323 -0.05002451 -0.045946036 0.056020163
0.05469186 0.112572715 0.12790859 -0.040100046 -0.058667995 -0.016856873 0.138851 -0.049000617
0.039772995 0.064669214 -0.047383063 0.09978692 -0.06259639 -0.10031002 -0.107833 -0.11855491
-0.055942293 -0.11067594 -0.055574346 -0.02174082 0.09091286 0.113862395 0.18887575 0.105960764
-0.01554063 0.03637385 0.089573935 0.13662785 -0.032658573 0.03445148 0.08693739
00000000: 9b34 1d3c 0795 d4bd c2d0 96bd 5637 003d
00000010: 7085 5a3d fa07 a1bd 6b19 143d face b63d
00000020: ddf9 473c 7535 c43b 0dc9 b6bd 44d1 04be
00000030: 4718 c0bd 545c 003e 69a1 093e 58a1 943d
00000040: d322 8d3d f5d6 c3bd b141 e23d 0d02 513d
00000050: 4297 87bc 4f1a 81bd e312 903d a787 acbd
00000060: de58 08bd b41f 12bd b4cb febc f880 5cbd
00000070: 9235 17bd 80e6 4cbd e931 3cbd 6675 653d
00000080: 9204 603d 868c e63d 78fa 023e f23f 24bd
00000090: da4d 70bd 6d17 8abc f52e 0e3e dfb4 48bd
000000a0: 02e9 223d 4b71 843d be14 42bd 165d cc3d
000000b0: 8932 80bd 576f cdbd 8cd7 dcbd ebcc f2bd
000000c0: bf23 65bd 11aa e2bd eda1 63bd ce19 b2bc
000000d0: 8630 ba3d b030 e93d a568 413e f501 d93d
000000e0: 209e 7ebc bffc 143d 8a72 b73d 2ce8 0b3e
000000f0: ffc4 05bd ff1c 0d3d 3b0c b23d

model.3.running_var f4 [63]
0.0015060416 0.0036721905 0.002258937 0.0006441348 0.0011910297 0.002042226 0.0006765217 0.0027242713
0.00015493571 0.00025689494 0.0027327684 0.005750441 0.0030742448 0.0052695284 0.0059538246 0.0021498995
0.0015866883 0.0032427197 0.0041345083 0.001341495 0.00048345485 0.0012993792 0.0015834618 0.0024111539
0.0004486566 0.00042406123 0.00040601412 0.0010980902 0.00048952625 0.00090730283 0.0008566637 0.001119081
0.0009898271 0.0041735414 0.0054398975 0.00055531855 0.001181565 0.00017146696 0.0062580523 0.00088828884
0.00056871166 0.00142919 0.00079696917 0.0032631764 0.0013391221 0.0032528169 0.0038176097 0.004516782
0.0011404633 0.0041834274 0.0011466788 0.00020505018 0.0028032914 0.0042205327 0.011739576 0.0038700835
0.00014051898 0.00048258863 0.0027333817 0.005985595 0.00044687363 0.0004150988 0.0025043052
00000000: 5f66 c53a 22a9 703b ad0a 143b 28db 283a
00000010: 531c 9c3a ded6 053b 9a58 313a b089 323b
00000020: 3d76 2239 dbaf 8639 3f18 333b 326e bc3b
00000030: 4579 493b 02ac ac3b 4d18 c33b 54e5 0c3b
00000040: 6df8 cf3a cf83 543b c57a 873b 1ad5 af3a
00000050: 3678 fd39 ee4f aa3a 298c cf3a 7304 1e3b
00000060: ab39 eb39 8954 de39 4bde d439 cbed 8f3a
00000070: 8d53 003a 10d8 6d3a ba91 603a 21ae 923a
00000080: 16bd 813a 34c2 883b 2b41 b23b cc92 113a
00000090: bede 9a3a d0cb 3339 5910 cd3b 0edc 683a
000000a0: 9815 153a a953 bb3a b2eb 503a 04db 553b
000000b0: 7b85 af3a 362d 553b dd30 7a3b 8301 943b
000000c0: 997b 953a 2215 893b 284c 963a bd02 5739
000000d0: 6db7 373b 654c 8a3b 5a57 403c 3aa1 7d3b
000000e0: 4758 1339 f303 fd39 8922 333b cf22 c43b
000000f0: 5d4a ea39 9ea1 d939 451f 243b

model.5.bias f4 [64]
0.0 0.0 0.0 0.0 0.0 0.0 0.0 0.0
0.0 0.0 0.0 0.0 0.0 0.0 0.0 0.0
0.0 0.0 0.0 0.0 0.0 0.0 0.0 0.0
0.0 0.0 0.0 0.0 0.0 0.0 0.0 0.0
0.0 0.0 0.0 0.0 0.0 0.0 0.0 0.0
0.0 0.0 0.0 0.0 0.0 0.0 0.0 0.0
0.0 0.0 0.0 0.0 0.0 0.0 0.0 0.0
0.0 0.0 0.0 0.0 0.0 0.0 0.0 0.0
00000000: 0000 0000 0000 0000 0000 0000 0000 0000
00000010: 0000 0000 0000 0000 0000 0000 0000 0000
00000020: 0000 0000 0000 0000 0000 0000 0000 0000
00000030: 0000 0000 0000 0000 0000 0000 0000 0000
00000040: 0000 0000 0000 0000 0000 0000 0000 0000
00000050: 0000 0000 0000 0000 0000 0000 0000 0000
00000060: 0000 0000 0000 0000 0000 0000 0000 0000
00000070: 0000 0000 0000 0000 0000 0000 0000 0000
00000080: 0000 0000 0000 0000 0000 0000 0000 0000
00000090: 0000 0000 0000 0000 0000 0000 0000 0000
000000a0: 0000 0000 0000 0000 0000 0000 0000 0000
000000b0: 0000 0000 0000 0000 0000 0000 0000 0000
000000c0: 0000 0000 0000 0000 0000 0000 0000 0000
000000d0: 0000 0000 0000 0000 0000 0000 0000 0000
000000e0: 0000 0000 0000 0000 0000 0000 0000 0000
000000f0: 0000 0000 0000 0000 0000 0000 0000 0000

model.5.A f4 [3, 3, 3]
-0.21619444 -0.107234485 -0.44466913 0.5098095 0.03204733 -0.5174995 -0.5033608 -0.09190064
-0.52998495 -0.16013321 -0.1693215 0.5119667 -0.47241172 -0.49432182 0.088722505 0.0022681719
-0.4163093 -0.45166218 -0.49474457 0.14571963 -0.32176778 0.4452405 0.09701767 0.4955438
-0.04734299 0.51656353 0.04292143
00000000: 1362 5dbe c19d dbbd acab e3be e082 023f
00000010: 1044 033d d97a 04bf 41dc 00bf 6736 bcbd
00000020: 18ad 07bf f6f9 23be 9e62 2dbe 4010 033f
00000030: f3df f1be c017 fdbe 25b4 b53d 9ca5 143b
00000040: 7e26 d5be 4440 e7be 294f fdbe 8737 153e
00000050: bfbe a4be 90f6 e33e 33b1 c63d ebb7 fd3e
00000060: b9ea 41bd 823d 043f 62ce 2f3d

model.5.F f4 [3, 21, 21, 3, 3]
-0.008404051 0.0010272065 0.02588557 0.00038657326 0.002517135 -0.0045408546 -0.0048916256 -0.0027288876
-0.02683515 -0.006139983 0.034522645 0.035505198 0.027864067 -0.040700037 0.038279247 -0.02072394
0.020933561 0.023524055 0.027436147 0.017161578 -0.00043286284 0.009069405 0.038190883 0.024605906
-0.024988651 0.025914578 0.0036726217 0.030540455 -0.017752582 0.004090175 0.015927842 0.017071368
0.022856902 0.0071070245 -0.004382305 0.040828113 0.0067231385 0.006671126 0.026300395 -0.01645905
0.04489178 -0.0043693334 0.01663378 -0.019178702 0.0039946176 -0.017113008 0.03398782 0.012783573
-0.032353763 -0.018668976 0.021708183 0.0027185131 -0.00066005724 0.023246672 0.017130421 0.009137152
0.030743862 0.041786175 -0.047042698 0.005260283 -0.020654162 0.040181544 -0.0071780453 0.014241771
-0.0045677433 0.050181255 0.012351682 0.010792635 0.0442247 -0.014111054 0.00036566606 -0.027456962
-0.025523772 0.010580053 0.02942227 -0.027995164 -0.0018895945 -0.007839951 -0.01123564 0.08434416
-0.021015003 -0.013847573 0.039376136 -0.030625388 -0.058810204 0.025020888 0.0041554356 0.0056382823
-0.004112763 -0.0062112743 -0.006043515 0.0022522062 0.0027938313 -0.029259045 -0.0052405368 0.032341603
0.01562504 0.0017422582 0.005299414 0.005020489 -0.02291056 -0.03630916 0.0058734473 0.019254418
0.017158274 0.0029656754 -0.040193465 -0.027734004 -0.014566794 -0.036048826 -0.013568214 0.018901806
-0.028073916 0.0080380505 0.016167983 -0.003443662 0.01970972 -0.029950133 -0.0006981647 -0.017213993
0.0072266324 -0.022439247 -0.006570271 -0.035436057 0.0082300035 0.010539751 -0.03304913 -0.02279906
-0.03141073 -0.075588375 -0.0155106215 -0.04202937 -0.05188605 -0.03720962 -0.017761022 0.029636767
0.00061006245 0.036472846 0.015395478 0.027258826 0.021731835 0.014910869 -0.0022564183 0.019347377
-0.0068983105 -0.005018142 0.019052513 0.024725245 0.01764303 0.020285534 0.01855307 0.03047652
-0.0071657705 -0.0014867033 -0.0075844103 0.0058015776 -0.024537226 0.03333557 0.011463256 -0.03126021
0.013199696 -0.022854345 -0.016709581 -0.0028194024 -0.024657335 -0.053807594 -0.051166065 -0.050536774
0.0069822846 -0.0027078122 -0.00078919466 -0.014263592 0.017707532 0.00014565032 -0.038732853 0.036271393
-0.018055102 0.0020164896 0.009622538 -0.0052441345 0.011121104 -0.018155044 -0.010034827 0.01744631
-0.036313448 -0.017067296 0.0081677595 0.00022467466 0.031105524 0.013051717 0.026114926 -0.0043115104
-0.012949452 0.022032928 0.009544439 0.016420482 -0.00832616 -0.012854521 0.024296874 0.018496294
-0.0030507229 -0.018851023 -0.016860286 0.00074312906 0.007813024 0.029333295 -0.009734823 -0.005729211
0.023896217 0.023038555 0.012782 -0.039944578 0.0018099856 0.038760226 -0.026239915 -0.0034803005
0.014113175 -0.005878032 0.019280426 0.025034796 0.035993192 0.022785584 0.006746088 0.025338326
0.0031447308 -0.033053264 -0.01111667 0.027302505 0.029274233 0.03824518 0.00038729951 -0.035230264
0.0013997864 0.017720586 -0.034779575 0.04157423 -0.003741348 -0.019680569 0.0034025782 -0.0117304055
-0.025004908 0.031499013 0.0039888755 -0.042954985 -0.034617584 -0.0007999671 0.006085713 0.0030345828
0.013308196 -0.0314083 0.007812911 -0.006924021 0.02700639 0.008211552 -0.0073123397 0.010220183
00000000: 25b1 09bc 55a3 863a fa0d d43c fcac ca39
00000010: 85f6 243b 73cb 94bb ee49 a0bb 23d7 32bb
00000020: 63d5 dbbc e931 c9bb 9e67 0d3d e66d 113d
00000030: 2f43 e43c 15b5 26bd b3ca 1c3d 41c5 a9bc
00000040: dc7c ab3c 85b5 c03c c5c1 e03c 7096 8c3c
00000050: def1 e2b9 d797 143c 0b6e 1c3d 5392 c93c
00000060: 00b5 ccbc cf4a d43c 5eb0 703b fa2f fa3c
00000070: dd6d 91bc e006 863b 1b7b 823c 41d9 8b3c
00000080: 663e bb3c 0be2 e83b 7099 8fbb 613b 273d
00000090: c64d dc3b 7699 da3b ed73 d73c 21d5 86bc
000000a0: 71e0 373d a02c 8fbb 9143 883c a71c 9dbc
000000b0: 48e5 823b 9430 8cbc d036 0b3d 3172 513c
000000c0: 6185 04bd aeef 98bc 5cd5 b13c 1529 323b
000000d0: b107 2dba ce6f be3c 1955 8c3c feb3 153c
000000e0: 8dda fb3c fb27 2b3d d8af 40bd 745e ac3b
000000f0: eb32 a9bc 6795 243d cf35 ebbb 5156 693c
00000100: 02ad 95bb dc8a 4d3d b65e 4a3c 98d3 303c
00000110: f624 353d 0d32 67bc deb6 bf39 6ced e0bc
00000120: 3b17 d1bc f557 2d3c f906 f13c 1d56 e5bc
00000130: 45ac f7ba 2373 00bc b115 38bc a2bc ac3d
00000140: a827 acbc eee0 62bc df48 213d 18e2 fabc
00000150: f8e2 70bd 9bf8 cc3c 522a 883b 57c1 b83b
00000160: 5bc4 86bb f287 cbbb ae08 c6bb c099 133b
00000170: b618 373b aab0 efbc cfb8 abbb a178 043d
00000180: 1500 803c 7c5c e43a b5a6 ad3b ea82 a43b
00000190: edae bbbc eab8 14bd 0c76 c03b 71bb 9d3c
000001a0: 828f 8c3c c75b 423b e7a1 24bd 6c32 e3bc
000001b0: 90a9 6ebc efa7 13bd 374d 5ebc f6d7 9a3c
000001c0: 45fb e5bc 07b2 033c b872 843c 10af 61bb
000001d0: 4776 a13c fb59 f5bc 0a05 37ba 5c04 8dbc
000001e0: 63cd ec3b 83d2 b7bc 6e4b d7bb 6625 11bd
000001f0: 23d7 063c ebae 2c3c 865e 07bd 18c5 babc
00000200: 8aa8 00bd 14ce 9abd 4320 7ebc fd26 2cbd
00000210: 7786 54bd 1d69 18bd 907f 91bc cec8 f23c
00000220: 99ec 1f3a 8d64 153d 513d 7c3c e74d df3c
00000230: f606 b23c b84c 743c 6be0 13bb 647e 9e3c
00000240: 390b e2bb 3a6f a4bb 0414 9c3c 998c ca3c
00000250: 1e88 903c d92d a63c 9cfc 973c e5a9 f93c
00000260: d7ce eabb 7cdd c2ba a586 f8bb 291b be3b
00000270: 4b02 c9bc e18a 083d 61d0 3b3c b50a 00bd
00000280: 8a43 583c 0939 bbbc 88e2 88bc b9c5 38bb
00000290: 2efe c9bc 5a65 5cbd 8293 51bd a6ff 4ebd
000002a0: a6cb e43b 8d75 31bb f5e1 4eba d7b1 69bc
000002b0: 630f 913c b6b9 1839 57a6 1ebd 5091 143d
000002c0: 4be8 93bc 1527 043b daa7 1d3c fdd6 abbb
000002d0: 4a35 363c e3b9 94bc 1d69 24bc 90eb 8e3c
000002e0: 69bd 14bd b7d0 8bbc 11d2 053c a596 6b39
000002f0: 03d1 fe3c ded6 553c f8ee d53c 9247 8dbb
00000300: f029 54bc 667e b43c 4760 1c3c 3f84 863c
00000310: 726a 08bc c59b 52bc 3d0a c73c 8a85 973c
00000320: a3ee 47bb 766d 9abc 951e 8abc 8cce 423a
00000330: 3302 003c 614c f03c cf7e 1fbc 1bbc bbbb
00000340: 00c2 c33c 5abb bc3c 986b 513c ed9c 23bd
00000350: 0a3d ed3a 0bc3 1e3d 17f5 d6bc c115 64bb
00000360: f23a 673c 829c c0bb fcf1 9d3c c615 cd3c
00000370: 996d 133d d5a8 ba3c 4a0e dd3b 5292 cf3c
00000380: d417 4e3b dc62 07bd b222 36bc 81a9 df3c
00000390: 84d0 ef3c faa6 1c3d 760e cb39 9c4d 10bd
000003a0: 0a79 b73a c32a 913c 0775 0ebd bd49 2a3d
000003b0: 6731 75bb 2539 a1bc cafd 5e3b e330 40bc
000003c0: 18d7 ccbc 1c05 013d 1db5 823b 91f1 2fbd
000003d0: 2bcb 0dbd e2b4 51ba a96a c73b dadf 463b
000003e0: 9f0a 5a3c fda5 00bd b901 003c e6e2 e2bb
000003f0: 813c dd3c bf89 063c 5a9c efbb 8e72 273c

model.6.weight f4 [63]
0.66723025 0.58216894 0.65524316 0.93400663 0.6777217 0.62965107 0.5026818 0.58127517
0.7384814 0.3015967 0.13847125 0.18716393 0.66389585 0.36355472 0.9276205 0.9425953
0.8440738 0.85213566 0.18351708 0.9643734 0.07681046 0.7111786 0.8092083 0.13491625
0.2022518 0.7168027 0.48210835 0.92360795 0.868867 0.9873698 0.4190441 0.17873311
0.3401585 0.1392123 0.13920803 0.48139328 0.27691415 0.2586356 0.2801163 0.75145006
0.39300892 0.7783895 0.7397146 0.40745014 0.3634581 0.48390996 0.22272305 0.66551346
0.59201854 0.59383106 0.3216185 0.72191554 0.77705026 0.34771088 0.31776324 0.80712783
0.9465078 0.33704582 0.88650453 0.16212022 0.96865743 0.8141582 0.76737195
00000000: 9acf 2a3f 0609 153f 04be 273f 0f1b 6f3f
00000010: 2b7f 2d3f d030 213f c1af 003f 73ce 143f
00000020: 1e0d 3d3f e26a 9a3e 68cb 0d3e e7a7 3f3e
00000030: 14f5 293f d823 ba3e 8978 6d3f ed4d 713f
00000040: 3815 583f 9025 5a3f e7eb 3b3e 2de1 763f
00000050: cd4e 9d3d cd0f 363f 4628 4f3f 7c27 0a3e
00000060: 191b 4f3e 6280 373f e8d6 f63e 9271 6c3f
00000070: 116e 5e3f 44c4 7c3f f38c d63e d005 373e
00000080: 4129 ae3e ab8d 0e3e 8d8c 0e3e 2e79 f63e
00000090: b1c7 8d3e e36b 843e 676b 8f3e 085f 403f
000000a0: 7738 c93e 8944 473f f05d 3d3f 4e9d d03e
000000b0: 2e17 ba3e 0cc3 f73e 8311 643e 175f 2a3f
000000c0: 878e 173f 5005 183f 2eab a43e 75cf 383f
000000d0: c4ec 463f 2907 b23e ddb1 a23e ee9f 4e3f
000000e0: 564e 723f 4591 ac3e f6f1 623f d802 263e
000000f0: eff9 773f ac6c 503f 7d72 443f

model.6.bias f4 [63]
0.081571974 0.06362758 0.27064198 0.12692024 -0.22473548 -0.10899359 0.12599337 -0.109970495
0.09699115 0.034927502 0.03328787 0.10669444 0.2246983 0.21998096 0.13460809 -0.034688905
0.013117601 -0.11458252 0.03891136 0.1368842 -0.030915676 0.063010514 0.05147909 0.0639296
0.07619741 0.067330904 0.06552323 -0.06042047 0.035871286 0.038718577 -0.017229175 0.060940616
0.2242178 0.047656767 -0.014510299 0.057521913 0.08960823 -0.008220085 0.06461531 -0.04782787
0.17783941 0.058774643 -0.0013378961 -0.026850317 0.22464892 0.07272784 0.0043573766 0.031290404
-0.016341753 -0.052072972 2.5735264e-06 -0.0025809356 0.06799598 0.19194499 0.10520771 -0.07121731
0.15525377 -0.025008878 -0.044007633 0.03644788 -0.00919065 0.13158518 0.1836843
00000000: 350f a73d 2d4f 823d 9691 8a3e 61f7 013e
00000010: 0f21 66be 0838 dfbd 6804 013e 3638 e1bd
00000020: 4ca3 c63d 2410 0f3d dd58 083d 9d82 da3d
00000030: 5017 663e b042 613e b4d6 093e f415 0ebd
00000040: 35eb 563c 3eaa eabd 8561 1f3d 5f2b 0c3e
00000050: df42 fdbc a80b 813d bddb 523d 86ed 823d
00000060: 630d 9c3d c9e4 893d 0b31 863d 747b 77bd
00000070: c5ed 123d 5f97 1e3d 3324 8dbc de9c 793d
00000080: 5a99 653e be33 433d 9bbc 6dbc 199c 6b3d
00000090: 8584 b73d 89ad 06bc 0855 843d 28e7 43bd
000000a0: 891b 363e aebd 703d 585c afba 32f5 dbbc
000000b0: 5e0a 663e 55f2 943d 53c8 8e3b 5e2a 003d
000000c0: 24df 85bc 784a 55bd d9b4 2c36 ea24 29bb
000000d0: 7a41 8b3d 3a8d 443e 2477 d73d 62da 91bd
000000e0: d8fa 1e3e 6bdf ccbc 5941 34bd 5f4a 153d
000000f0: 6194 16bc 44be 063e bd17 3c3e

model.6.running_mean f4 [63]
0.023047479 0.05835193 -0.101487674 -0.18035495 0.39452392 0.27842712 -0.22465922 0.22351584
-0.1422466 -0.084149145 0.08433818 -0.12589942 0.02263883 -0.035353933 -0.1799823 0.19448411
0.18368345 0.37091148 0.009366798 -0.07032524 0.20169686 -0.064113185 -0.004574284 0.1043841
0.09959888 -0.18128385 -0.11499802 0.4658595 0.018097874 -0.09345761 0.27638096 0.09849216
-0.022334503 0.0999298 0.121093415 0.20862453 0.0004036064 -0.028299231 -0.15535986 0.21443783
-0.17420812 -0.19114512 -0.027332552 0.09564816 0.0077598877 -0.23772785 0.10438495 0.02398603
0.35068077 0.18968849 -0.11239582 0.3123424 0.17893293 -0.02773855 0.016018879 0.27217266
-0.10716205 0.3738369 0.3690981 0.18755536 0.003083657 -0.23245251 -0.016161414
00000000: 11ce bc3c 6f02 6f3d c5d8 cfbd f8ae 38be
00000010: 0aff c93e 008e 8e3e 110d 66be 56e1 643e
00000020: 18a9 11be 6356 acbd 7fb9 ac3d c7eb 00be
00000030: 1175 b93c 49cf 10bd 484d 38be d826 473e
00000040: 8417 3c3e 1ce8 bd3e 3377 193c ae06 90bd
00000050: 9f89 4e3e c64d 83bd e0e3 95bb 55c7 d53d
00000060: 7ffa cb3d 79a2 39be 1584 ebbd 2385 ee3e
00000070: fe41 943c b466 bfbd ce81 8d3e 42b6 c93d
00000080: d9f6 b6bc ffa7 cc3d d3ff f73d aba1 553e
00000090: 229b d339 cad3 e7bc a816 1fbe 9795 5b3e
000000a0: 9d63 32be 8cbb 43be 84e8 dfbc 2fe3 c33d
000000b0: a846 fe3b ee6e 73be c7c7 d53d 5a7e c43c
000000c0: 6e8c b33e b33d 423e c82f e6bd 58eb 9f3e
000000d0: 323a 373e f53b e3bc 063a 833c 375a 8b3e
000000e0: c777 dbbd 8d67 bf3e 6dfa bc3e 830e 403e
000000f0: 2e17 4a3b 0808 6ebe f164 84bc

model.6.running_var f4 [63]
0.012414047 0.019156152 0.02954329 0.033894427 0.0044206367 0.025552012 0.012084641 0.014620214
0.025450123 0.011237708 0.0038440328 0.006037299 0.019465763 0.008207078 0.036344696 0.05606776
0.03551166 0.01458043 0.006203515 0.02403608 0.026080977 0.05073374 0.040969383 0.03487287
0.012922268 0.03583156 0.02173393 0.047894433 0.04993263 0.05492128 0.037308834 0.009834993
0.017229103 0.043926347 0.008919645 0.01887884 0.012979027 0.0112409275 0.013863367 0.03746584
0.02239748 0.021180376 0.07577289 0.075426325 0.018659623 0.034451514 0.12387254 0.10201529
0.11544513 0.0269626 0.025919411 0.02110104 0.019611578 0.014893525 0.016932676 0.046778545
0.039284546 0.15325403 0.029851539 0.13521974 0.052967243 0.07830301 0.036712665
00000000: 4964 4b3c 5ded 9c3c c504 f23c e2d4 0a3d
00000010: fdda 903b 7452 d13c a8fe 453c 9f89 6f3c
00000020: c77c d03c 5d1e 383c 2bec 7b3b 89d4 c53b
00000030: aa76 9f3c fb76 063c 2dde 143d 4fa7 653d
00000040: ad74 113d c2e2 6e3c db46 cb3b 50e7 c43c
00000050: c6a7 d53c 2fce 4f3d 83cf 273d dbd6 0e3d
00000060: ecb7 533c 1dc4 123d 5b0b b23c f42c 443d
00000070: 2886 4c3d 23f5 603d 26d1 183d f322 213c
00000080: 0c24 8d3c 1dec 333d b423 123c cca7 9a3c
00000090: fca5 543c de2b 383c 2d23 633c c875 193d
000000a0: ec7a b73c 7882 ad3c d12e 9b3d 1e79 9a3d
000000b0: 11dc 983c 081d 0d3d e3b0 fd3d 64ed d03d
000000c0: 7f6e ec3d ace0 dc3c f254 d43c 17dc ac3c
000000d0: 76a8 a03c f903 743c 65b6 8a3c dc9a 3f3d
000000e0: d5e8 203d a0ee 1c3e 378b f43c 0b77 0a3e
000000f0: 2ef4 583d 545d a03d 0560 163d

model.8.bias f4 [64]
0.0 0.0 0.0 0.0 0.0 0.0 0.0 0.0
0.0 0.0 0.0 0.0 0.0 0.0 0.0 0.0
0.0 0.0 0.0 0.0 0.0 0.0 0.0 0.0
0.0 0.0 0.0 0.0 0.0 0.0 0.0 0.0
0.0 0.0 0.0 0.0 0.0 0.0 0.0 0.0
0.0 0.0 0.0 0.0 0.0 0.0 0.0 0.0
0.0 0.0 0.0 0.0 0.0 0.0 0.0 0.0
0.0 0.0 0.0 0.0 0.0 0.0 0.0 0.0
00000000: 0000 0000 0000 0000 0000 0000 0000 0000
00000010: 0000 0000 0000 0000 0000 0000 0000 0000
00000020: 0000 0000 0000 0000 0000 0000 0000 0000
00000030: 0000 0000 0000 0000 0000 0000 0000 0000
00000040: 0000 0000 0000 0000 0000 0000 0000 0000
00000050: 0000 0000 0000 0000 0000 0000 0000 0000
00000060: 0000 0000 0000 0000 0000 0000 0000 0000
00000070: 0000 0000 0000 0000 0000 0000 0000 0000
00000080: 0000 0000 0000 0000 0000 0000 0000 0000
00000090: 0000 0000 0000 0000 0000 0000 0000 0000
000000a0: 0000 0000 0000 0000 0000 0000 0000 0000
000000b0: 0000 0000 0000 0000 0000 0000 0000 0000
000000c0: 0000 0000 0000 0000 0000 0000 0000 0000
000000d0: 0000 0000 0000 0000 0000 0000 0000 0000
000000e0: 0000 0000 0000 0000 0000 0000 0000 0000
000000f0: 0000 0000 0000 0000 0000 0000 0000 0000

model.8.A f4 [3, 3, 3]
-0.51607084 0.5219113 0.44836035 -0.007871856 0.36525777 0.11097235 -0.16272205 0.53914535
-0.23866495 0.08067278 0.050340544 -0.26452285 0.22330382 -0.24634342 0.38834387 -0.58052236
-0.17057207 0.23729628 0.35986227 -0.044232473 -0.22707196 0.5040489 0.14813387 0.45872524
-0.32681313 0.43416187 -0.36206073
00000000: 381d 04bf fb9b 053f 7d8f e53e f5f8 00bc
00000010: 1103 bb3e 7945 e33d 9ca0 26be 6e05 0a3f
00000020: 9664 74be c537 a53d e331 4e3d 8a6f 87be
00000030: c2a9 643e 7341 7cbe 02d5 c63e 1d9d 14bf
00000040: 72aa 2ebe ccfd 723e de3f b83e 1c2d 35bd
00000050: 8d85 68be 5909 013f 68b0 173e 09de ea3e
00000060: 0d54 a7be 774a de3e 0660 b9be

model.8.F f4 [3, 21, 21, 3, 3]
-0.025807219 0.01401351 -0.030443123 -0.03662092 -0.005329199 0.008824788 -0.008916361 -0.03347736
-0.03035867 -0.016491013 -0.038842116 0.012936613 -0.026665082 0.019454986 -0.01971925 -0.02830839
-0.0015543955 -0.014843006 0.011695298 -0.010544697 -0.013438 0.030239515 0.0021691106 -0.03064854
0.0037494365 -0.029661812 0.025626106 -0.008085816 0.0025718734 0.034139026 0.01910275 0.0474659
0.008400928 -0.023222364 0.008417444 0.007885293 -0.0022057693 -0.027396228 -0.019774674 -0.03112847
-0.015047404 -0.0019448488 -0.043238133 -0.037958093 -0.028752683 -0.035419215 0.0042587304 -0.052027237
-0.020569589 -0.008894742 -0.030078001 -0.040332958 -0.0446758 -0.032818824 0.012647804 0.019058919
-0.0098291 -0.034415845 0.009891774 -0.017794136 0.0020283388 0.01974235 0.025482582 -0.020793024
0.018435987 -0.015663462 -0.02151668 0.018093083 -0.01071575 0.017981978 -0.019804992 -0.002198398
0.015469701 -0.015692394 0.0031778724 -0.02869256 0.0058981185 -0.0016865983 0.021598559 0.020951038
0.02482734 -0.021272795 0.030729499 0.005934801 0.010788212 0.003716977 0.014492945 0.028379574
-0.011999214 0.014638892 0.012941292 -0.044389933 0.018587137 -0.0027355985 -0.044531513 0.022789845
0.0007157795 0.03352132 -0.020170528 0.028708154 0.032004837 0.02370776 0.019465957 0.029880453
-0.011553297 0.009718377 -0.01496188 -0.005884802 0.011293612 -0.025606574 0.005599685 -0.015682828
-0.015019889 -0.00748097 0.014907345 0.028509762 0.011851661 0.019176567 -0.00057525415 0.0096806325
0.0062964773 0.013339797 0.018134046 -0.0066814036 -0.021136353 0.013446405 0.0031147483 0.0194707
-0.013559311 0.021727085 0.010805014 0.0137906205 0.011476322 0.0066375406 0.0022314447 0.018470336
0.019746881 0.04752127 -0.0020662302 -0.042945914 0.01123144 -0.021780146 -0.04928631 0.006653397
0.014966248 0.010401245 -0.0011347354 0.053025268 0.0149829015 0.036097206 0.03480262 0.049823046
0.03290856 -0.030839967 -0.036198877 -0.05443891 -0.019611873 0.010716731 -0.004636286 -0.020350704
-0.009608051 0.007517169 0.00458144 0.013817771 -0.0084952125 -0.034392647 0.001214089 0.00045039685
0.0036086421 0.008524599 -0.014969839 0.0047924477 0.042662516 -0.010635513 0.017098356 0.025110545
-0.009137703 -0.016754018 0.01729428 -0.011218556 0.0003701629 0.02334228 -0.005396277 -0.009330817
0.0010610347 0.013028197 -0.019394292 -0.0076965406 0.013913792 0.035437144 -0.05377868 -0.0046387934
0.029011797 0.0040793135 0.026831921 0.008651677 0.0020125997 0.018785782 -0.012757402 0.017443407
0.013023236 -0.046531618 0.011226322 -0.024099218 0.023587186 -0.0056691095 0.0049062124 -0.013560683
0.041911025 -0.0008048141 -0.014176009 -0.0067676986 0.031569548 0.04428038 0.013144419 0.0028519328
-0.032851905 0.044944152 0.017916387 0.029420935 -0.0071869995 0.03399976 0.01096898 -0.022877079
0.0060919314 0.024196625 -0.006704103 0.02483261 -0.017224338 0.062213294 -0.013661527 -0.0137545355
-0.03195608 0.027586758 0.019408599 0.04027346 0.0033799172 0.057582054 0.024494274 -0.016739627
0.023645656 -0.0016055794 0.0070826905 0.013581465 -0.02373213 -0.031856198 -0.026587019 -0.03715961
0.016238984 0.010503991 0.017404476 0.008137963 0.013985482 0.0063934275 0.040969115 -0.028666249
00000000: a969 d3bc ec98 653c db63 f9bc d1ff 15bd
00000010: 90a0 aebb d895 103c ee15 12bc 8e1f 09bd
00000020: bfb2 f8bc 2918 87bc e918 1fbd 16f4 533c
00000030: bb70 dabc 1060 9f3c 448a a1bc ffe6 e7bc
00000040: dcbc cbba 1430 73bc a39d 3f3c aac3 2cbc
00000050: 0f2b 5cbc dcb8 f73c a327 0e3b a612 fbbc
00000060: 1bb9 753b 54fd f2bc d7ed d13c 5f7a 04bc
00000070: e08c 283b 5dd5 0b3d 5f7d 9c3c 9b6b 423d
00000080: 0ca4 093c d43c bebc 52e9 093c 5131 013c
00000090: ab8e 10bb 0e6e e0bc 7ffe a1bc 2201 ffbc
000000a0: 6389 76bc 4cea feba 781a 31bd f279 1bbd
000000b0: bf8a ebbc bd13 11bd d28c 8b3b 831a 55bd
000000c0: 8e81 a8bc 40bb 11bc 2466 f6bc 2c34 25bd
000000d0: f9fd 36bd 086d 06bd bc38 4f3c 7321 9c3c
000000e0: 3c0a 21bc a1f7 0cbd 1b11 223c 02c5 91bc
000000f0: e1ed 043b b5ba a13c d9c0 d03c 2256 aabc
00000100: 1107 973c a950 80bc c043 b0bc f237 943c
00000110: 1d91 2fbc f14e 933c 143e a2bc 0013 10bb
00000120: a174 7d3c 568d 80bc da43 503b a90c ebbc
00000130: 0145 c13b d910 ddba 76ef b03c 83a1 ab3c
00000140: b562 cb3c 4944 aebc 6ebc fb3c b878 c23b
00000150: 0ac1 303c 8798 733b d173 6d3c 487c e83c
00000160: 5a98 44bc f7d7 6f3c b607 543c 38d2 35bd
00000170: 0d44 983c ba47 33bb ad66 36bd c5b1 ba3c
00000180: 26a3 3b3a a74d 093d aa3c a5bc 5d2d eb3c
00000190: 8117 033d c736 c23c 1277 9f3c dac7 f43c
000001a0: 0a4a 3dbc d439 1f3c ac22 75bc 4cd5 c0bb
000001b0: d808 393c e1c4 d1bc 907d b73b 4679 80bc
000001c0: fb15 76bc ed22 f5bb f03d 743c 4e8d e93c
000001d0: 782d 423c 2d18 9d3c a7cc 16ba 849b 1e3c
000001e0: ae52 ce3b 2a8f 5a3c da8d 943c adef dabb
000001f0: 2526 adbc 4f4e 5c3c ce20 4c3b 0481 9f3c
00000200: df27 5ebc 00fd b13c 8307 313c 0ef2 613c
00000210: 2f07 3c3c ba7f d93b 6e3d 123b 1a4f 973c
00000220: 36c4 a13c aaa5 423d 9769 07bb 0ee8 2fbd
00000230: 1304 383c 476c b2bc 71e0 49bd bd04 da3b
00000240: fe34 753c fc69 2a3c 67bb 94ba 0631 593d
00000250: d87a 753c aada 133d 318d 0e3d 4013 4c3d
00000260: 20cb 063d 19a4 fcbc 4645 14bd 56fb 5ebd
00000270: 14a9 a0bc 3a95 2f3c fceb 97bb 85b6 a6bc
00000280: 166b 1dbc 9652 f63b e71f 963b ef63 623c
00000290: 812f 0bbc 4edf 0cbd 1122 9f3a 3e23 ec39
000002a0: f87e 6c3b c2aa 0b3c 0e44 75bc f709 9d3b
000002b0: e4be 2e3d 9340 2ebc da11 8c3c a1b4 cd3c
000002c0: 4eb6 15bc b93f 89bc bcac 8d3c 09ce 37bc
000002d0: 6c12 c239 4f38 bf3c 41d3 b0bb 48e0 18bc
000002e0: 6b12 8b3a 3874 553c c7e0 9ebc 4333 fcbb
000002f0: acf6 633c 8a26 113d 0847 5cbd 0501 98bb
00000300: 26aa ed3c c3ab 853b 9ece db3c c3bf 0d3c
00000310: d2e5 033b a4e4 993c 6c04 51bc 7ae5 8e3c
00000320: 695f 553c f097 3ebd 9bee 373c b96b c5bc
00000330: ea39 c13c f0c3 b9bb 4bc4 a03b a02d 5ebc
00000340: e5aa 2b3d 29fa 52ba 7e42 68bc 92c3 ddbb
00000350: 124f 013d 585f 353d b05b 573c 7ee7 3a3b
00000360: b88f 06bd 5c17 383d 63c5 923c 2c04 f13c
00000370: ec80 ebbb 5543 0b3d 3db7 333c b668 bbbc
00000380: d39e c73b 0038 c63c 18ae dbbb c26d cb3c
00000390: 0e1a 8dbc 5ed3 7e3d 99d4 5fbc b45a 61bc
000003a0: 61e4 02bd a0fd e13c c8fe 9e3c c9f5 243d
000003b0: 9a81 5d3b 29db 6b3d 37a8 c83c 8b21 89bc
000003c0: 89b4 c13c 4e72 d2ba ea15 e83b cb84 5e3c
000003d0: e269 c2bc a57b 02bd 05cd d9bc ad34 18bd
000003e0: 9e07 853c ee18 2c3c d593 8e3c 1755 053c
000003f0: 5d23 653c f57f d13b 3bcf 273d 7bd5 eabc

model.9.weight f4 [63]
0.42758626 0.16637918 0.78245056 0.16501646 0.19628109 0.75807273 0.5941057 0.15123743
0.5851678 0.8010014 0.89033484 0.066991374 0.33891404 0.5665371 0.8429325 0.41814512
0.6930574 0.6117907 0.42143995 0.67479026 0.42166746 0.74034953 0.20768985 0.82940716
0.15677859 0.8264794 0.42034924 0.3539772 0.9102266 0.6486143 0.752327 0.7838279
0.22387779 0.9885606 0.91618556 0.3222552 0.862781 0.30385864 0.6705133 0.9216795
0.75428015 0.9790208 0.6598662 0.7837526 0.5686457 0.5495177 0.29690596 0.16748628
0.93466055 0.37761918 0.60921615 0.36053544 0.72704446 0.7986872 0.5007774 0.13042861
0.9479421 0.41410652 0.3759627 0.8519387 0.692482 0.8998755 0.20442092
00000000: 96ec da3e 4e5f 2a3e ae4e 483f 13fa 283e
00000010: e9fd 483e 0e11 423f 5017 183f fcdd 1a3e
00000020: 8fcd 153f 6e0e 4d3f fcec 633f c632 893d
00000030: 2486 ad3e 9308 113f 6dca 573f 1e17 d63e
00000040: 366c 313f 519e 1c3f fac6 d73e 0ebf 2c3f
00000050: cce4 d73e 8c87 3d3f a6ac 543e 0754 543f
00000060: 918a 203e 2794 533f 0438 d73e 803c b53e
00000070: 9c04 693f 960b 263f 8198 403f f2a8 483f
00000080: 3840 653e 4f12 7d3f 238b 6a3f a2fe a43e
00000090: 37df 5c3f 5c93 9b3e c2a6 2b3f 30f3 6b3f
000000a0: 8118 413f 1ba1 7a3f feec 283f 03a4 483f
000000b0: c492 113f 31ad 0c3f 0f04 983e 8681 2b3e
000000c0: ea45 6f3f 4d57 c13e 97f5 1b3f 1a98 b83e
000000d0: 961f 3a3f c476 4c3f f332 003f 148f 053e
000000e0: 55ac 723f c505 d43e 2f7e c03e a818 5a3f
000000f0: 8046 313f 3e5e 663f b853 513e

model.9.bias f4 [63]
-0.20169592 0.07065472 0.087686695 0.025419556 0.032355543 -0.008989906 -0.017049149 0.024145484
0.20615491 -0.19025709 -0.25082988 0.035938386 -0.022193242 -0.017410396 0.12822849 -0.019786512
-0.039153025 0.010484152 0.01085365 0.112186894 0.026284752 -0.17413206 0.048078936 0.04962797
-0.028919721 0.22362891 0.08573908 -0.043768205 0.14057493 0.040129267 -0.14481927 -0.00025512636
0.12129765 0.098060645 -0.1759096 0.0032148254 0.10162377 -0.033238053 0.124855846 0.07865664
-0.0019605437 -0.029207734 0.13428855 0.026957572 -0.08240697 0.21352622 -0.053050596 0.026690705
0.15411001 -0.02480948 0.010789283 0.04913181 -0.14149582 -0.029963395 -0.030596076 0.009976986
-0.16690056 0.036896706 0.020889575 -0.01351723 0.0133074885 0.12952277 0.12044685
00000000: 6089 4ebe 6cb3 903d 1595 b33d ac3c d03c
00000010: 3f87 043d 664a 13bc a8aa 8bbc c0cc c53c
00000020: 461a 533e c1d2 42be c66c 80be 2134 133d
00000030: 9ace b5bc 3fa0 8ebc 544e 033e 5317 a2bc
00000040: ec5e 20bd b8c5 2b3c 82d3 313c 3ec2 e53d
00000050: 1f53 d73c ad4f 32be 6bee 443d b346 4b3d
00000060: 0de9 ecbc fafe 643e f997 af3d 4a46 33bd
00000070: e0f2 0f3e 965e 243d 814b 14be 7bc2 85b9
00000080: e76a f83d 05d4 c83d a521 34be d2af 523b
00000090: 2020 d03d a024 08bd 6cb4 ff3d bc16 a13d
000000a0: 777c 00bb 0f45 efbc f082 093e 20d6 dc3c
000000b0: fcc4 a8bd 9ea6 5a3e 954b 59bd 77a6 da3c
000000c0: 04cf 1d3e 403d cbbc 88c5 303c 703e 493d
000000d0: 48e4 10be cb75 f5bc 9fa4 fabc 8376 233c
000000e0: fbe7 2abe 0021 173d 9d20 ab3c 5f77 5dbc
000000f0: a707 5a3c 9ea1 043e d7ac f63d

model.9.running_mean f4 [63]
-0.055994865 0.052273322 0.030110503 -0.00478418 -0.08166682 -0.052269902 0.046211485 -0.08998444
0.07258119 -0.070267946 -0.10651133 -0.11068202 0.06153792 0.08317313 -0.040301025 0.028302837
0.055320155 0.032975033 0.054353643 -0.06250757 0.049772143 0.04053306 -0.049932916 -0.18565208
-0.080492884 -0.024431976 0.116643816 0.03963905 -0.07964172 0.03423321 -0.006233214 -0.11753366
-0.0469235 -0.044608466 0.09396097 -0.16477804 -0.0683811 0.089978196 -0.11072784 -0.11086265
0.01484921 0.1877822 -0.11987087 0.08883006 0.101900056 0.084471025 0.019990878 -0.120481215
-0.0063993344 0.10835548 0.038414046 -0.1170754 -0.003911051 0.08466676 0.03308842 -0.1686718
-0.042139523 0.08430521 0.06458679 0.13117705 0.01673707 -0.009380221 -0.07500774
00000000: df5a 65bd 8d1c 563d 4daa f63c 9cc4 9cbb
00000010: ef40 a7bd f718 56bd 4148 3d3d c349 b8bd
00000020: 72a5 943d a4e8 8fbd 9d22 dabd 41ad e2bd
00000030: 300f 7c3d ad56 aa3d b012 25bd 5adb e73c
00000040: 6397 623d d410 073d eda1 5e3d f803 80bd
00000050: e0dd 4b3d fe05 263d 7586 4cbd 941b 3ebe
00000060: 74d9 a4bd 9125 c8bc f4e2 ee3d 8e5c 223d
00000070: 331b a3bd 1f38 0c3d fd3f ccbb 7db5 f0bd
00000080: db32 40bd 5eb7 36bd 9c6e c03d 93bb 28be
00000090: 640b 8cbd 7d46 b83d 47c5 e2bd f50b e3bd
000000a0: 1a4a 733c fa49 403e dc7e f5bd 89ec b53d
000000b0: fab0 d03d 25ff ac3d e9c3 a33c dbbe f6bd
000000c0: 82b1 d1bb 7ae9 dd3d 0c58 1d3d 3ac5 efbd
000000d0: 4628 80bb c465 ad3d b987 073d 4db8 2cbe
000000e0: 7e9a 2cbd 36a8 ac3d 1446 843d 4753 063e
000000f0: 2e1c 893c 80af 19bc a89d 99bd
