KAIR/denoising/dncnn25/models/20000_G.pth (torch, 772933 bytes, 111 tensors)

model.0.bias f4 [64]
0.0 0.0 0.0 0.0 0.0 0.0 0.0 0.0
0.0 0.0 0.0 0.0 0.0 0.0 0.0 0.0
0.0 0.0 0.0 0.0 0.0 0.0 0.0 0.0
0.0 0.0 0.0 0.0 0.0 0.0 0.0 0.0
0.0 0.0 0.0 0.0 0.0 0.0 0.0 0.0
0.0 0.0 0.0 0.0 0.0 0.0 0.0 0.0
0.0 0.0 0.0 0.0 0.0 0.0 0.0 0.0
0.0 0.0 0.0 0.0 0.0 0.0 0.0 0.0
00000000: 0000 0000 0000 0000 0000 0000 0000 0000
00000010: 0000 0000 0000 0000 0000 0000 0000 0000
00000020: 0000 0000 0000 0000 0000 0000 0000 0000
00000030: 0000 0000 0000 0000 0000 0000 0000 0000
00000040: 0000 0000 0000 0000 0000 0000 0000 0000
00000050: 0000 0000 0000 0000 0000 0000 0000 0000
00000060: 0000 0000 0000 0000 0000 0000 0000 0000
00000070: 0000 0000 0000 0000 0000 0000 0000 0000
00000080: 0000 0000 0000 0000 0000 0000 0000 0000
00000090: 0000 0000 0000 0000 0000 0000 0000 0000
000000a0: 0000 0000 0000 0000 0000 0000 0000 0000
000000b0: 0000 0000 0000 0000 0000 0000 0000 0000
000000c0: 0000 0000 0000 0000 0000 0000 0000 0000
000000d0: 0000 0000 0000 0000 0000 0000 0000 0000
000000e0: 0000 0000 0000 0000 0000 0000 0000 0000
000000f0: 0000 0000 0000 0000 0000 0000 0000 0000

model.0.A f4 [3, 3, 3]
-0.30902106 0.59081954 0.48274076 0.20205 0.35215232 -0.0421287 -0.08138564 -0.51632774
-0.21675971 -0.08755963 0.2768737 -0.44780472 -0.087282404 0.47060263 0.3282583 -0.31469613
0.108485445 0.009582123 -0.30018562 -0.21839479 -0.107636005 0.41680014 -0.1654006 0.40172777
0.3792553 0.51307464 -0.27531573
00000000: 0238 9ebe f33f 173f cc29 f73e 32e6 4e3e
00000010: 4f4d b43e 258f 2cbd 84ad a6bd 0e2e 04bf
00000020: 42f6 5dbe 7752 b3bd 64c2 8d3e a946 e5be
00000030: 1ec1 b2bd d4f2 f03e 7911 a83e da1f a1be
00000040: 9e2d de3d 56fe 1c3c eeb1 99be e2a2 5fbe
00000050: 4470 dcbd d466 d53e c65e 29be 43af cd3e
00000060: c02d c23e dc58 033f 2ff6 8cbe

model.0.F f4 [3, 21, 1, 3, 3]
-0.04146133 0.07806652 -0.119212806 0.17181484 0.17759731 0.0070869634 -0.01688048 0.021968238
-0.011455117 0.164351 0.15007186 0.029762508 0.0061357836 -0.10544949 -0.07501773 0.13907644
-0.0690813 0.08404473 -0.12958813 -0.15152086 0.091749445 0.120914966 0.011262188 -0.07874097
0.06731917 -0.084683515 -0.029437365 0.12407975 -0.13717565 0.068405785 0.008146619 0.13491368
-0.007876834 0.0076759383 -0.012504875 0.11979279 -0.07559028 -0.06401249 -0.06617668 -0.26841888
-0.19604044 0.021280853 0.0028538916 -0.19366653 -0.019820405 -0.081257544 0.1332302 0.018339718
0.11506561 0.15530422 0.06019066 0.1083452 0.13730136 0.13506484 0.018839734 0.0009709106
0.08145838 -0.11890824 0.0790374 0.0052102045 0.01714787 -0.07852468 -0.036939654 -0.070645936
-0.015590367 -0.122910775 -0.15222184 -0.06461836 0.021293111 -0.099977225 0.13121125 0.08524171
0.0694531 0.027207807 0.15249152 -0.03520946 -0.06307766 -0.032532595 -0.13298954 -0.10538906
-0.09673522 -0.11563062 -0.050063163 -0.10997191 0.076383404 0.025534099 -0.01716303 -0.14594175
0.07140936 -0.1531361 -0.03885064 0.1942796 0.09656645 0.15396453 0.15757893 0.08682202
0.030634744 0.034133844 -0.013480082 0.051972527 -0.019550333 0.010641771 -0.03335407 0.030149
0.013780758 0.10765925 -0.0749426 0.0044113374 -0.03442192 -0.17408271 -0.1319909 -0.04394476
-0.055195726 0.056127787 -0.07272887 -0.004215093 0.02332907 -0.08991227 -0.16935825 0.015899014
-0.11615434 -0.2079196 -0.109250225 0.109890826 -0.16167124 -0.015758175 0.03588301 -0.021819556
0.07936828 -0.016360272 0.017573815 -0.13613468 -0.11678331 0.09450312 -0.12491143 0.08109891
-0.013313285 0.13005662 -0.11716347 0.16980916 0.13805167 0.000987456 0.085334234 0.09981203
0.035171643 -0.13190234 0.10327208 0.147415 0.031342372 0.11424108 -0.012324322 -0.010670723
0.12195833 0.15860872 0.07201963 -0.027784131 0.221429 0.08162503 -0.030989924 -0.06343404
0.08900136 0.09819187 0.053360146 -0.12576807 0.024375578 0.15823473 -0.058958076 0.12331436
0.09673928 0.09157449 -0.07027186 0.08031291 0.099229835 0.06176545 0.06920818 0.09437292
0.00046450453 -0.0870893 0.12777309 0.08512816 -0.1294443 0.024571681 -0.12310039 -0.10315903
-0.12340496 -0.0816131 -0.12851681 -0.20312567 -0.11813354 -0.1347603 -0.06353517 0.026803361
-0.086555146 0.04863781 0.096504405 -0.14414985 -0.033188887 -0.09963574 -0.1803471 -0.022261104
-0.028652562 0.067132905 0.0017897971 -0.037529893 -0.09052055 -0.07062517 -0.009926766 0.13748702
0.0011578611 0.10773209 0.018225446 0.122865975 0.042042304 -0.07995548 0.099765584 0.09205527
-0.06136596 -0.20466307 -0.10543092 -0.10773355 -0.23816028 -0.08302835 0.037119713 0.039747123
0.1100847 0.11216786 -0.063163236 -0.071150266 -0.01139366 0.16549328 -0.045070734 0.0076979822
0.09478207 -0.039871052 0.058602057 0.06248498 0.10963235 0.082660116 -0.038024366 0.119255915
-0.033451673 -0.0017182041 -0.06305004 0.13721514 -0.08861356 0.055807024 0.014029869 0.21497412
0.10967922 0.027279804 0.062266693 -0.071237236 0.10653085 0.08199541 0.14855134 0.18709381
00000000: 5bd3 29bd 57e1 9f3d d825 f4bd 3bf0 2f3e
00000010: 12dc 353e c239 e83b ef48 8abc bcf6 b33c
00000020: 3eae 3bbc a14b 283e 70ac 193e 81d0 f33c
00000030: af0e c93b e7f5 d7bd e5a2 99bd 0e6a 0e3e
00000040: 7f7a 8dbd a51f ac3d c0b2 04be 4928 1bbe
00000050: 22e7 bb3d 44a2 f73d 0a85 383c f242 a1bd
00000060: a2de 893d 8d6e adbd a126 f1bc 861d fe3d
00000070: c677 0cbe 5518 8c3d 6679 053c d026 0a3e
00000080: d60d 01bc 7086 fb3b 3fe1 4cbc ec55 f53d
00000090: 14cf 9abd fb18 83bd a487 87bd 336e 89be
000000a0: d3be 48be 2f55 ae3c 5b08 3b3b 8550 46be
000000b0: 675e a2bc 5b6a a6bd 7f6d 083e 2d3d 963c
000000c0: 85a7 eb3d 1208 1f3e 7b8a 763d 17e4 dd3d
000000d0: ba98 0c3e 704e 0a3e c955 9a3c b584 7e3a
000000e0: a7d3 a63d 2a86 f3bd 5cde a13d 5dba aa3b
000000f0: b179 8c3c 8cd1 a0bd 094e 17bd d1ae 90bd
00000100: bd6e 7fbc a5b8 fbbd 0be0 1bbe a156 84bd
00000110: e46e ae3c dcc0 ccbd 3e5c 063e 3593 ae3d
00000120: 6d3d 8e3d e8e2 de3c bd26 1c3e cb37 10bd
00000130: dc2e 81bd e640 05bd 692e 08be 38d6 d7bd
00000140: 1d1d c6bd bfcf ecbd 080f 4dbd f438 e1bd
00000150: e76e 9c3d e32c d13c 7c99 8cbc c171 15be
00000160: 123f 923d b6cf 1cbe d921 1fbd 3bf1 463e
00000170: a2c4 c53d e1a8 1d3e 5f5c 213e becf b13d
00000180: b7f5 fa3c eecf 0b3d 90db 5cbc 25e1 543d
00000190: 0528 a0bc d35a 2e3c 479e 08bd 09fb f63c
000001a0: b0c8 613c 747c dc3d 827b 99bd fb8c 903b
000001b0: 00fe 0cbd bd42 32be 9f28 07be 6cff 33bd
000001c0: ea14 62bd 40e6 653d e0f2 94bd c31e 8abb
000001d0: 9b1c bf3c ed23 b8bd 406c 2dbe a63e 823c
000001e0: 54e2 edbd e0e8 54be 95be dfbd 710e e13d
000001f0: 258d 25be 4a17 81bc 10fa 123d edbe b2bc
00000200: d68b a23d fa05 86bc f6f6 8f3c e466 0bbe
00000210: 172c efbd da8a c13d 90d1 ffbd 2f17 a63d
00000220: f71f 5abc 902d 053e 67f3 efbd 74e2 2d3e
00000230: 6b5d 0d3e 866d 813a b7c3 ae3d 406a cc3d
00000240: 2410 103d 6811 07be 5080 d33d f5f3 163e
00000250: dc60 003d 3af7 e93d f4eb 49bc 42d4 2ebc
00000260: 4ac5 f93d 536a 223e 077f 933d 8c9b e3bc
00000270: 49be 623e 062b a73d 95de fdbc b5e9 81bd
00000280: 5846 b63d d218 c93d 2b90 5a3d 58c9 00be
00000290: 4baf c73c 4908 223e 067e 71bd 3d8c fc3d
000002a0: 3e1f c63d 688b bb3d b1ea 8fbd 187b a43d
000002b0: 0339 cb3d c5fd 7c3d 05bd 8d3d 9746 c13d
000002c0: be88 f339 e05b b2bd f3d6 023e ac57 ae3d
000002d0: 0c8d 04be 8d4a c93c 0f1c fcbd 0b45 d3bd
000002e0: bdbb fcbd c524 a7bd e999 03be 2d00 50be
000002f0: ffef f1bd 9bfe 09be ba1e 82bd b992 db3c
00000300: d343 b1bd 7138 473d 1aa4 c53d 059c 13be
00000310: 12f1 07bd d30d ccbd e9ac 38be eb5c b6bc
00000320: c7b8 eabc fa7c 893d a097 ea3a f2b8 19bd
00000330: d762 b9bd eea3 90bd e0a3 22bc 66c9 0c3e
00000340: 5fc3 973a a4a2 dc3d 884d 953c 28a1 fb3d
00000350: 8d34 2c3d b3bf a3bd e651 cc3d 7987 bc3d
00000360: df5a 7bbd 3293 51be 2bec d7bd 68a3 dcbd
00000370: 4ae0 73be c40a aabd d70a 183d e1cd 223d
00000380: 1674 e13d 43b8 e53d ba5b 81bd 3bb7 91bd
00000390: 79ac 3abc 1277 293e 179c 38bd 5b3f fc3b
000003a0: 1a1d c23d d44f 23bd b608 703d 40f0 7f3d
000003b0: ed86 e03d b549 a93d 70bf 1bbd 723c f43d
000003c0: 9f04 09bd 5d35 e1ba 6120 81bd 2082 0c3e
000003d0: 077b b5bd e895 643d 89dd 653c 2d22 5c3e
000003e0: 809f e03d e579 df3c 5c0b 7f3d d4e4 91bd
000003f0: d92c da3d 36ed a73d d81d 183e 8595 3f3e

model.2.bias f4 [64]
0.0 0.0 0.0 0.0 0.0 0.0 0.0 0.0
0.0 0.0 0.0 0.0 0.0 0.0 0.0 0.0
0.0 0.0 0.0 0.0 0.0 0.0 0.0 0.0
0.0 0.0 0.0 0.0 0.0 0.0 0.0 0.0
0.0 0.0 0.0 0.0 0.0 0.0 0.0 0.0
0.0 0.0 0.0 0.0 0.0 0.0 0.0 0.0
0.0 0.0 0.0 0.0 0.0 0.0 0.0 0.0
0.0 0.0 0.0 0.0 0.0 0.0 0.0 0.0
00000000: 0000 0000 0000 0000 0000 0000 0000 0000
00000010: 0000 0000 0000 0000 0000 0000 0000 0000
00000020: 0000 0000 0000 0000 0000 0000 0000 0000
00000030: 0000 0000 0000 0000 0000 0000 0000 0000
00000040: 0000 0000 0000 0000 0000 0000 0000 0000
00000050: 0000 0000 0000 0000 0000 0000 0000 0000
00000060: 0000 0000 0000 0000 0000 0000 0000 0000
00000070: 0000 0000 0000 0000 0000 0000 0000 0000
00000080: 0000 0000 0000 0000 0000 0000 0000 0000
00000090: 0000 0000 0000 0000 0000 0000 0000 0000
000000a0: 0000 0000 0000 0000 0000 0000 0000 0000
000000b0: 0000 0000 0000 0000 0000 0000 0000 0000
000000c0: 0000 0000 0000 0000 0000 0000 0000 0000
000000d0: 0000 0000 0000 0000 0000 0000 0000 0000
000000e0: 0000 0000 0000 0000 0000 0000 0000 0000
000000f0: 0000 0000 0000 0000 0000 0000 0000 0000

model.2.A f4 [3, 3, 3]
-0.46040136 0.55204654 0.16364834 0.41031703 -0.2666351 -0.24163777 0.32245797 -0.45716748
0.30782822 -0.2994341 -0.42746815 0.0670161 0.121644445 -0.38731635 0.22458492 -0.28273532
-0.32976744 -0.02847954 0.27018133 0.48417562 -0.4692644 -0.109370634 -0.13371204 -0.2646782
-0.28610358 -0.45503792 0.08011415
00000000: bab9 ebbe ec52 0d3f 6e93 273e 1315 d23e
00000010: 6584 88be e46f 77be 3619 a53e db11 eabe
00000020: a99b 9d3e 6d4f 99be 1bdd dabe bd3f 893d
00000030: b920 f93d 544e c6be 97f9 653e afc2 90be
00000040: 47d7 a8be ed4d e9bc 3555 8a3e dee5 f73e
00000050: 6c43 f0be b6fd dfbd cfeb 08be e783 87be
00000060: 2b7c 92be bbfa e8be e312 a43d

model.2.F f4 [3, 21, 21, 3, 3]
0.01997049 -0.021245282 -0.02295678 -0.016363258 -0.01968023 0.004546214 -0.019048367 0.028975109
-0.0065897144 0.013466369 -0.022204177 0.0054142475 -0.008444115 -0.011948601 0.009636961 -0.035783116
-0.01341706 0.016057663 -0.016100504 -0.029144125 0.029613059 -0.013616907 -0.02791216 0.008005611
0.023466302 0.024484966 0.004963462 0.02514477 -0.00867602 0.018072996 0.029347343 -0.026628358
-0.0066709234 0.017733254 -0.005005931 0.0042900247 0.023768278 -0.0044804374 0.008894185 0.008941417
0.00403759 0.043596733 0.0005008092 0.0013476971 0.0003655509 -0.014089829 -0.053450033 -0.020911906
0.0017139809 -0.0014476475 -0.019267222 -0.0073416797 0.0027478524 0.03064495 0.021048306 -0.021482082
-0.0065654544 0.0066777077 0.013516967 -0.0207301 0.035282537 0.03612557 0.043966327 0.029090568
-0.02647758 -0.021096746 0.04129552 0.021798048 0.02873307 0.027169317 0.013013573 0.007001386
0.011034042 -0.037601277 -0.011722223 -0.027972018 0.0008836999 -0.012824053 0.010582639 0.0107630715
-0.004006228 -0.03268737 0.044378415 -0.037328728 -0.020794567 0.0082252305 -0.04343419 0.022496343
0.022830758 -0.0034379987 -0.0052857227 -0.03369239 -0.007158447 -0.012843801 -0.059581388 0.0049108462
0.0034858063 -0.011040689 0.026584728 -0.02949902 0.014745989 -0.007469451 -0.019884966 -0.053156145
-0.04892143 0.0114450455 -0.0023109093 -0.008408568 -0.00061203755 -0.013257937 -0.04286972 -0.015147715
-0.0023301595 0.017009044 -0.006210049 -0.006397641 -0.033425093 -0.0017068164 -0.025753153 -0.01476863
-0.04738813 0.029397052 0.03697613 0.010420126 0.013809412 0.043483153 -0.005304674 -0.0029060584
-0.009505509 -0.0095118135 0.057827547 0.0009209245 0.005921461 -0.020932347 -0.009284409 -0.017424153
0.014659614 0.0048758653 -0.047194827 -0.02855293 -0.049652502 -0.003706094 -0.017532313 0.011014826
0.007957118 0.013497672 -0.014710077 -0.035744514 0.013427675 -0.0100677125 -0.021084623 0.025336483
0.03319443 -0.044573512 -0.004173158 0.036897585 0.028409936 0.07375359 -0.001437782 0.015688295
0.007221204 -0.025091225 -0.0041671135 0.0276015 0.01238521 -0.008084432 -0.0064252242 -0.03700838
0.027714957 0.04202839 0.012229093 -0.02896288 -0.017579932 -0.04483671 -0.032194514 0.036165684
-0.010859077 -0.02862596 -0.0030956313 -0.0051041343 -0.013331837 -0.05439287 -0.026705189 0.027985899
0.014913821 0.011302424 -0.030844742 0.058818623 0.0099268975 0.008718472 0.028466916 0.0025150757
0.05226345 0.0054031056 0.01581079 0.014178003 0.0077373474 -0.0033323318 0.017475266 0.017625408
-0.012965486 -0.023685893 -0.003506367 0.0665761 0.0031917007 -0.029465752 -0.029943153 0.005232302
0.026794106 0.0006639306 0.019433131 -0.03575895 -0.00045297304 -0.025357457 -0.035699792 -0.023812443
0.025830802 0.00034454578 -0.00060889026 0.034700163 -0.006589469 -0.011331651 0.04325636 -0.013850827
-0.01425988 -0.013451831 0.044935614 0.0035164093 -0.021901984 0.05867693 0.03409451 -0.0058596344
-0.0028371203 0.009879643 -0.0069726096 -0.0029387246 0.021147743 0.013315674 -0.0037024093 -0.0018543475
-0.017459692 0.01443635 -0.0008575056 -0.018342856 -0.041104022 -0.0072692907 0.038159084 0.0058926153
-0.008176653 0.0026135084 -0.0068704076 0.010830212 0.0051173205 -0.006387875 -0.029700385 -0.017202144
00000000: 2799 a33c 960a aebc db0f bcbc 3d0c 86bc
00000010: 6f38 a1bc 68f8 943b 520b 9cbc 355d ed3c
00000020: 88ee d7bb 0ca2 5c3c 89e5 b5bc 006a b13b
00000030: 2f59 0abc 11c4 43bc 58e4 1d3c 5191 12bd
00000040: 3ad3 5bbc 5c8b 833c 34e5 83bc a9bf eebc
00000050: 1697 f23c 7319 5fbc 0ba8 e4bc f729 033c
00000060: 673c c03c b294 c83c 89a4 a23b 68fc cd3c
00000070: de25 0ebc d20d 943c d769 f03c b723 dabc
00000080: c397 dabb 5445 913c cb08 a4bb 5693 8c3b
00000090: b1b5 c23c a2d0 92bb eab8 113c 057f 123c
000000a0: c34d 843b 7d92 323d bd48 033a 36a5 b03a
000000b0: 69a7 bf39 07d9 66bc 6cee 5abd 724f abbc
000000c0: a8a7 e03a fdbe bdba 4bd6 9dbc 7992 f0bb
000000d0: 5015 343b 1e0b fb3c 7f6d ac3c 31fb afbc
000000e0: 0623 d7bb acd0 da3b 4576 5d3c 2cd2 a9bc
000000f0: 6c84 103d 68f8 133d 0916 343d 584f ee3c
00000100: 83e7 d8bc 15d3 acbc 7e25 293d d291 b23c
00000110: 9d61 eb3c 3092 de3c e236 553c e26b e53b
00000120: 20c8 343c cc03 1abd 910e 40bc 9325 e5bc
00000130: 19a8 673a fa1b 52bc ce62 2d3c 9857 303c
00000140: ad46 83bb 31e3 05bd 24c6 353d 02e6 18bd
00000150: 5e59 aabc 1ec3 063c 0de8 31bd 404a b83c
00000160: 9207 bb3c 0c50 61bb db33 adbb 0801 0abd
00000170: 6891 eabb ce6e 52bc 9d0b 74bd 2aeb a03b
00000180: 2072 643b 02e4 34bc 37c8 d93c eea7 f1bc
00000190: 2999 713c 4cc2 f4bb cce5 a2bc 42ba 59bd
000001a0: d661 48bd 0084 3b3c a072 17bb 17c4 09bc
000001b0: 2571 20ba d137 59bc 2998 2fbd 1f2e 78bc
000001c0: 97b5 18bb 8d56 8b3c ab7d cbbb 4da3 d1bb
000001d0: c0e8 08bd 41b7 dfba 47f8 d2bc 20f8 71bc
000001e0: 0e1a 42bd 16d2 f03c 4874 173d 2db9 2a3c
000001f0: df40 623c 641b 323d d5d2 adbb 9273 3ebb
00000200: ffbc 1bbc 70d7 1bbc 94dc 6c3d 326a 713a
00000210: d108 c23b 507a abbc a21d 18bc 19bd 8ebc
00000220: e12e 703c b9c5 9f3b 5d4f 41bd d6e7 e9bc
00000230: 6c60 4bbd f1e1 72bb ed9f 8fbc 8777 343c
00000240: 925e 023c 5725 5d3c 8902 71bc d768 12bd
00000250: c0ff 5b3c 0cf3 24bc a9b9 acbc 758e cf3c
00000260: e2f6 073d b792 36bd fdbe 88bb ec21 173d
00000270: f4bb e83c 1f0c 973d f573 bcba bd84 803c
00000280: da9f ec3b 1d8c cdbc 488c 88bb 8a1c e23c
00000290: 56eb 4a3c 9174 04bc b08a d2bb 1996 17bd
000002a0: 7a0a e33c f625 2c3d 895c 483c 9043 edbc
000002b0: ca03 90bc b3a6 37bd 65de 03bd 7822 143d
000002c0: 45ea 31bc fd80 eabc 13e0 4abb 9540 a7bb
000002d0: c76d 5abc 0fcb 5ebd d7c4 dabc af42 e53c
000002e0: 1959 743c cd2d 393c 1dae fcbc cceb 703d
000002f0: 6da4 223c ecd7 0e3c 7333 e93c f8d3 243b
00000300: 3312 563d 890c b13b a185 813c db4a 683c
00000310: 9389 fd3b 4063 5abb 4a28 8f3c 2963 903c
00000320: 316d 54bc eb08 c2bc 14cb 65bb 0d59 883d
00000330: da2b 513b 2962 f1bc 584b f5bc bb73 ab3b
00000340: 507f db3c a10b 2e3a 3b32 9f3c fa77 12bd
00000350: 037d edb9 71ba cfbc f239 12bd 5012 c3bc
00000360: 1e9b d33c 27a4 b439 ef9d 1fba c221 0e3d
00000370: 79ec d7bb 64a8 39bc 952d 313d 94ee 62bc
00000380: 46a2 69bc 1265 5cbc 680e 383d 8f73 663b
00000390: ca6b b3bc 3857 703d afa6 0b3d 2d02 c0bb
000003a0: fbee 39bb 3ade 213c 7d7a e4bb 9e97 40bb
000003b0: 083e ad3c fc29 5a3c 1fa4 72bb 940d f3ba
000003c0: a107 8fbc 7186 6c3c 3aca 60ba c243 96bc
000003d0: b15c 28bd 3b33 eebb b34c 1c3d d716 c13b
000003e0: 5ef7 05bc 6547 2b3b 2821 e1bb 3471 313c
000003f0: 32af a73b 6151 d1bb 394e f3bc 83eb 8cbc

model.3.weight f4 [63]
0.39981985 0.77729434 0.41696194 0.3125763 0.06918091 0.8616814 0.07815575 0.80020195
0.14892386 0.2757091 0.61090827 0.2059729 0.8268527 0.95614994 0.7830779 0.41315773
0.6619735 0.10513189 0.4580373 0.17489693 0.21644275 0.640856 0.71490383 0.8815075
0.83371454 0.61555517 0.31313825 0.35832727 0.41004285 0.15830158 0.2926 0.13540162
0.7411176 0.5467427 0.589337 0.22814111 0.8274116 0.23742253 0.28491282 0.7431059
0.68184865 0.65445024 0.22050305 0.62827337 0.3872281 0.39932984 0.9514997 0.36650655
0.18857762 0.89081866 0.19457367 0.22960512 0.29903156 0.9167173 0.949152 0.8447827
0.14208369 0.38144934 0.35873953 0.79417884 0.29881194 0.40532017 0.89562005
00000000: 30b5 cc3e c3fc 463f 097c d53e 000a a03e
00000010: b9ae 8d3d 2797 5c3f 1f10 a03d 09da 4c3f
00000020: 7f7f 183e be29 8d3e 7c64 1c3f 8fea 523e
00000030: 9eac 533f 3ec6 743f cb77 483f 6989 d33e
00000040: 1877 293f 634f d73d dd83 ea3e 2e18 333e
00000050: 2ba3 5d3e 240f 243f f003 373f 7aaa 613f
00000060: 516e 553f 0695 1d3f a853 a03e ac76 b73e
00000070: 23f1 d13e cf19 223e abcf 953e b9a6 0a3e
00000080: e2b9 3d3f 54f7 0b3f cade 163f d39d 693e
00000090: 3fd1 533f e41e 733e 18e0 913e 303c 3e3f
000000a0: a28d 2e3f 0d8a 273f 8dcb 613e 86d6 203f
000000b0: c342 c63e f674 cc3e 7c95 733f bfa6 bb3e
000000c0: 7e1a 413e b10c 643f 523e 473e 9b1d 6b3e
000000d0: aa1a 993e fcad 6a3f a0fb 723f ae43 583f
000000e0: 637e 113e 544d c33e b5ac b73e 4e4f 4b3f
000000f0: e1fd 983e 2086 cf3e 5b47 653f

model.3.bias f4 [63]
0.08309993 0.17934379 0.12438543 0.06536449 0.0064235674 0.10141405 -0.08548249 -0.022598052
0.34643692 0.1597367 0.3998753 0.06292111 0.10950675 -0.04708288 -0.06090208 0.011799503
-0.063391685 0.18940865 -0.012440029 -0.02172482 0.14386307 0.05666839 -0.030303063 0.10270409
0.13125576 0.14775133 0.1809254 0.15818846 0.118191764 0.02932516 0.035384737 -0.05899802
-0.13827656 -0.05767681 -0.021599527 0.11383883 0.14775294 0.02599578 -0.016354678 0.22881886
-0.03363113 -0.07420387 0.11562691 -0.073624216 0.19485295 0.044817872 0.112804934 0.14628233
0.31402358 0.14357516 0.32557374 0.267485 -0.0461901 -0.07931558 -0.15393719 -0.025136132
0.11781065 0.02558789 -0.028224176 -0.096393704 0.057305284 0.035303365 -0.09415422
00000000: 4c30 aa3d e6a5 373e cabd fe3d d1dd 853d
00000010: ca7c d23b 2bb2 cf3d 7211 afbd 8d1f b9bc
00000020: 2e60 b13e 0492 233e 75bc cc3e c8dc 803d
00000030: 1345 e03d fad9 40bd 7674 79bd b452 413c
00000040: 80d3 81bd 57f4 413e 43d1 4bbc 40f8 b1bc
00000050: d750 133e 1d1d 683d 213e f8bc 8656 d23d
00000060: e967 063e 204c 173e 8244 393e 28fc 213e
00000070: 860e f23d 513b f03c 96ef 103d e8a7 71bd
00000080: 5f98 0dbe 853e 6cbd 7ef1 b0bc 5524 e93d
00000090: 8c4c 173e 1af5 d43c 3ffa 85bc 7e4f 6a3e
000000a0: ccc0 09bd 33f8 97bd cdcd ec3d 4bc8 96bd
000000b0: 8887 473e f292 373d 4606 e73d 09cb 153e
000000c0: b3c7 a03e 5e05 133e 9ab1 a63e cbf3 883e
000000d0: d531 3dbd 3570 a2bd b6a1 1dbe 4aea cdbc
000000e0: b646 f13d b29d d13c 6336 e7bc 106a c5bd
000000f0: f2b8 6a3d 439a 103d edd3 c0bd

model.3.running_mean f4 [63]
0.007872302 -0.11188085 -0.082171954 0.03194044 0.050800264 -0.07505632 0.041297834 0.09481123
0.010772783 0.0077641713 -0.09070203 -0.11923956 -0.09226307 0.12967457 0.13872297 0.07258805
0.07106162 -0.11426774 0.11624997 0.045032922 -0.02543092 -0.06659248 0.076921344 -0.08854474
-0.03401104 -0.037036125 -0.0327871 -0.059460107 -0.03958194 -0.052209765 -0.05141538 0.064941846
0.058344852 0.116906576 0.1368156 -0.037592627 -0.059326693 -0.017320434 0.14231709 -0.050249923
0.04216455 0.07049674 -0.052220117 0.105087794 -0.065965526 -0.10571957 -0.10971043 -0.12217038
-0.06365641 -0.11337955 -0.06304222 -0.024877358 0.10082977 0.12191809 0.19277813 0.10114833
-0.021060294 0.03694564 0.096773006 0.15726241 -0.03177026 0.033753347 0.092226565
00000000: d4fa 003c c921 e5bd c549 a8bd fbd3 023d
00000010: f013 503d 21b7 99bd eb27 293d 642c c23d
00000020: 5480 303c 976a fe3b fcc1 b9bd df33 f4bd
00000030: 6cf4 bcbd 69c9 043e 650d 0e3e 0ba9 943d
00000040: c188 913d 3405 eabd 7714 ee3d 7174 383d
00000050: 8154 d0bc a361 88bd f088 9d3d f256 b5bd
00000060: 294f 0bbd 31b3 17bd c44b 06bd 718c 73bd
00000070: ac20 22bd e8d9 55bd ef98 52bd 3b00 853d
00000080: 03fb 6e3d b76c ef3d 6319 0c3e bafa 19bd
00000090: 8c00 73bd 95e3 8dbc 92bb 113e ddd2 4dbd
000000a0: bcb4 2c3d 9860 903d c3e4 55bd 4538 d73d
000000b0: ef18 87bd 8083 d8bd ddaf e0bd 7734 fabd
000000c0: 4b5e 82bd 8a33 e8bd 481c 81bd 9acb cbbc
000000d0: d77f ce3d 31b0 f93d a167 453e db26 cf3d
000000e0: a386 acbc 5054 173d ed30 c63d 6609 213e
000000f0: 8821 02bd f340 0a3d 48e1 bc3d

model.3.running_var f4 [63]
0.001993656 0.0048017614 0.0030648669 0.00089746533 0.0012211709 0.0020860087 0.0008988298 0.0034709976
0.00017485478 0.0003022355 0.0031978139 0.0055435807 0.0033995504 0.006293664 0.0071114516 0.0024198238
0.0018770891 0.005215815 0.005204888 0.001291494 0.0007203287 0.001629043 0.0021156813 0.0029661653
0.00051812327 0.00051676756 0.00048336585 0.0014901109 0.0006312435 0.001115531 0.0011926483 0.0016634988
0.0012466462 0.0050446126 0.006888854 0.00057961134 0.0013647522 0.00021788351 0.0075482465 0.0010406835
0.000734421 0.0019339891 0.0010609779 0.004097167 0.0016776884 0.0040682657 0.0044425526 0.0054105814
0.0016128551 0.004890015 0.0016151338 0.00028314712 0.0039112656 0.0054798843 0.013824999 0.003969779
0.00023425324 0.00056550046 0.0035849202 0.0088913785 0.00045621037 0.00045739603 0.0031403636
00000000: ffa7 023b 1858 9d3b efdb 483b e143 6b3a
00000010: b20f a03a 6bb5 083b 729f 6b3a ad79 633b
00000020: 3959 3739 5d75 9e39 6a92 513b eda6 b53b
00000030: feca 5e3b 153b ce3b 2e07 e93b e895 1e3b
00000040: a908 f63a 6de9 aa3b c48d aa3b 5947 a93a
00000050: 71d4 3c3a 9d85 d53a 3ea7 0a3b ff63 423b
00000060: aad2 073a af77 073a 446c fd39 d34f c33a
00000070: 097a 253a 0237 923a a352 9c3a c209 da3a
00000080: 8166 a33a 474d a53b e5bb e13b 0ff1 173a
00000090: 7ce1 b23a a977 6439 4857 f73b 8b67 883a
000000a0: 2986 403a e87d fd3a 8310 8b3a 8741 863b
000000b0: e2e5 db3a 164f 853b d592 913b 3f4b b13b
000000c0: 7066 d33a 6b3c a03b e6b2 d33a 5d73 9439
000000d0: 132a 803b 9a90 b33b 4082 623c eb14 823b
000000e0: e0a1 7539 183e 143a fbf0 6a3b 25ad 113c
000000f0: 852f ef39 a8ce ef39 8fce 4d3b

model.5.bias f4 [64]
0.0 0.0 0.0 0.0 0.0 0.0 0.0 0.0
0.0 0.0 0.0 0.0 0.0 0.0 0.0 0.0
0.0 0.0 0.0 0.0 0.0 0.0 0.0 0.0
0.0 0.0 0.0 0.0 0.0 0.0 0.0 0.0
0.0 0.0 0.0 0.0 0.0 0.0 0.0 0.0
0.0 0.0 0.0 0.0 0.0 0.0 0.0 0.0
0.0 0.0 0.0 0.0 0.0 0.0 0.0 0.0
0.0 0.0 0.0 0.0 0.0 0.0 0.0 0.0
00000000: 0000 0000 0000 0000 0000 0000 0000 0000
00000010: 0000 0000 0000 0000 0000 0000 0000 0000
00000020: 0000 0000 0000 0000 0000 0000 0000 0000
00000030: 0000 0000 0000 0000 0000 0000 0000 0000
00000040: 0000 0000 0000 0000 0000 0000 0000 0000
00000050: 0000 0000 0000 0000 0000 0000 0000 0000
00000060: 0000 0000 0000 0000 0000 0000 0000 0000
00000070: 0000 0000 0000 0000 0000 0000 0000 0000
00000080: 0000 0000 0000 0000 0000 0000 0000 0000
00000090: 0000 0000 0000 0000 0000 0000 0000 0000
000000a0: 0000 0000 0000 0000 0000 0000 0000 0000
000000b0: 0000 0000 0000 0000 0000 0000 0000 0000
000000c0: 0000 0000 0000 0000 0000 0000 0000 0000
000000d0: 0000 0000 0000 0000 0000 0000 0000 0000
000000e0: 0000 0000 0000 0000 0000 0000 0000 0000
000000f0: 0000 0000 0000 0000 0000 0000 0000 0000

model.5.A f4 [3, 3, 3]
-0.21388862 -0.10132053 -0.4434863 0.5131608 0.027204813 -0.5201942 -0.50120384 -0.090648584
-0.52917725 -0.1648543 -0.16885436 0.5140319 -0.46871486 -0.48901385 0.0918407 0.002294872
-0.41464776 -0.45541558 -0.4953452 0.14637813 -0.32255334 0.4448569 0.09014303 0.49764633
-0.049319286 0.5183445 0.04262762
00000000: 9e05 5bbe 2381 cfbd a310 e3be 825e 033f
00000010: a1dc de3c 722b 05bf e54e 00bf f7a5 b9bd
00000020: 2978 07bf 91cf 28be 28e8 2cbe 9897 033f
00000030: 65fb efbe 0660 fabe fa16 bc3d 9065 163b
00000040: b64c d4be 3b2c e9be e39d fdbe 26e4 153e
00000050: b625 a5be 49c4 e33e e99c b83d 80cb fe3e
00000060: 0503 4abd 3ab2 043f 4d9a 2e3d

model.5.F f4 [3, 21, 21, 3, 3]
-0.016277995 -0.000504813 0.020844322 -0.004666538 0.0014472888 -0.008968963 -0.00848902 -0.0012035542
-0.027263332 -0.005867526 0.0325892 0.035392273 0.02861617 -0.04213972 0.039235547 -0.022849733
0.018178148 0.021900874 0.029420722 0.017384272 0.00057663006 0.008506318 0.04100347 0.026234537
-0.02294679 0.026610417 0.0024889512 0.028367355 -0.019269766 -0.00030951478 0.016763799 0.015352547
0.021563001 0.011680732 -0.0020074318 0.041065563 0.007700164 0.0077569974 0.02556672 -0.016472584
0.043827254 -0.0031401857 0.017541697 -0.0154710375 0.004691727 -0.01768215 0.030092096 0.012108453
-0.03372767 -0.015979752 0.020144204 0.00045030809 -0.00056030066 0.020830661 0.01674808 0.01008771
0.03210209 0.04313619 -0.048814088 0.008441992 -0.024522131 0.042353142 -0.0054220646 0.014186507
-0.007678315 0.050261416 0.013044959 0.016389336 0.048805233 -0.011356331 -0.0013767121 -0.02229409
-0.02579207 0.008478908 0.03421729 -0.035870444 -0.0010489166 -0.012690579 -0.011320609 0.08621089
-0.016635928 -0.0056111924 0.040523905 -0.026472945 -0.06017181 0.034551095 -0.0014482868 0.00640771
-0.0011571076 -0.009985436 -0.0063551418 0.0011029763 0.0013892394 -0.031021012 -0.004930969 0.03323449
0.016329052 -0.0009309648 0.0059907543 0.0005600261 -0.026752029 -0.039484184 0.0038999864 0.021992696
0.01574066 0.005693164 -0.038749985 -0.02643316 -0.013688804 -0.03560749 -0.012425585 0.020716492
-0.028292587 0.011106074 0.015252337 -0.0047221505 0.020114182 -0.028059471 -0.0011567223 -0.016435774
0.0032071345 -0.022648927 -0.00991097 -0.03841425 0.0059142374 0.00774238 -0.02973203 -0.01816491
-0.03127247 -0.07662309 -0.019514387 -0.04873605 -0.055398084 -0.04361215 -0.02308762 0.025595019
-0.0027926462 0.040328465 0.013334141 0.033775695 0.025463317 0.01253367 -0.00037172652 0.012033414
-0.008431223 -0.0073598297 0.019801872 0.027254343 0.011023999 0.019406267 0.012850675 0.024879407
-0.013637216 -0.003089714 -0.0065599 0.007152827 -0.025297044 0.037629567 0.008892067 -0.03008594
0.014693899 -0.021553129 -0.016023891 -0.013962365 -0.025056636 -0.056552034 -0.056255654 -0.048269067
0.00044904178 0.00069039065 -0.0009993446 -0.008497894 0.016452624 0.0009598716 -0.03192851 0.045176677
-0.009802913 0.006589482 0.00589791 -0.0035685122 0.011131192 -0.019033857 -0.009389384 0.018499529
-0.04006931 -0.017329304 0.007981223 0.0014235021 0.032774806 0.012572032 0.02597477 -0.0025403108
-0.010967582 0.02108662 0.008870039 0.018310657 -0.016570367 -0.020987237 0.019206524 0.013074709
-0.0035537775 -0.02456247 -0.019032292 0.00043348118 0.0036778098 0.030872434 -0.010001486 -0.0059110015
0.024735067 0.025770588 0.018684888 -0.037792247 0.0013867393 0.04008251 -0.025082648 -0.00068888813
0.013573794 -0.0059197987 0.022852553 0.024133762 0.032475006 0.024214037 0.008373853 0.022627633
0.0076990584 -0.031077532 -0.009807043 0.03098676 0.032062627 0.04130057 0.0056986855 -0.03251772
0.00014126909 0.02353884 -0.030186182 0.042349286 -0.001161313 -0.01696333 0.0025214609 -0.012351731
-0.02277906 0.031928774 0.0055137617 -0.049908128 -0.038855456 -0.0032187584 0.0033717307 -0.0013064231
0.013633012 -0.030178672 0.00565992 -0.004417994 0.025772914 0.00969974 -0.0021837216 0.008609293
00000000: 6e59 85bc 6d55 04ba b6c1 aa3c c2e9 98bb
00000010: f4b2 bd3a 8ff2 12bc 8815 0bbc 94c0 9dba
00000020: 5a57 dfbc 6044 c0bb 417c 053d 7df7 103d
00000030: 756c ea3c b39a 2cbd 74b5 203d 5d2f bbbc
00000040: 57ea 943c 7669 b33c ba03 f13c 7669 8e3c
00000050: fd28 173a 155e 0b3c 41f3 273d d0e9 d63c
00000060: e8fa bbbc 17fe d93c ac1d 233b a862 e83c
00000070: a1db 9dbc 5f46 a2b9 3c54 893c 4089 7b3c
00000080: e4a4 b03c 8a60 3f3c 1e8f 03bb 5d34 283d
00000090: a851 fc3b 692e fe3b 4c71 d13c 83f1 86bc
000000a0: 3584 333d 93cb 4dbb 9bb3 8f3c 3c7a 7dbc
000000b0: 0fbd 993b 28da 90bc b383 f63c 8862 463c
000000c0: 0626 0abd f8e7 82bc 7505 a53c 5417 ec39
000000d0: 24e1 12ba 10a5 aa3c 4533 893c ec46 253c
000000e0: 7b7d 033d 93af 303d 48f1 47bd 4850 0a3c
000000f0: a3e2 c8bc 7d7a 2d3d 93ab b1bb 866e 683c
00000100: 609a fbbb eade 4d3d 86ba 553c ee42 863c
00000110: ffe7 473d e80f 3abc cb72 b4ba 18a2 b6bc
00000120: e449 d3bc 1eeb 0a3c 6e27 0c3d e3ec 12bd
00000130: cd7b 89ba 25ec 4fbc 137a 39bc 568f b03d
00000140: 1248 88bc 18de b7bb 65fc 253d cadd d8bc
00000150: b776 76bd 7385 0d3d 71d4 bdba c4f7 d13b
00000160: 17aa 97ba f499 23bc cb3e d0bb be91 903a
00000170: 2417 b63a c71f febc f793 a1bb e320 083d
00000180: 81c4 853c fd0b 74ba 174e c43b b7ce 123a
00000190: 1227 dbbc 2bba 21bd ea96 7f3b 072a b43c
000001a0: 8ef2 803c b98d ba3b 4eb8 1ebd 5b8a d8bc
000001b0: 0147 60bc 29d9 11bd ae94 4bbc a2b5 a93c
000001c0: dbc5 e7bc 40f6 353c f0e4 793c 45bc 9abb
000001d0: 7fc6 a43c fadc e5bc 299d 97ba 51a4 86bc
000001e0: ca2e 523b 3e8a b9bc 9f61 22bc 4358 1dbd
000001f0: 38cc c13b cab3 fd3b 9690 f3bc 94ce 94bc
00000200: 9017 00bd 91ec 9cbd a3dc 9fbc 749f 47bd
00000210: 1ae9 62bd a7a2 32bd 4022 bdbc a5ac d13c
00000220: d404 37bb 762f 253d 7177 5a3c 6258 0a3d
00000230: 7298 d03c 065a 4d3c 4ae4 c2b9 cc27 453c
00000240: 1d23 0abc ba2a f1bb 8937 a23c 8044 df3c
00000250: 019e 343c e4f9 9e3c a38b 523c e6cf cb3c
00000260: a16e 5fbc cd7c 4abb 6ef4 d6bb 4362 ea3b
00000270: bf3b cfbc 7621 1a3d 08b0 113c ca76 f6bc
00000280: aebe 703c 3090 b0bc 8944 83bc 67c2 64bc
00000290: 9343 cdbc 1ba3 67bd 546c 66bd c9b5 45bd
000002a0: 5e6d eb39 55fb 343a 71fc 82ba c03a 0bbc
000002b0: a7c7 863c e59f 7b3a 78c7 02bd 2e0b 393d
000002c0: 669c 20bc 95ec d73b 4143 c13b b3dd 69bb
000002d0: 9a5f 363c e4ec 9bbc eed5 19bc 538c 973c
000002e0: b81f 24bd 2ff6 8dbc adc3 023c ce94 ba3a
000002f0: e03e 063d edfa 4d3c 0ac9 d43c 587b 26bb
00000300: 60b1 33bc d9bd ac3c a453 113c 3b00 963c
00000310: 94be 87bc 6ded abbc 0057 9d3c 4e37 563c
00000320: 7ee6 68bb 3c37 c9bc 9ce9 9bbc dc44 e339
00000330: 6907 713b 30e8 fc3c 46dd 23bc 13b1 c1bb
00000340: 32a1 ca3c d71c d33c 0d11 993c 0bcc 1abd
00000350: 40c3 b53a 8f2d 243d 207a cdbc 8096 34ba
00000360: 9e64 5e3c dffa c1bb 4735 bb3c 2bb4 c53c
00000370: 8304 053d 845c c63c 7c32 093c 965d b93c
00000380: 6248 fc3b 4f96 febc b8ad 20bc f2d7 fd3c
00000390: 1a54 033d c92a 293d 0abc ba3b 4d31 05bd
000003a0: a221 1439 86d4 c03c 0349 f7bc 7276 2d3d
000003b0: 3337 98ba aef6 8abc 183f 253b ea5e 4abc
000003c0: 279b babc bfc7 023d c9ac b43b 776c 4cbd
000003d0: e626 1fbd cef1 52bb 41f8 5c3b 493c abba
000003e0: ff5c 5f3c 4339 f7bc da76 b93b d2c4 90bb
000003f0: b821 d33c a9eb 1e3c c51c 0fbb fe0d 0d3c

model.6.weight f4 [63]
0.66576284 0.5830449 0.65305245 0.93320614 0.6784563 0.62820244 0.49789125 0.5798501
0.73728 0.30278894 0.13850756 0.18754031 0.6642388 0.365655 0.92415386 0.94090277
0.844339 0.8508392 0.18568233 0.96273947 0.06865001 0.71019834 0.8057935 0.14071202
0.21054855 0.716979 0.48208374 0.9218818 0.8679417 0.9868189 0.4115539 0.17771034
0.3389514 0.13842472 0.14059113 0.47581187 0.28031513 0.26226503 0.28044632 0.7509624
0.3916476 0.7740608 0.7363006 0.4050301 0.36256853 0.4804797 0.21788995 0.66320425
0.5888646 0.5930679 0.32156155 0.7106215 0.7762843 0.34639233 0.3198582 0.80624163
0.94664073 0.3383707 0.8858417 0.15960284 0.96858567 0.80974555 0.7636804
00000000: 6f6f 2a3f 6e42 153f 722e 273f 99e6 6e3f
00000010: 50af 2d3f e0d1 203f 9aeb fe3e 0e71 143f
00000020: 62be 3c3f 2707 9b3e edd4 0d3e 910a 403e
00000030: 8e0b 2a3f 2237 bb3e 5995 6c3f 01df 703f
00000040: 9a26 583f 99d0 593f 8223 3e3e 1876 763f
00000050: 6098 8c3d 8fcf 353f 7c48 4e3f d016 103e
00000060: 0a9a 573e f08b 373f aed3 f63e 7200 6c3f
00000070: 6d31 5e3f 2aa0 7c3f 31b7 d23e b3f9 353e
00000080: 0a8b ad3e 36bf 0d3e 1ff7 0f3e 9d9d f33e
00000090: 7785 8f3e 9a47 863e a996 8f3e 123f 403f
000000a0: 0986 c83e d928 463f 327e 3c3f 1b60 cf3e
000000b0: 95a2 b93e 6f01 f63e 8b1e 5f3e c1c7 293f
000000c0: d5bf 163f 4cd3 173f b7a3 a43e 4aeb 353f
000000d0: 91ba 463f 565a b13e 74c4 a33e da65 4e3f
000000e0: 0c57 723f ed3e ad3e 86c6 623f ed6e 233e
000000f0: 3bf5 773f 7c4b 4f3f 8f80 433f

model.6.bias f4 [63]
0.10361509 0.07261191 0.2944572 0.1372459 -0.24059513 -0.11055975 0.13841006 -0.11392941
0.110885344 0.03512076 0.037743364 0.13139783 0.25089642 0.26168826 0.143639 -0.037062388
0.0140757235 -0.11838278 0.048283745 0.15228665 -0.03495942 0.06565042 0.06602228 0.06929546
0.08378359 0.068292424 0.07553092 -0.064973146 0.03697374 0.04658931 -0.023401257 0.05744816
0.2643972 0.052061085 -0.024031412 0.05762992 0.11214039 -0.0072965994 0.071764655 -0.04983078
0.18958189 0.07100805 -0.0033670345 -0.035202924 0.250475 0.077045836 0.0028630083 0.029828858
-0.018194301 -0.057874616 0.00015006178 -0.020482974 0.0780901 0.2371071 0.11040617 -0.073139586
0.17817812 -0.024522392 -0.043122336 0.03624606 -0.011749652 0.14698386 0.20016819
00000000: 2634 d43d 8eb5 943d 18c3 963e 308a 0c3e
00000010: 925e 76be 266d e2bd 5ebb 0d3e d353 e9bd
00000020: db17 e33d c9da 0f3d c998 1a3d 278d 063e
00000030: 7f75 803e 01fc 853e 1a16 133e bbce 17bd
00000040: dd9d 663c ac72 f2bd 2dc5 453d 08f1 1b3e
00000050: 9c31 0fbd ba73 863d b036 873d c7ea 8d3d
00000060: bb96 ab3d e6dc 8b3d f4af 9a3d a410 85bd
00000070: c771 173d 6fd4 3e3d feb3 bfbc c34e 6b3d
00000080: 125f 873e 013e 553d 86dd c4bc 5a0d 6c3d
00000090: dca9 e53d 5018 efbb 59f9 923d 5c1b 4cbd
000000a0: c121 423e ab6c 913d 77a9 5cbb f130 10bd
000000b0: 423e 803e 35ca 9d3d 4fa1 3b3b a65b f43c
000000c0: 370c 95bc ef0d 6dbd e759 1d39 e9cb a7bc
000000d0: b4ed 9f3d 34cc 723e a11c e23d 35ca 95bd
000000e0: 5374 363e 2fe3 c8bc 0ca1 30bd c076 143d
000000f0: 9d81 40bc f082 163e e4f8 4c3e

model.6.running_mean f4 [63]
0.03337029 0.0689242 -0.08735704 -0.19131479 0.454957 0.297856 -0.22968474 0.2551593
-0.1430526 -0.09281288 0.09298276 -0.12344609 0.041351516 -0.0315751 -0.17678389 0.21207437
0.17437136 0.40909222 -0.029619 -0.081275076 0.21912909 -0.076820955 0.0049008913 0.10438373
0.120598584 -0.19894606 -0.118269615 0.49691144 0.030280484 -0.10728666 0.28904966 0.092368945
-0.027029164 0.11594415 0.12299242 0.21583234 0.004262923 -0.010843433 -0.18129376 0.24805878
-0.1674395 -0.19773123 -0.019921191 0.12249213 0.020945521 -0.22634563 0.104698166 0.03573031
0.37184682 0.20109548 -0.12708367 0.3224211 0.19728969 -0.007302728 0.019465838 0.28663406
-0.08481749 0.4073738 0.41529894 0.1529321 -0.030922368 -0.2427773 0.010189181
00000000: 49af 083d 2228 8d3d 3fe8 b2bd 06e8 43be
00000010: 20f0 e83e 9580 983e 7a32 6bbe 3da4 823e
00000020: 617c 12be ae14 bebd bf6d be3d 4ed1 fcbd
00000030: 3560 293d e454 01bd d606 35be 062a 593e
00000040: 688e 323e 8974 d13e 8ca3 f2bc 8c73 a6bd
00000050: 6063 603e 4e54 9dbd a897 a03b 23c7 d53d
00000060: 64fc f63d 84b8 4bbe 5737 f2bd 2d6b fe3e
00000070: c70e f83c 1cb9 dbbd 51fe 933e ee2b bd3d
00000080: 446c ddbc 2074 ed3d 73e3 fb3d 2703 5d3e
00000090: fdaf 8b3b a8a8 31bc 12a5 39be 1f03 7e3e
000000a0: 4375 2bbe 0e7a 4abe c431 a3bc 27dd fa3d
000000b0: f195 ab3c 26c7 67be fe6b d63d f259 123d
000000c0: b562 be3e f9eb 4d3e 3922 02be 6114 a53e
000000d0: 4f06 4a3e b94b efbb d276 9f3c b3c1 923e
000000e0: cbb4 adbd 4c93 d03e 10a2 d43e 3c9a 1c3e
000000f0: e850 fdbc 9d9a 78be 86f0 263c

model.6.running_var f4 [63]
0.013523623 0.017069712 0.025388345 0.029301722 0.0018840752 0.022413427 0.0084427195 0.01200137
0.023125395 0.010785195 0.004435574 0.0046947715 0.017039252 0.0074380217 0.03378086 0.047742426
0.026662622 0.007610704 0.007642539 0.022261437 0.025393574 0.051880676 0.040000223 0.03827425
0.015203832 0.03727592 0.02324944 0.034406245 0.047429867 0.06216445 0.03379874 0.009705928
0.014252687 0.052346308 0.00795291 0.021720514 0.013035869 0.012220938 0.0135117695 0.032787215
0.018041644 0.024575375 0.08468801 0.07647619 0.016806107 0.027496235 0.1272303 0.095694825
0.107056014 0.021091033 0.029897656 0.020144662 0.01668948 0.013491918 0.015163393 0.04344643
0.03449772 0.15946354 0.027900482 0.12362571 0.042957567 0.06884039 0.030348314
00000000: 3092 5d3c c8d5 8b3c 38fb cf3c 2a0a f03c
00000010: 13f3 f63a 5d9c b73c 5553 0a3c 65a1 443c
00000020: 7871 bd3c 63b4 303c 4b58 913b 99d6 993b
00000030: e795 8b3c a6ba f33b cd5d 0a3d 908d 433d
00000040: 926b da3c 3663 f93b 446e fa3b 9e5d b63c
00000050: 2f06 d03c d580 543d 46d7 233d 76c5 1c3d
00000060: 7e19 793c a3ae 183d 9c75 be3c 90ed 0c3d
00000070: d245 423d 26a0 7e3d 8c70 0a3d 9d05 1f3c
00000080: 1a84 693c 1569 563d ec4c 023c 38ef b13c
00000090: 6694 553c 543a 483c 7860 5d3c e34b 063d
000000a0: 12cc 933c 4c52 c93c e870 ad3d 8c9f 9c3d
000000b0: f6ac 893c c93f e13c a948 023e a6fb c33d
000000c0: 2f40 db3d 1ac7 ac3c eeeb f43c 6b06 a53c
000000d0: 60b8 883c 350d 5d3c e16f 783c e2f4 313d
000000e0: 7b4d 0d3d 694a 233e 8d8f e43c 7a2f fd3d
000000f0: 46f4 2f3d 31fc 8c3d 079d f83c

model.8.bias f4 [64]
0.0 0.0 0.0 0.0 0.0 0.0 0.0 0.0
0.0 0.0 0.0 0.0 0.0 0.0 0.0 0.0
0.0 0.0 0.0 0.0 0.0 0.0 0.0 0.0
0.0 0.0 0.0 0.0 0.0 0.0 0.0 0.0
0.0 0.0 0.0 0.0 0.0 0.0 0.0 0.0
0.0 0.0 0.0 0.0 0.0 0.0 0.0 0.0
0.0 0.0 0.0 0.0 0.0 0.0 0.0 0.0
0.0 0.0 0.0 0.0 0.0 0.0 0.0 0.0
00000000: 0000 0000 0000 0000 0000 0000 0000 0000
00000010: 0000 0000 0000 0000 0000 0000 0000 0000
00000020: 0000 0000 0000 0000 0000 0000 0000 0000
00000030: 0000 0000 0000 0000 0000 0000 0000 0000
00000040: 0000 0000 0000 0000 0000 0000 0000 0000
00000050: 0000 0000 0000 0000 0000 0000 0000 0000
00000060: 0000 0000 0000 0000 0000 0000 0000 0000
00000070: 0000 0000 0000 0000 0000 0000 0000 0000
00000080: 0000 0000 0000 0000 0000 0000 0000 0000
00000090: 0000 0000 0000 0000 0000 0000 0000 0000
000000a0: 0000 0000 0000 0000 0000 0000 0000 0000
000000b0: 0000 0000 0000 0000 0000 0000 0000 0000
000000c0: 0000 0000 0000 0000 0000 0000 0000 0000
000000d0: 0000 0000 0000 0000 0000 0000 0000 0000
000000e0: 0000 0000 0000 0000 0000 0000 0000 0000
000000f0: 0000 0000 0000 0000 0000 0000 0000 0000

model.8.A f4 [3, 3, 3]
-0.5172132 0.523069 0.44525155 -0.012704781 0.35962844 0.110449426 -0.1640127 0.539729
-0.23616792 0.07844287 0.054875154 -0.26202652 0.22783649 -0.2454621 0.3898421 -0.5846667
-0.17027985 0.24418378 0.3602728 -0.043859866 -0.2253704 0.52701896 0.1448776 0.4559364
-0.3234786 0.43595812 -0.35671967
00000000: 1668 04bf dae7 053f 03f8 e33e b727 50bc
00000010: 3821 b83e 4f33 e23d f2f2 27be ae2b 0a3f
00000020: 01d6 71be a8a6 a03d c5c4 603d 5728 86be
00000030: f84d 693e 6b5a 7bbe 6299 c73e b8ac 15bf
00000040: d75d 2ebe 500b 7a3e ad75 b83e 67a6 33bd
00000050: 80c7 66be b7ea 063f cb5a 143e 7f70 e93e
00000060: fd9e a5be e735 df3e f6a3 b6be

model.8.F f4 [3, 21, 21, 3, 3]
-0.025189005 0.012637496 -0.03067184 -0.03785593 -0.008911075 0.0067906734 -0.010930413 -0.035620928
-0.029504266 -0.015766798 -0.03777708 0.0136756115 -0.026046362 0.01984849 -0.018771807 -0.027832238
-0.00035627748 -0.0139434235 0.010195385 -0.012797847 -0.012979349 0.033143107 0.0027320378 -0.029442267
0.00364181 -0.027380934 0.027107147 -0.00653874 0.0038825865 0.03681307 0.020155711 0.049150236
0.00680919 -0.02232508 0.010086355 0.008843149 -0.0029536588 -0.026663061 -0.020090902 -0.032695383
-0.016965363 -0.0043351147 -0.046932366 -0.039670385 -0.031706434 -0.032085676 0.0048898566 -0.05113236
-0.019448739 -0.00854968 -0.03080756 -0.038774353 -0.043812778 -0.031355888 0.013654251 0.018493433
-0.010874403 -0.033926833 0.00981586 -0.019444313 0.001997225 0.018253164 0.023901353 -0.02124725
0.0178253 -0.016523069 -0.021119049 0.018577684 -0.010773754 0.017565997 -0.020520775 -0.004126922
0.01564919 -0.014406196 0.0021338577 -0.027755516 0.0053070444 -0.0009926528 0.020682255 0.0205677
0.02435931 -0.021812983 0.028566947 0.002192694 0.010710321 0.004074637 0.012041752 0.02623611
-0.011776697 0.012258285 0.010701856 -0.048179824 0.017164962 -0.0034161787 -0.04671704 0.0216444
-0.0005766602 0.033975285 -0.018405234 0.028585756 0.030109275 0.024069168 0.021743048 0.03370338
-0.01028766 0.010490047 -0.017221816 -0.0069905943 0.012813861 -0.026190424 0.009294168 -0.00909413
-0.0147784725 -0.0037943537 0.023591464 0.035376936 0.018958295 0.01792883 -0.0015482736 0.007967798
0.0048148306 0.01261239 0.016017117 -0.009804045 -0.023966214 0.0097298175 0.006560944 0.020335414
-0.010851943 0.019845448 0.009541413 0.011696136 0.0121256905 0.004846306 0.0003934156 0.01259555
0.020601066 0.04362268 -0.0050346004 -0.044235263 0.014457968 -0.01874546 -0.04455772 0.0108095445
0.013379994 0.011459189 0.003138627 0.056362525 0.021614242 0.041423976 0.03646527 0.05517606
0.041740015 -0.03570263 -0.0386795 -0.05399242 -0.021800593 0.0074449657 -0.010233387 -0.026019081
-0.018480154 -0.004265479 0.0044840816 0.013286811 -0.009986965 -0.036416154 -0.00054053904 -0.0023511911
0.00013880983 0.005099931 -0.016544037 0.0026479661 0.041354418 -0.015211367 0.019332169 0.027592646
-0.016188152 -0.015182511 0.015762758 -0.008418914 -0.00235346 0.021605527 -0.007974443 -0.009785342
0.0007296759 0.011149677 -0.020006936 -0.0073807035 0.0138163185 0.03266 -0.052559864 -0.0048395107
0.026885837 0.009349268 0.026255632 0.009875837 0.00322444 0.017274937 -0.011299281 0.01933657
0.0131688425 -0.049345043 0.012197282 -0.0222635 0.018580532 -0.005399129 0.004762319 -0.017226081
0.031712502 -0.0025637567 -0.0026893215 -0.0011093883 0.03075515 0.041093715 0.011387662 0.007391789
-0.030115724 0.04550707 0.015315181 0.03507345 -0.012886577 0.03523592 0.015203738 -0.025132837
0.0054334137 0.026387215 -0.012104285 0.023319066 -0.018635493 0.058162045 -0.018109739 -0.011774872
-0.03396171 0.026740532 0.021193309 0.040687956 0.0038467976 0.054915376 0.02102108 -0.015111202
0.013875874 0.0058197887 0.0031890487 0.014026939 -0.021811645 -0.028990796 -0.026048113 -0.04015429
0.014802362 0.008215159 0.018664144 0.008197082 0.01604724 0.0073244814 0.03869156 -0.032255527
00000000: 2c59 cebc 800d 4f3c 8343 fbbc d20e 1bbd
00000010: c2ff 11bc 4c84 de3b 7a15 33bc 40e7 11bd
00000020: eeb2 f1bc 5f29 81bc 24bc 1abd ac0f 603c
00000030: 2e5f d5bc 4d99 a23c 55c7 99bc 6f00 e4bc
00000040: c1ca bab9 f572 64bc 8b0a 273c 10ae 51bc
00000050: 56a7 54bc 11c1 073d fd0b 333b e930 f1bc
00000060: 6fab 6e3b fb4d e0bc cf0f de3c ed42 d6bb
00000070: fe72 7e3b 4dc9 163d 971d a53c c251 493d
00000080: a01f df3b 16e3 b6bc 3d41 253c dbe2 103c
00000090: 2c92 41bb 7e6c dabc ad95 a4bc 98eb 05bd
000000a0: f2fa 8abc 940d 8ebb 273c 40bd 6a7d 22bd
000000b0: 9bde 01bd 456c 03bd 173b a03b 2a70 51bd
000000c0: f652 9fbc f513 0cbc 2360 fcbc dbd1 1ebd
000000d0: 0775 33bd 086f 00bd 14b6 5f3c 8a7f 973c
000000e0: 8d2a 32bc ddf6 0abd b3d2 203c ae49 9fbc
000000f0: e0e3 023b a987 953c c5cc c33c b60e aebc
00000100: 5d06 923c 635b 87bc db01 adbc 3a30 983c
00000110: 6684 30bc 91e6 8f3c 2f1b a8bc 223b 87bb
00000120: bb32 803c f707 6cbc 31d8 0b3b 895f e3bc
00000130: b7e6 ad3b e71b 82ba d56d a93c 987d a83c
00000140: 2d8d c73c 24b1 b2bc 3b05 ea3c 4db3 0f3b
00000150: 587a 2f3c 8884 853b c54a 453c 1ced d63c
00000160: 0cf3 40bc f9d6 483c d656 2f3c 3558 45bd
00000170: 899d 8c3c f8e1 5fbb 5e5a 3fbd 994f b13c
00000180: 032b 17ba ab29 0b3d 93c6 96bc ad2c ea3c
00000190: baa7 f63c b42c c53c 7a1e b23c 8e0c 0a3d
000001a0: 938d 28bc 72de 2b3c c414 8dbc 5b11 e5bb
000001b0: 3af1 513c 4d8d d6bc 9146 183c 8cff 14bc
000001c0: 6821 72bc b1aa 78bb e342 c13c 68e7 103d
000001d0: 6d4e 9b3c 7bdf 923c 71ef caba 5e8b 023c
000001e0: bac5 9d3b 33a4 4e3c 5436 833c 25a1 20bc
000001f0: cb54 c4bc d069 1f3c 30fd d63b 7496 a63c
00000200: 59cc 31bc ec92 a23c 9653 1c3c 26a1 3f3c
00000210: d5aa 463c c3cd 9e3b 5943 ce39 915d 4e3c
00000220: 91c3 a83c b2ad 323d 4af9 a4bb 0930 35bd
00000230: 1de1 6c3c 1490 99bc 2882 36bd 841a 313c
00000240: c337 5b3c 52bf 3b3c 6cb1 4d3b 64dc 663d
00000250: 5a10 b13c 30ac 293d 9b5c 153d 4b00 623d
00000260: 94f7 2a3d ec3c 12bd 656e 1ebd 2827 5dbd
00000270: 2897 b2bc e6f4 f33b f0a9 27bc f825 d5bc
00000280: b163 97bc 6ec5 8bbb 34ef 923b edb0 593c
00000290: 5ea0 23bc 1b29 15bd f6b2 0dba 7116 1abb
000002a0: 7b8d 1139 521d a73b 5c87 87bc 8089 2d3b
000002b0: 4063 293d 1939 79bc 7f5e 9e3c f909 e23c
000002c0: 049d 84bc 11c0 78bc e620 813c 7cef 09bc
000002d0: 823c 1abb 13fe b03c 3da7 02bc b352 20bc
000002e0: b947 3f3a 23ad 363c 96e5 a3bc d4d9 f1bb
000002f0: d75d 623c 7ec6 053d 0349 57bd c294 9ebb
00000300: b03f dc3c ac2d 193c 0d16 d73c 43ce 213c
00000310: 2051 533b 2b84 8d3c 9f20 39bc ba67 9e3c
00000320: 21c2 573c 071e 4abd 1cd7 473c f261 b6bc
00000330: 3336 983c 2deb b0bb 3a0d 9c3b b61d 8dbc
00000340: f8e4 013d b304 28bb 543f 30bb e568 91ba
00000350: 39f2 fb3c e251 283d 5193 3a3c d236 f23b
00000360: 40b5 f6bc 9f65 3a3d 86ec 7a3c 2ea9 0f3d
00000370: 3922 53bc 8a53 103d 1919 793c 61e3 cdbc
00000380: c70a b23b 002a d83c 0d51 46bc a007 bf3c
00000390: 76a9 98bc 533b 6e3d e05a 94bc 65eb 40bc
000003a0: 6f1b 0bbd f60e db3c 979d ad3c 6aa8 263d
000003b0: 8e1a 7c3b f2ee 603d 6634 ac3c fa94 77bc
000003c0: a257 633c edb3 be3b 5cff 503b 3fd1 653c
000003d0: 56ae b2bc 1b7e edbc da62 d5bc d378 24bd
000003e0: 9b85 723c e098 063c 8ce5 983c 0e4d 063c
000003f0: 8075 833c 3402 f03b 0b7b 1e3d 5f1e 04bd

model.9.weight f4 [63]
0.42817777 0.16582803 0.78324527 0.16567582 0.19716424 0.7574159 0.59059757 0.15154101
0.5855143 0.8010637 0.88854545 0.07218627 0.33599043 0.5632525 0.8444125 0.42010844
0.6855061 0.61165 0.41982 0.67439324 0.42109364 0.73818105 0.21225926 0.8326576
0.15601705 0.8269769 0.42084378 0.35246608 0.9100944 0.6490056 0.7501515 0.7800621
0.2241838 0.9928029 0.9082493 0.32237723 0.8608414 0.30360845 0.67117876 0.9229848
0.7503909 0.9754436 0.6568596 0.78319305 0.5606975 0.5504575 0.29263383 0.16873343
0.9342583 0.37373468 0.60729194 0.36073035 0.72382146 0.79715663 0.49880126 0.13462731
0.947439 0.41390517 0.3696849 0.84868395 0.69289 0.8998639 0.20329034
00000000: 1e3a db3e d3ce 293e c382 483f eca6 293e
00000010: 6ce5 493e 02e6 413f 6731 173f 912d 1b3e
00000020: 44e4 153f 8312 4d3f b777 633f 65d6 933d
00000030: f006 ac3e 5131 103f 6b2b 583f 7418 d73e
00000040: 547d 2f3f 1895 1c3f a6f2 d63e 09a5 2c3f
00000050: 9699 d73e 6ff9 3c3f 7e5a 593e 0c29 553f
00000060: efc2 1f3e c2b4 533f d678 d73e 6f76 b43e
00000070: f2fb 683f 3b25 263f ee09 403f 26b2 473f
00000080: 7090 653e 5528 7e3f 0783 683f a10e a53e
00000090: 1a60 5c3f 9172 9b3e 5fd2 2b3f bb48 6c3f
000000a0: 9e19 403f acb6 793f f327 283f 577f 483f
000000b0: df89 0f3f c8ea 0c3f 1ad4 953e 75c8 2c3e
000000c0: 8d2b 6f3f 275a bf3e 7c77 1b3f a6b1 b83e
000000d0: 5d4c 393f 7512 4c3f e162 ff3e bedb 093e
000000e0: 5d8b 723f 61eb d33e 5747 bd3e 5a43 593f
000000f0: 3d61 313f 7b5d 663f 582b 503e

model.9.bias f4 [63]
-0.22102174 0.07875873 0.102348566 0.030689076 0.03809469 -0.0150359655 -0.021880014 0.022994963
0.2278849 -0.20912452 -0.27815697 0.034804657 -0.024911446 -0.016096447 0.15414694 -0.022299428
-0.04656122 0.006430674 0.009855054 0.12935583 0.030020121 -0.19520135 0.059290543 0.059283923
-0.03172192 0.2544259 0.09126098 -0.046538696 0.16500396 0.0541178 -0.16252363 6.2683604e-05
0.15793927 0.109707326 -0.18503757 0.010660497 0.118186824 -0.034780134 0.14973293 0.09689192
-0.0031521032 -0.03370995 0.15927477 0.03160379 -0.10999365 0.24139723 -0.054530017 0.02734791
0.19134942 -0.027406853 0.0145588 0.053418566 -0.15598053 -0.03736681 -0.035832047 0.016581042
-0.19294834 0.050052196 0.01858245 -0.019202946 0.015276558 0.154667 0.15616405
00000000: 8653 62be 424c a13d 209c d13d a867 fb3c
00000010: 2d09 1c3d 6959 76bc b73d b3bc ef5f bc3c
00000020: a95a 693e bd24 56be 976a 8ebe 548f 0e3d
00000030: 1713 ccbc b2dc 83bc b2d8 1d3e 4aad b6bc
00000040: fab6 3ebd 67b8 d23b 1877 213c db75 043e
00000050: c2ec f53c dde2 47be a4da 723d b3d3 723d
00000060: d8ee 01bd 1d44 823e 09e7 ba3d 5c9f 3ebd
00000070: ccf6 283e a0aa 5d3d 986c 26be 0175 8338
00000080: d5ba 213e 3cae e03d 7d7a 3dbe 5da9 2e3c
00000090: ef0b f23d 9d75 0ebd 9753 193e 456f c63d
000000a0: 8493 4ebb 7213 0abd ed18 233e fa72 013d
000000b0: 5a44 e1bd d630 773e de5a 5fbd b908 e03c
000000c0: 1af1 433e 5684 e0bc 0888 6e3c 6dcd 5a3d
000000d0: 5cb9 1fbe f10d 19bd a0c4 12bd f7d4 873c
000000e0: 4094 45be 8803 4d3d 393a 983c 7f4f 9dbc
000000f0: 874a 7a3c 0761 1e3e 78e9 1f3e

model.9.running_mean f4 [63]
-0.09137736 0.062846094 0.034202203 0.002334362 -0.067672074 -0.04749504 0.051072575 -0.07865008
0.08468383 -0.10007891 -0.13004546 -0.09530648 0.0808378 0.06824049 -0.027765451 0.040119916
0.05633221 0.041764025 0.0666125 -0.06406524 0.066219464 -0.010721926 -0.049718097 -0.19556691
-0.08795848 0.0042693065 0.135233 0.047893215 -0.06093866 0.034908276 -0.062491942 -0.10094837
-0.033867076 -0.034799732 0.07973697 -0.12811185 -0.09206839 0.0740804 -0.09926744 -0.10876793
0.018598156 0.19064368 -0.09385156 0.09370712 0.093005784 0.10698653 0.037024215 -0.12960084
-0.00064690365 0.099962525 0.055401538 -0.08601074 -0.035952203 0.07483846 0.034903407 -0.14870456
-0.098700546 0.10442552 0.06890813 0.13398397 0.026044045 -0.0041387402 -0.053055603
00000000: 0e24 bbbd 74b5 803d 9c17 0c3d 18fc 183b
00000010: a897 8abd 298a 42bd 7a31 513d 4b13 a1bd
00000020: b76e ad3d 2cf6 ccbd a32a 05be 0b30 c3bd
00000030: 4a8e a53d acc1 8b3d 5f74 e3bc c854 243d
00000040: 9abc 663d c110 2b3d 226c 883d a334 83bd
00000050: 129e 873d 04ab 2fbc 34a5 4bbd b142 48be
00000060: 9323 b4bd 8ae5 8b3b 857a 0a3e ad2b 443d
00000070: d19a 79bd fbfb 0e3d 8df7 7fbd 05be cebd
00000080: 34b8 0abd 2a8a 0ebd 234d a33d c12f 03be
00000090: 5a8e bcbd 77b7 973d ba4c cbbd b8c1 debd
000000a0: 295b 983c 1938 433e 3f35 c0bd 85e9 bf3d
000000b0: d179 be3d c11b db3d b4a6 173d 15b6 04be
000000c0: f894 29ba 27b9 cc3d b9ec 623d 6626 b0bd
000000d0: 9e42 13bd e844 993d e0f6 0e3d 0246 18be
000000e0: 8323 cabd 0cdd d53d b51f 8d3d 1833 093e
000000f0: 525a d53c 459e 87bb d550 59bd
