KAIR/denoising/dncnn25/models/25000_G.pth (torch, 772933 bytes, 111 tensors)

model.0.bias f4 [64]
0.0 0.0 0.0 0.0 0.0 0.0 0.0 0.0
0.0 0.0 0.0 0.0 0.0 0.0 0.0 0.0
0.0 0.0 0.0 0.0 0.0 0.0 0.0 0.0
0.0 0.0 0.0 0.0 0.0 0.0 0.0 0.0
0.0 0.0 0.0 0.0 0.0 0.0 0.0 0.0
0.0 0.0 0.0 0.0 0.0 0.0 0.0 0.0
0.0 0.0 0.0 0.0 0.0 0.0 0.0 0.0
0.0 0.0 0.0 0.0 0.0 0.0 0.0 0.0
00000000: 0000 0000 0000 0000 0000 0000 0000 0000
00000010: 0000 0000 0000 0000 0000 0000 0000 0000
00000020: 0000 0000 0000 0000 0000 0000 0000 0000
00000030: 0000 0000 0000 0000 0000 0000 0000 0000
00000040: 0000 0000 0000 0000 0000 0000 0000 0000
00000050: 0000 0000 0000 0000 0000 0000 0000 0000
00000060: 0000 0000 0000 0000 0000 0000 0000 0000
00000070: 0000 0000 0000 0000 0000 0000 0000 0000
00000080: 0000 0000 0000 0000 0000 0000 0000 0000
00000090: 0000 0000 0000 0000 0000 0000 0000 0000
000000a0: 0000 0000 0000 0000 0000 0000 0000 0000
000000b0: 0000 0000 0000 0000 0000 0000 0000 0000
000000c0: 0000 0000 0000 0000 0000 0000 0000 0000
000000d0: 0000 0000 0000 0000 0000 0000 0000 0000
000000e0: 0000 0000 0000 0000 0000 0000 0000 0000
000000f0: 0000 0000 0000 0000 0000 0000 0000 0000

model.0.A f4 [3, 3, 3]
-0.30487308 0.5884803 0.48531634 0.19689456 0.3427657 -0.028962515 -0.08953571 -0.5223992
-0.2304727 -0.089086026 0.26968667 -0.44250548 -0.082485855 0.470646 0.329222 -0.31297803
0.09962882 0.024324657 -0.3049571 -0.22093573 -0.10856267 0.41317433 -0.15864033 0.40249792
0.3879256 0.5145468 -0.2615479
00000000: 5318 9cbe a5a6 163f 627b f83e ba9e 493e
00000010: fc7e af3e cc42 edbc 805e b7bd f4bb 05bf
00000020: 0901 6cbe bc72 b6bd 5f14 8a3e 1490 e2be
00000030: 58ee a8bd 83f8 f03e c98f a83e a83e a0be
00000040: 320a cc3d 8144 c73c 5623 9cbe fa3c 62be
00000050: 1b56 debd 968b d33e 9c72 22be 3514 ce3e
00000060: 2f9e c63e 57b9 033f 9be9 85be

model.0.F f4 [3, 21, 1, 3, 3]
-0.03658972 0.076793596 -0.11353781 0.1680393 0.17779799 0.003794556 -0.011892269 0.022682384
-0.009409755 0.16088296 0.15005855 0.028311038 0.006395741 -0.10535971 -0.06938081 0.13929233
-0.0659186 0.083547324 -0.12772141 -0.15032461 0.08255213 0.11649314 0.0060219653 -0.08250433
0.06480016 -0.081465304 -0.023565734 0.121110395 -0.1300577 0.0698854 0.013668528 0.14340328
0.0011831862 0.011375915 -0.0072431066 0.112027615 -0.07081725 -0.07258109 -0.06400769 -0.27518842
-0.19953807 0.0153004825 0.003137172 -0.19056083 -0.026030522 -0.07767756 0.13083515 0.018938964
0.114035055 0.15692766 0.058385737 0.10672245 0.13937704 0.13352305 0.015135584 0.003599039
0.08024791 -0.11695198 0.082925156 0.0005244082 0.011576612 -0.079982445 -0.031432223 -0.07350662
-0.017792227 -0.12082644 -0.1518015 -0.06953408 0.02401178 -0.09594298 0.13270403 0.07948512
0.06854098 0.030444354 0.15001222 -0.034342047 -0.063469425 -0.03354026 -0.13083346 -0.10607857
-0.093362466 -0.116314255 -0.051308624 -0.11070401 0.07187214 0.025836552 -0.023248766 -0.14806561
0.0759884 -0.15329392 -0.032548144 0.19286655 0.09621216 0.15456472 0.16557914 0.09101263
0.029622525 0.038488407 -0.007899563 0.05195747 -0.0131927915 0.0127470475 -0.032683842 0.02944687
0.011929471 0.10532904 -0.07213747 0.0057564955 -0.030633904 -0.16828845 -0.12573731 -0.04598847
-0.058337834 0.052657813 -0.06919308 -0.0137336645 0.019953305 -0.08429739 -0.174013 0.011053136
-0.11897989 -0.21856375 -0.10846697 0.10399152 -0.16436505 -0.025267094 0.030618325 -0.024095919
0.076646656 -0.015823351 0.018463647 -0.13512589 -0.11700128 0.09188219 -0.12368688 0.08081016
-0.009169744 0.12873581 -0.113250494 0.17520037 0.13707374 -0.0015857001 0.08704085 0.10247609
0.034881398 -0.12702326 0.101852305 0.14570016 0.030713687 0.11245574 -0.013112961 -0.007452973
0.11960138 0.15751609 0.07551128 -0.02066387 0.22428122 0.088371955 -0.03197867 -0.05684902
0.09301668 0.090785876 0.051863994 -0.120444536 0.019051855 0.16203308 -0.058832865 0.12163489
0.0986241 0.08823621 -0.06362399 0.082549356 0.10268048 0.064835876 0.073065616 0.10101432
0.0042640995 -0.0830289 0.13107437 0.08255259 -0.13225007 0.016868662 -0.12537462 -0.10365238
-0.12308285 -0.08388993 -0.12926166 -0.199036 -0.118567355 -0.13796942 -0.06663723 0.02163542
-0.0947391 0.045299444 0.089934066 -0.14580725 -0.037184283 -0.09324423 -0.18076803 -0.022079397
-0.029974867 0.0656551 -0.0038961687 -0.041759893 -0.09111283 -0.07550831 -0.008120144 0.13356188
0.0068166726 0.099524684 0.016572805 0.1280442 0.043794792 -0.06546359 0.09828115 0.091192245
-0.061133925 -0.21128638 -0.10021128 -0.11046188 -0.24943462 -0.08266348 0.029504748 0.04041329
0.1023596 0.10852759 -0.05967512 -0.06662002 -0.0034752297 0.16446316 -0.053134814 -0.005832413
0.09088982 -0.046508174 0.062431112 0.068294674 0.10528916 0.0824272 -0.03974336 0.11497743
-0.031202236 -0.0035667676 -0.061836563 0.13120292 -0.076804765 0.052051153 0.021672238 0.21823482
0.111088306 0.03166176 0.061659917 -0.06321529 0.102789626 0.08208191 0.14673896 0.19202328
00000000: 1adf 15bd f645 9d3d 8386 e8bd 7f12 2c3e
00000010: ad10 363e 16ae 783b cbd7 42bc 68d0 b93c
00000020: 5f2b 1abc 81be 243e f3a8 193e 8dec e73c
00000030: 5d93 d13b d5c6 d7bd 8717 8ebd a6a2 0e3e
00000040: 5500 87bd dc1a ab3d 67c9 02be b2ee 19be
00000050: 1711 a93d f593 ee3d e853 c53b 08f8 a8bd
00000060: f2b5 843d 48d7 a6bd ed0c c1bc ba08 f83d
00000070: d92d 05be 1420 8f3d f6f1 5f3c 4fd8 123e
00000080: 2415 9b3a 0c62 3a3c 9557 edbb bc6e e53d
00000090: a208 91bd 65a5 94bd 7716 83bd 7fe5 8cbe
000000a0: b553 4cbe e0ae 7a3c 0399 4d3b 6122 43be
000000b0: f63d d5bc 6a15 9fbd a6f9 053e e325 9b3c
000000c0: 368b e93d a5b1 203e e225 6f3d 4d91 da3d
000000d0: dbb8 0e3e 44ba 083e 3efb 773c dbdd 6b3b
000000e0: 0459 a43d 8584 efbd aad4 a93d 7078 093a
000000f0: d4ab 3d3c d6cd a3bd 13bf 00bd a48a 96bd
00000100: 01c1 91bc da73 f7bd da71 1bbe e267 8ebd
00000110: 5ab4 c43c c17d c4bd 91e3 073e 18c9 a23d
00000120: 375f 8c3d 7066 f93c ce9c 193e 3faa 0cbd
00000130: 42fc 81bd 8361 09bd 35f9 05be b93f d9bd
00000140: d234 bfbd 2b36 eebd fe28 52bd c9b8 e2bd
00000150: b331 933d 2da7 d33c 3274 bebc 839e 17be
00000160: ce9f 9b3d 15f9 1cbe 3451 05bd cf7e 453e
00000170: e20a c53d 3746 1e3e 948d 293e d464 ba3d
00000180: f0aa f23c 05a6 1d3d 2b6d 01bc 5bd1 543d
00000190: 9426 58bc fed8 503c 7edf 05bd 903a f13c
000001a0: d473 433c c0b6 d73d cfbc 93bd fca0 bc3b
000001b0: f4f3 fabc cf53 2cbe 48c1 00be 685e 3cbd
000001c0: a7f3 6ebd b8af 573d 1ab5 8dbd 2a03 61bc
000001d0: 1d75 a33c 1ca4 acbd 7730 32be 3618 353c
000001e0: bbab f3bd 2dcf 5fbe ee23 debd 82f9 d43d
000001f0: 504f 28be f0fc cebc 48d3 fa3c ce64 c5bc
00000200: ecf8 9c3d f99f 81bc 1341 973c 715e 0abe
00000210: 5e9e efbd bb2c bc3d 8c4f fdbd cc7f a53d
00000220: b23c 16bc 52d3 033e e0ef e7bd ba67 333e
00000230: 0f5d 0c3e 44d7 cfba 7942 b23d fcde d13d
00000240: ccdf 0e3d 6312 02be f197 d03d 6c32 153e
00000250: 459b fb3c 324f e63d bfd7 56bc 1238 f4bb
00000260: 91f1 f43d e64b 213e a8a5 9a3d 4747 a9bc
00000270: faa9 653e 5bfc b43d 11fc 02bd 85da 68bd
00000280: 877f be3d f2ed b93d 576f 543d a0ab f6bd
00000290: a312 9c3c 00ec 253e bbfa 70bd b71b f93d
000002a0: 6ffb c93d 30b5 b43d 4b4d 82bd a30f a93d
000002b0: 254a d23d acc8 843d 6da3 953d 99e0 ce3d
000002c0: dcb9 8b3b 0e0b aabd 5c38 063e 5511 a93d
000002d0: 906c 07be 2630 8a3c 3462 00be b347 d4bd
000002e0: dc12 fcbd 7cce abbd 2b5d 04be 18d0 4bbe
000002f0: 71d3 f2bd db47 0dbe 1a79 88bd c43c b13c
00000300: 9306 c2bd e98b 393d 5a2f b83d 7f4e 15be
00000310: 8c4e 18bd d5f6 bebd 411b 39be dadf b4bc
00000320: da8d f5bc 2e76 863d dd56 7fbb 6c0c 2bbd
00000330: 5d99 babd 1aa4 9abd 5a0a 05bc 72c4 083e
00000340: 655e df3b 99d3 cb3d b1c3 873c 051e 033e
00000350: 2b62 333d c611 86bd a147 c93d 00c3 ba3d
00000360: 9167 7abd 755b 58be 923b cdbd d739 e2bd
00000370: ca6b 7fbe 784b a9bd f1b3 f13c 6888 253d
00000380: e9a1 d13d b743 de3d e66d 74bd 1470 88bd
00000390: aec0 63bb 0869 283e e4a3 59bd d41d bfbb
000003a0: 7124 ba3d 5b7f 3ebd c4b7 7f3d 14de 8b3d
000003b0: d8a1 d73d 98cf a83d efc9 22bd 4979 eb3d
000003c0: d59b ffbc 6ec0 69bb 5648 7dbd 0f5a 063e
000003d0: d14b 9dbd 9733 553d fa89 b13c f378 5f3e
000003e0: 4482 e33d c3af 013d 1c8f 7c3d 0577 81bd
000003f0: 5e83 d23d 8f1a a83d bd42 163e c0a1 443e

model.2.bias f4 [64]
0.0 0.0 0.0 0.0 0.0 0.0 0.0 0.0
0.0 0.0 0.0 0.0 0.0 0.0 0.0 0.0
0.0 0.0 0.0 0.0 0.0 0.0 0.0 0.0
0.0 0.0 0.0 0.0 0.0 0.0 0.0 0.0
0.0 0.0 0.0 0.0 0.0 0.0 0.0 0.0
0.0 0.0 0.0 0.0 0.0 0.0 0.0 0.0
0.0 0.0 0.0 0.0 0.0 0.0 0.0 0.0
0.0 0.0 0.0 0.0 0.0 0.0 0.0 0.0
00000000: 0000 0000 0000 0000 0000 0000 0000 0000
00000010: 0000 0000 0000 0000 0000 0000 0000 0000
00000020: 0000 0000 0000 0000 0000 0000 0000 0000
00000030: 0000 0000 0000 0000 0000 0000 0000 0000
00000040: 0000 0000 0000 0000 0000 0000 0000 0000
00000050: 0000 0000 0000 0000 0000 0000 0000 0000
00000060: 0000 0000 0000 0000 0000 0000 0000 0000
00000070: 0000 0000 0000 0000 0000 0000 0000 0000
00000080: 0000 0000 0000 0000 0000 0000 0000 0000
00000090: 0000 0000 0000 0000 0000 0000 0000 0000
000000a0: 0000 0000 0000 0000 0000 0000 0000 0000
000000b0: 0000 0000 0000 0000 0000 0000 0000 0000
000000c0: 0000 0000 0000 0000 0000 0000 0000 0000
000000d0: 0000 0000 0000 0000 0000 0000 0000 0000
000000e0: 0000 0000 0000 0000 0000 0000 0000 0000
000000f0: 0000 0000 0000 0000 0000 0000 0000 0000

model.2.A f4 [3, 3, 3]
-0.45985562 0.5514961 0.16152136 0.40476942 -0.26703167 -0.24165379 0.3210872 -0.45416445
0.30746028 -0.29831764 -0.42616853 0.06836927 0.120744154 -0.38670668 0.22770315 -0.28235728
-0.32885355 -0.023129499 0.2665537 0.47574458 -0.4738818 -0.10788904 -0.12810501 -0.26363146
-0.28344718 -0.44984135 0.081738286
00000000: 3272 ebbe d92e 0d3f db65 253e f03d cf3e
00000010: 60b8 88be 1774 77be 8b65 a43e 3e88 e8be
00000020: 6f6b 9d3e 17bd 98be c332 dabe 3005 8c3d
00000030: b648 f73d 6bfe c5be 042b 693e 2291 90be
00000040: 7e5f a8be 137a bdbc ba79 883e cb94 f33e
00000050: a3a0 f2be eef4 dcbd f62d 03be b4fa 86be
00000060: fd1f 91be 9b51 e6be 6766 a73d

model.2.F f4 [3, 21, 21, 3, 3]
0.020792916 -0.02089767 -0.02096587 -0.016248653 -0.021611406 0.004678921 -0.016922371 0.028164718
-0.004967583 0.013924814 -0.022559736 0.0054370007 -0.0071065845 -0.01167718 0.0106430175 -0.03582344
-0.015830778 0.017451055 -0.015713131 -0.028814944 0.0273526 -0.013374349 -0.026606483 0.008076423
0.023589384 0.025002306 0.0036719015 0.02683654 -0.008185015 0.01776921 0.03026986 -0.02737965
-0.0059628063 0.018466271 -0.0041553196 0.0028191213 0.024124525 -0.0017074873 0.010053523 0.010622771
0.0017528717 0.043227732 0.00014580777 0.00071714626 0.0033602966 -0.014088763 -0.053067125 -0.01674824
0.002221304 -0.00071326236 -0.016770545 -0.004885575 0.0047241068 0.0303159 0.018478425 -0.02309317
-0.008857611 0.0077125216 0.015450592 -0.02213329 0.035137672 0.03921216 0.042108104 0.028705718
-0.027645525 -0.022280876 0.04175361 0.024757648 0.028341673 0.029641718 0.016128127 0.008180179
0.009775558 -0.03944053 -0.0129839955 -0.027285112 0.0008002166 -0.014108766 0.008764695 0.00989491
-0.0059709554 -0.031524412 0.04327651 -0.03688587 -0.019542545 0.009578745 -0.04464298 0.021052161
0.022986481 -0.005707727 -0.007369003 -0.03634714 -0.012923133 -0.014260685 -0.06279237 0.004892053
5.285216e-05 -0.010410262 0.026703842 -0.027309356 0.014175783 -0.006242191 -0.022227341 -0.05728633
-0.051957417 0.011586345 -0.0033853345 -0.011594619 -0.003956081 -0.011905754 -0.04507019 -0.014504637
-0.00354632 0.014775194 -0.007949222 -0.008369924 -0.035327516 -0.0042920248 -0.024169719 -0.015510345
-0.048433356 0.030894732 0.03565448 0.00880121 0.016409637 0.041289 -0.005373452 -0.0035924122
-0.009488619 -0.008375853 0.059951823 0.0010792124 0.007056704 -0.020780707 -0.008318508 -0.020148348
0.013355797 0.0029974596 -0.05012155 -0.031103635 -0.047404893 -0.010581633 -0.02371411 0.0067011956
0.008894439 0.014380065 -0.0132955145 -0.037272885 0.012853436 -0.008869569 -0.019789025 0.0266136
0.03386168 -0.04552588 -0.005304645 0.031797815 0.030412292 0.07796866 0.0031315826 0.013542203
0.010071192 -0.020512769 -0.0010601752 0.02821814 0.013204953 -0.008909215 -0.006660119 -0.037904993
0.025945265 0.04261575 0.012743912 -0.029251445 -0.021418793 -0.04804022 -0.03480864 0.034080558
-0.00859592 -0.033432957 -0.005690756 -0.0059298165 -0.016588574 -0.05579591 -0.02760868 0.026749555
0.012649352 0.013033342 -0.0306188 0.06129252 0.008969854 0.008433831 0.028473668 0.0030870647
0.05324087 0.009118118 0.016033702 0.013566885 0.0079388125 -0.003746256 0.016944177 0.020613981
-0.012808171 -0.024484634 -0.0043485225 0.06794987 0.007105804 -0.027223166 -0.027474977 0.0016295656
0.02512498 0.0012729459 0.01936034 -0.03621099 -0.0038237895 -0.02137374 -0.034954995 -0.026500328
0.023828115 0.0043453868 0.00045215458 0.038415458 -0.0076333224 -0.012574442 0.041146237 -0.014082435
-0.015476482 -0.018233543 0.04310224 0.005348916 -0.025581094 0.06138837 0.040074278 -0.0024444202
-0.0095988 0.008778089 -0.004412929 -0.00043397653 0.020810004 0.015717324 -0.0045921914 -0.008012984
-0.010799475 0.012645765 -0.007796549 -0.01773558 -0.04078801 -0.009349676 0.038511995 0.0043444377
-0.005743501 0.0040987786 -0.003741861 0.01036612 0.004873649 -0.008970172 -0.029577442 -0.018036433
00000000: e855 aa3c 9731 abbc 9ec0 abbc e51b 85bc
00000010: 670a b1bc a251 993b c9a0 8abc b2b9 e63c
00000020: 1bc7 a2bb e724 643c 32cf b8bc de28 b23b
00000030: 5ade e8bb a551 3fbc 0d60 2e3c 99bb 12bd
00000040: 8caf 81bc 84f5 8e3c d3b8 80bc 510d ecbc
00000050: 8f12 e03c 1620 5bbc d7f5 d9bc f952 043c
00000060: 863e c13c a3d1 cc3c 49a4 703b 4ed8 db3c
00000070: 711a 06bc bc90 913c 7ff8 f73c 4a4b e0bc
00000080: a563 c3bb 9446 973c 5929 88bb 02c1 383b
00000090: cca0 c53c c4cd dfba 88b7 243c 220b 2e3c
000000a0: 9dc0 e53a 900f 313d fae3 1839 dffe 3b3a
000000b0: 6c38 5c3b 8ed4 66bc ea5c 59bd 9b33 89bc
000000c0: 4c93 113b 3afa 3aba 6262 89bc 2c17 a0bb
000000d0: aecc 9a3b 0d59 f83c 1160 973c e32d bdbc
000000e0: 831f 11bc 52b9 fc3b 7b24 7d3c e050 b5bc
000000f0: 85ec 0f3d ee9c 203d 8c79 2c3d 4128 eb3c
00000100: de78 e2bc 6286 b6bc d505 2b3d 8dd0 ca3c
00000110: cc2c e83c 30d3 f23c 221f 843c 2806 063c
00000120: a929 203c 658c 21bd d3ba 54bc 0785 dfbc
00000130: a1c5 513a 7428 67bc cc99 0f3c 431e 223c
00000140: 01a8 c3bb be1f 01bd b642 313d a315 17bd
00000150: b017 a0bc 2bf0 1c3c 8fdb 36bd 9575 ac3c
00000160: 254e bc3c e207 bbbb ad77 f1bb bde0 14bd
00000170: 8cbb 53bc a6a5 69bc 4999 80bd 844d a03b
00000180: 93ad 5d38 ce8f 2abc 04c2 da3c dfb7 dfbc
00000190: 8b41 683c 4b8b ccbb 1d16 b6bc 12a5 6abd
000001a0: 4dd1 54bd a7d4 3d3c 7ddc 5dbb 5bf7 3dbc
000001b0: 03a2 81bb 5a10 43bc 859b 38bd dba4 6dbc
000001c0: 6069 68bb a813 723c 743d 02bc 0122 09bc
000001d0: 96b3 10bd 1da4 8cbb 93ff c5bc 1a1f 7ebc
000001e0: 0e62 46bd f316 fd3c 6f0a 123d f332 103c
000001f0: 816d 863c a81e 293d c813 b0bb ad6e 6bbb
00000200: 2776 1bbc e03a 09bc 0b90 753d 5c74 8d3a
00000210: ec3b e73b 4d3c aabc 5a4a 08bc 260e a5bc
00000220: 46d2 5a3c 0771 443b 414c 4dbd 0dcd febc
00000230: a22b 42bd 965e 2dbc 1844 c2bc b495 db3b
00000240: fbb9 113c 5d9a 6b3c 6ed5 59bc 74ab 18bd
00000250: 3897 523c ab51 11bc 981c a2bc c404 da3c
00000260: 8cb2 0a3d 5879 3abd 96d2 adbb 6d3e 023d
00000270: 3323 f93c 08ae 9f3d 3d3b 4d3b 1ee0 5d3c
00000280: a401 253c 650a a8bc 94f5 8aba bb29 e73c
00000290: 9659 583c f5f7 11bc 213d dabb 4442 1bbd
000002a0: 2a8b d43c da8d 2e3d d7cb 503c baa0 efbc
000002b0: 7776 afbc d2c5 44bd 8193 0ebd 0e98 0b3d
000002c0: e7d5 0cbc fff0 08bd 8579 babb e84e c2bb
000002d0: c3e4 87bc 418a 64bd 992b e2bc e221 db3c
000002e0: 3a3f 4f3c cc89 553c 47d4 fabc de0d 7b3d
000002f0: 4bf6 123c 0d2e 0a3c 9c41 e93c 5a50 4a3b
00000300: 1913 5a3d 2964 153c 1c59 833c a447 5e3c
00000310: cb11 023c bf83 75bb 84ce 8a3c a7de a83c
00000320: 5dd9 51bc 0094 c8bc 0d7e 8ebb 4d29 8b3d
00000330: ced7 e83b 1e03 dfbc 3413 e1bc 2697 d53a
00000340: e7d2 cd3c fad8 a63a 9399 9e3c fa51 14bd
00000350: 8b98 7abb fb17 afbc f82c 0fbd 3717 d9bc
00000360: 2e33 c33c bf63 8e3b 290f ed39 8759 1d3d
00000370: f320 fabb 0805 4ebc f588 283d 03ba 66bc
00000380: 1291 7dbc 835e 95bc f98b 303d f645 af3b
00000390: 718f d1bc 5f72 7b3d ed24 243d 9132 20bb
000003a0: 4944 1dbc f9d1 0f3c 559a 90bb 5887 e3b9
000003b0: be79 aa3c 9ec1 803c 187a 96bb e448 03bc
000003c0: 48f0 30bc 2f30 4f3c 317a ffbb 354a 91bc
000003d0: 5411 27bd 622f 19bc c1be 1d3d c95b 8e3b
000003e0: fa33 bcbb 0c4f 863b 033a 75bb a9d6 293c
000003f0: 22b3 9f3b a1f7 12bc 644c f2bc 24c1 93bc

model.3.weight f4 [63]
0.41153637 0.77184033 0.40989247 0.3127208 0.063007355 0.85740685 0.07052747 0.7963225
0.1516463 0.26621723 0.6075325 0.20697507 0.8271528 0.95281106 0.78396875 0.4067074
0.66388583 0.106157005 0.45627648 0.16498643 0.20968534 0.64121 0.71199775 0.879998
0.8306005 0.61419564 0.3111566 0.35547647 0.40767244 0.16029498 0.2917523 0.13626593
0.73825485 0.54571915 0.5894765 0.21683656 0.82889575 0.23845302 0.28146046 0.7411127
0.6852204 0.65524095 0.21749449 0.6315569 0.38169095 0.39910254 0.9492888 0.361824
0.18726642 0.88454795 0.19116573 0.22522888 0.29439363 0.91222775 0.94602096 0.8347081
0.13659403 0.3762755 0.35392284 0.7951662 0.29592934 0.40233552 0.88977635
00000000: e5b4 d23e 5497 453f 6ddd d13e f11c a03e
00000010: 000a 813d 047f 5b3f b570 903d cbdb 4b3f
00000020: 2b49 1b3e a04d 883e 4087 1b3f 46f1 533e
00000030: 49c0 533f 6deb 733f 2db2 483f f43b d03e
00000040: 6cf4 293f d868 d93d 129d e93e 34f2 283e
00000050: c1b7 563e 5726 243f 7c45 363f 8d47 613f
00000060: 3ca2 543f ed3b 1d3f eb4f 9f3e 0301 b63e
00000070: 71ba d03e 5e24 243e 8f60 953e 4c89 0b3e
00000080: 45fe 3c3f 40b4 0b3f efe7 163f 670a 5e3e
00000090: 8332 543f 072d 743e 961b 903e 90b9 3d3f
000000a0: 9b6a 2f3f dfbd 273f e0b6 5e3e b7ad 213f
000000b0: ff6c c33e 2b57 cc3e 9704 733f ff40 b93e
000000c0: c5c2 3f3e bc71 623f f3c0 433e 66a2 663e
000000d0: c3ba 963e c287 693f 6e2e 723f 6eaf 553f
000000e0: 4edf 0b3e 2fa7 c03e 6035 b53e 0390 4b3f
000000f0: 0d84 973e ecfe cd3e 62c8 633f

model.3.bias f4 [63]
0.07551749 0.19207159 0.13233201 0.059638843 0.010664616 0.10385427 -0.10419534 -0.03475481
0.37281552 0.17842999 0.41680264 0.068574086 0.110105574 -0.053497747 -0.07058471 0.0013726375
-0.067113176 0.20030417 -0.015805881 -0.015336609 0.1526243 0.05562382 -0.042270686 0.11504417
0.1414463 0.155775 0.19734856 0.16416001 0.13105866 0.029878167 0.03583499 -0.06700336
-0.15668546 -0.053952847 -0.021875793 0.124959245 0.14499836 0.028171629 -0.017419223 0.23223545
-0.04458106 -0.08240787 0.11876532 -0.07552861 0.20414414 0.04308296 0.11887197 0.15117216
0.32898724 0.14901711 0.34233218 0.28419292 -0.04476723 -0.084371164 -0.169822 -0.0326632
0.13841744 0.021073079 -0.032690663 -0.09974944 0.060442433 0.039864857 -0.09931488
00000000: eaa8 9a3d 6aae 443e 0b82 073e dc47 743d
00000010: a4ba 2e3c 8cb1 d43d 5e64 d5bd 0f5b 0ebd
00000020: ade1 be3e 5ab6 363e 2867 d53e 9270 8c3d
00000030: 087f e13d 7420 5bbd b78e 90bd 12ea b33a
00000040: a272 89bd 891c 4d3e 567b 81bc 6746 7bbc
00000050: 8b49 1c3e cdd5 633d 0724 2dbd 479c eb3d
00000060: 4dd7 103e 7b83 1f3e be15 4a3e 9019 283e
00000070: 3e34 063e 0fc3 f43c b6c7 123d 0f39 89bd
00000080: 2772 20be a9fd 5cbd dd34 b3bc a2ea ff3d
00000090: 737a 143e 30c8 e63c c2b2 8ebc 21cf 6d3e
000000a0: a19a 36bd 75c5 a8bd 3b3b f33d beae 9abd
000000b0: 290b 513e c277 303d 2673 f33d e0cc 1a3e
000000c0: 0471 a83e f197 183e 2a46 af3e bc81 913e
000000d0: d85d 37bd caca acbd d2e5 2dbe d9c9 05bd
000000e0: 4dbd 0d3e 73a1 ac3c a5e6 05bd 6f49 ccbd
000000f0: 7c92 773d 5549 233d 9a65 cbbd

model.3.running_mean f4 [63]
0.010333967 -0.11886814 -0.08874352 0.036587305 0.04719909 -0.07261158 0.059189014 0.105120584
0.014321965 0.008911844 -0.097358316 -0.119539276 -0.10011098 0.1439254 0.14342424 0.0769344
0.07287848 -0.13831092 0.12572451 0.047013663 -0.02671166 -0.06978775 0.08936878 -0.09251246
-0.03491987 -0.04006644 -0.034274727 -0.066664696 -0.04302035 -0.061143123 -0.056589246 0.07460584
0.060189374 0.12427337 0.13831165 -0.042456638 -0.05907467 -0.018323764 0.16502656 -0.052606944
0.045111317 0.07963735 -0.0597762 0.109847315 -0.06642235 -0.11357955 -0.10814927 -0.1251468
-0.07629906 -0.11450876 -0.077139996 -0.025686543 0.10950747 0.13410814 0.19714664 0.10235685
-0.018592613 0.03477143 0.10235439 0.18315208 -0.0326565 0.034325976 0.10038838
00000000: cd4f 293c 2471 f3bd 2abf b5bd 92dc 153d
00000010: d553 413d 61b5 94bd 2e70 723d 7649 d73d
00000020: ada6 6a3c fc02 123c cc63 c7bd 02d1 f4bd
00000030: fc06 cdbd 2e61 133e cedd 123e c88f 9d3d
00000040: 5041 953d 61a1 0dbe edbd 003e 6691 403d
00000050: 69d2 dabc e1ec 8ebd fb06 b73d 2c77 bdbd
00000060: 2308 0fbd b51c 24bd a863 0cbd 8087 88bd
00000070: 1b36 30bd 3671 7abd 20ca 67bd f2ca 983d
00000080: 2289 763d 0983 fe3d 92a1 0d3e 03e7 2dbd
00000090: 48f8 71bd b81b 96bc b9fc 283e 617a 57bd
000000a0: a5c6 383d e818 a33d e4d7 74bd a1f7 e03d
000000b0: 7108 88bd 659c e8bd 5d7d ddbd 7c26 00be
000000c0: ae42 9cbd 9283 eabd 93fb 9dbd 966c d2bc
000000d0: 7445 e03d a553 093e cfe0 493e 78a0 d13d
000000e0: 894f 98bc 7d6c 0e3d 2e9f d13d 388c 3b3e
000000f0: d2c2 05bd 6599 0c3d 6c98 cd3d

model.3.running_var f4 [63]
0.0024679683 0.0045039025 0.0030741105 0.0011824643 0.0009102828 0.0016711305 0.0013868657 0.0035015491
0.0002186925 0.00036641298 0.0030446982 0.004624732 0.003295552 0.0064459085 0.006299471 0.0023047891
0.001638795 0.0064371745 0.005066176 0.0013420352 0.0008663667 0.001472751 0.0023552787 0.0027039135
0.00047003344 0.0005008041 0.00045320744 0.0015691551 0.0006085178 0.0012633586 0.001233197 0.0018236599
0.0011194195 0.0047501517 0.0060104015 0.0006575348 0.001143377 0.00021255802 0.008481224 0.0009622084
0.0007046742 0.0020222608 0.0011209017 0.0036939322 0.0014180121 0.003925638 0.0035617256 0.0047170008
0.0019013211 0.0041525965 0.0019760192 0.00025992034 0.0038999177 0.0054831346 0.012080701 0.0033956647
0.00017809513 0.0004229385 0.0033729249 0.010100273 0.0003930671 0.00040931845 0.0030920599
00000000: a3bd 213b 7995 933b 0477 493b ebfc 9a3a
00000010: 0ba0 6e3a d609 db3a 7ec7 b53a 3f7a 653b
00000020: d250 6539 1e1b c039 8f89 473b 108b 973b
00000030: 30fa 573b 3338 d33b cb6b ce3b f20b 173b
00000040: d6cc d63a efee d23b 2a02 a63b 3be7 af3a
00000050: e31c 633a 5309 c13a 055b 1a3b 2434 313b
00000060: d26e f639 6548 033a 799c ed39 1cac cd3a
00000070: f084 1f3a 4897 a53a 3aa3 a13a df07 ef3a
00000080: 7cb9 923a 29a7 9b3b e7f2 c43b 6a5e 2c3a
00000090: 5edd 953a 1ce2 5e39 d5f4 0a3c b63c 7c3a
000000a0: e3b9 383a e887 043b 38eb 923a e615 723b
000000b0: 97dc b93a a3a2 803b d76b 693b 1291 9a3b
000000c0: c035 f93a 8112 883b 1a80 013b eb45 8839
000000d0: c395 7f3b deab b33b 22ee 453c cd89 5e3b
000000e0: 0cbf 3a39 d8bd dd39 4a0c 5d3b 9e7b 253c
000000f0: 9314 ce39 cb99 d639 28a4 4a3b

model.5.bias f4 [64]
0.0 0.0 0.0 0.0 0.0 0.0 0.0 0.0
0.0 0.0 0.0 0.0 0.0 0.0 0.0 0.0
0.0 0.0 0.0 0.0 0.0 0.0 0.0 0.0
0.0 0.0 0.0 0.0 0.0 0.0 0.0 0.0
0.0 0.0 0.0 0.0 0.0 0.0 0.0 0.0
0.0 0.0 0.0 0.0 0.0 0.0 0.0 0.0
0.0 0.0 0.0 0.0 0.0 0.0 0.0 0.0
0.0 0.0 0.0 0.0 0.0 0.0 0.0 0.0
00000000: 0000 0000 0000 0000 0000 0000 0000 0000
00000010: 0000 0000 0000 0000 0000 0000 0000 0000
00000020: 0000 0000 0000 0000 0000 0000 0000 0000
00000030: 0000 0000 0000 0000 0000 0000 0000 0000
00000040: 0000 0000 0000 0000 0000 0000 0000 0000
00000050: 0000 0000 0000 0000 0000 0000 0000 0000
00000060: 0000 0000 0000 0000 0000 0000 0000 0000
00000070: 0000 0000 0000 0000 0000 0000 0000 0000
00000080: 0000 0000 0000 0000 0000 0000 0000 0000
00000090: 0000 0000 0000 0000 0000 0000 0000 0000
000000a0: 0000 0000 0000 0000 0000 0000 0000 0000
000000b0: 0000 0000 0000 0000 0000 0000 0000 0000
000000c0: 0000 0000 0000 0000 0000 0000 0000 0000
000000d0: 0000 0000 0000 0000 0000 0000 0000 0000
000000e0: 0000 0000 0000 0000 0000 0000 0000 0000
000000f0: 0000 0000 0000 0000 0000 0000 0000 0000

model.5.A f4 [3, 3, 3]
-0.21225148 -0.0981752 -0.44325465 0.51462644 0.025058867 -0.5215315 -0.5005697 -0.0884303
-0.52807015 -0.16742973 -0.16891485 0.5140994 -0.46397445 -0.4841737 0.09364329 0.003780378
-0.4126253 -0.4600203 -0.4969332 0.14762191 -0.32217786 0.4454937 0.084096394 0.5013837
-0.049434982 0.51877034 0.039696265
00000000: 7458 59be 1410 c9bd 46f2 e2be 8fbe 033f
00000010: 4148 cd3c 1783 05bf 5625 00bf f21a b5bd
00000020: 9b2f 07bf b372 2bbe 04f8 2cbe 059c 033f
00000030: 0f8e edbe 9de5 f7be 0ec8 bf3d 38c0 773b
00000040: a043 d3be c887 ebbe 076e febe 332a 173e
00000050: 7ff4 a4be c017 e43e bb3a ac3d af5a 003f
00000060: 567c 4abd 22ce 043f 8d98 223d

model.5.F f4 [3, 21, 21, 3, 3]
-0.02299598 -0.0014248223 0.016812364 -0.008077824 0.0013589368 -0.011002258 -0.011481825 -0.0010742731
-0.02790579 -0.0051701115 0.030657832 0.035103228 0.029892085 -0.044200905 0.04050011 -0.024273718
0.016671821 0.021725249 0.031592272 0.01853904 0.0016383989 0.007811504 0.043592427 0.027516043
-0.021499552 0.026540948 0.0012124032 0.02676774 -0.021452595 -0.004126863 0.019815195 0.014983062
0.022558024 0.014464768 -8.1991515e-05 0.04126047 0.0071943905 0.0075337933 0.02472573 -0.016786464
0.042555768 -0.0019846933 0.016937714 -0.013533213 0.004419945 -0.019313868 0.027699718 0.010443288
-0.03372227 -0.014589989 0.019237287 -1.9913477e-05 -0.0009430216 0.019004025 0.016041456 0.011553353
0.034290493 0.0453596 -0.049103398 0.011371167 -0.027821554 0.044484515 -0.0038866233 0.012139637
-0.0091498215 0.049073044 0.011163226 0.019368352 0.050968967 -0.0108111035 -0.0024711178 -0.019614557
-0.02440936 0.0057735895 0.039105333 -0.037678733 -0.0025476587 -0.0127126835 -0.009091642 0.0893387
-0.01407727 -0.00044860595 0.042913444 -0.022751769 -0.057592705 0.040084336 -0.00023532889 0.010129406
-0.00019274358 -0.009036258 -0.0059004496 0.0018259245 0.0005767759 -0.032087937 -0.005022715 0.0339415
0.016698468 -0.00354127 0.0062392005 -0.001833437 -0.03050299 -0.04185852 0.0026530337 0.024225833
0.014047313 0.007210473 -0.037816096 -0.024833646 -0.01193517 -0.034301613 -0.011337494 0.022038903
-0.02781657 0.012784179 0.014705511 -0.0064805243 0.020915607 -0.025253944 0.0006841389 -0.014464677
0.001058154 -0.0218405 -0.011486628 -0.03932926 0.005202885 0.0072695725 -0.026047146 -0.01204109
-0.030521326 -0.073774874 -0.020983003 -0.05291181 -0.056000754 -0.046951305 -0.02777562 0.020644762
-0.0065965815 0.040492103 0.011730927 0.03822835 0.028724926 0.012049728 0.00073157187 0.0059778444
-0.00806891 -0.011584033 0.019888232 0.029040562 0.004829009 0.018110404 0.009664766 0.020513127
-0.017936435 -0.0046040886 -0.0050078453 0.008029825 -0.027108215 0.04062799 0.006271797 -0.029368674
0.01592062 -0.019873712 -0.017654162 -0.020614987 -0.027393237 -0.05894782 -0.059115034 -0.04918174
-0.005428218 0.0007866436 -0.0028572835 -0.0028988025 0.01794956 0.0010522672 -0.026276866 0.05289202
-0.0025190315 0.007845721 0.0024409555 -0.0008462271 0.010242513 -0.018139862 -0.008370951 0.018535834
-0.0409874 -0.017003337 0.0072650644 0.002091418 0.033051107 0.01330467 0.024516234 -0.0021419248
-0.007868222 0.022187853 0.007663328 0.020773318 -0.018434793 -0.028222287 0.015338416 0.0077889133
-0.004449614 -0.027451817 -0.021980787 0.0004216487 0.001309947 0.030533552 -0.010828943 -0.005694201
0.02506124 0.025210757 0.024107149 -0.036685582 0.0004289836 0.041078374 -0.024544403 0.0019463314
0.015109967 -0.004641291 0.025079828 0.021471104 0.029854823 0.0261509 0.0065213297 0.021601528
0.010846852 -0.029183863 -0.009179343 0.03326079 0.03381395 0.042867128 0.010123182 -0.029740665
-0.0015073902 0.027072381 -0.026864605 0.044378262 0.0010329781 -0.015206958 0.0020621493 -0.011888659
-0.019332327 0.03377865 0.006889001 -0.05589281 -0.0434147 -0.005705353 0.0007206348 -0.004293635
0.013015697 -0.029207684 0.005853271 -0.0031406183 0.025063423 0.011423878 7.621505e-05 0.0075606056
00000000: 1162 bcbc 1ac1 baba 15ba 893c d958 04bc
00000010: 5a1e b23a d142 34bc 441e 3cbc a0ce 8cba
00000020: af9a e4bc 0a6a a9bb 2226 fb3c 67c8 0f3d
00000030: 3fe0 f43c 020c 35bd 71e3 253d add9 c6bc
00000040: 5893 883c 26f9 b13c e666 013d 2fdf 973c
00000050: 8bbf d63a a5f7 ff3b f98d 323d 5369 e13c
00000060: d41f b0bc 676c d93c 80e9 9e3a 0548 db3c
00000070: 5abd afbc a33a 87bb 7a53 a23c 847b 753c
00000080: 9bcb b83c a2fd 6c3c dcf2 abb8 bd00 293d
00000090: ecbe eb3b 0ade f63b 9d8d ca3c c483 89bc
000000a0: f54e 2e3d a111 02bb f6c0 8a3c 69ba 5dbc
000000b0: 30d5 903b 1e38 9ebc 85ea e23c 531a 2b3c
000000c0: 5d20 0abd d90a 6fbc 8497 9d3c de0b a7b7
000000d0: 1c35 77ba 54ae 9b3c 5f69 833c 464a 3d3c
000000e0: 3074 0c3d fdca 393d a520 49bd 224e 3a3c
000000f0: 07ea e3bc 6535 363d b8b6 7ebb 54e5 463c
00000100: 22e9 15bc d100 493d f7e5 363c 61aa 9e3c
00000110: d6c4 503d 0e21 31bc 7af2 21bb b5ae a0bc
00000120: 23f6 c7bc 6130 bd3b ea2c 203d 0455 1abd
00000130: 9ff6 26bb dc48 50bc 1cf5 14bc 35f7 b63d
00000140: 5aa4 66bc df32 ebb9 02c6 2f3d eb61 babc
00000150: 54e6 6bbd 792f 243d 9ec2 76b9 cff5 253c
00000160: 361b 4ab9 d00c 14bc 8f58 c1bb dc53 ef3a
00000170: c732 173a a46e 03bd 9695 a4bb 3e06 0b3d
00000180: 3acb 883c a714 68bb 3572 cc3b f04f f0ba
00000190: 68e1 f9bc d773 2bbd 85de 2d3b 4175 c63c
000001a0: b326 663c d545 ec3b 0de5 1abd ee6f cbbc
000001b0: bb8b 43bc d97f 0cbd e5c0 39bc ee8a b43c
000001c0: 93df e3bc bc74 513c 62ef 703c 945a d4bb
000001d0: 3557 ab3c 5ce1 cebc c957 333a 41fd 6cbc
000001e0: c2b1 8a3a d9ea b2bc 6932 3cbc b817 21bd
000001f0: f67c aa3b 9835 ee3b d360 d5bc fe47 45bc
00000200: dc07 fabc 4817 97bd 8ce4 abbc 0eba 58bd
00000210: 0c61 65bd 0350 40bd b289 e3bc 341f a93c
00000220: 2328 d8bb 0cdb 253d 1333 403c 5595 1c3d
00000230: 8950 eb3c 396c 453c f5c6 3f3a cbe1 c33b
00000240: 7633 04bc f5ca 3dbc a5ec a23c 79e6 ed3c
00000250: aa3c 9e3b 455c 943c f758 1e3c 250b a83c
00000260: 6eef 92bc e5dd 96bb da18 a4bb 878f 033c
00000270: 0c12 debc 8969 263d a683 cd3b 9396 f0bc
00000280: f66b 823c 32ce a2bc 769f 90bc c3e0 a8bc
00000290: c867 e0bc 4573 71bd 9b22 72bd cb72 49bd
000002a0: 31df b1bb c236 4e3a 4341 3bbb d6f9 3dbb
000002b0: f50a 933c 3aec 893a 9542 d7bc 4ea5 583d
000002c0: 5616 25bb 578b 003c 70f8 1f3b 57d5 5dba
000002d0: 37d0 273c 0c9a 94bc 5026 09bc 76d8 973c
000002e0: 67e2 27bd 954a 8bbc c70f ee3b 2c10 093b
000002f0: 9960 073d d5fb 593c 45d6 c83c 895f 0cbb
00000300: b7e9 00bc 4dc3 b53c a81c fb3b ce2c aa3c
00000310: 9004 97bc 6d32 e7bc fb4d 7b3c 243a ff3b
00000320: 11ce 91bb a2e2 e0bc 0d11 b4bc bb10 dd39
00000330: 87b2 ab3a 8021 fa3c e16b 31bc 6c96 babb
00000340: 3b4d cd3c ca86 ce3c 5b7c c53c 9f43 16bd
00000350: 34e9 e039 cc41 283d 5811 c9bc 0b1c ff3a
00000360: cc8f 773c f915 98bb 3674 cd3c 2be4 af3c
00000370: 1a92 f43c 6a3a d63c e1b0 d53b b0f5 b03c
00000380: ffb6 313c ff12 efbc f464 16bc 773c 083d
00000390: 7f80 0a3d 7195 2f3d b4db 253c b2a2 f3bc
000003a0: 9f93 c5ba e6c6 dd3c 2913 dcbc fbc5 353d
000003b0: fe64 873a 9b26 79bc 2025 073b a6c8 42bc
000003c0: d45e 9ebc 7b5b 0a3d 21bd e13b dcef 64bd
000003d0: 9dd3 31bd f8f3 babb fce8 3c3a 9fb1 8cbb
000003e0: ca3f 553c f444 efbc cccc bf3b d5d2 4dbb
000003f0: cf51 cd3c 382b 3b3c a5d5 9f38 f5be f73b

model.6.weight f4 [63]
0.66452134 0.5846079 0.65100753 0.92989105 0.6778521 0.62662417 0.49355 0.5790694
0.7354819 0.3035119 0.13897298 0.18683903 0.6645264 0.36832935 0.91861755 0.9392014
0.84530514 0.85068125 0.18869305 0.96017915 0.060600992 0.70863116 0.80264646 0.14463581
0.21635033 0.717377 0.48246998 0.91991967 0.8672419 0.9862833 0.40554777 0.17499952
0.3358339 0.13734613 0.14095807 0.47060463 0.28454304 0.26513743 0.2807843 0.75050664
0.39116454 0.77067214 0.73446846 0.403156 0.3613305 0.47708377 0.21499033 0.6611016
0.5850695 0.59195274 0.32217982 0.7024374 0.77573276 0.34486923 0.3205244 0.8054404
0.94663405 0.33968663 0.88500303 0.1574315 0.9690096 0.8032671 0.75974303
00000000: 121e 2a3f dda8 153f 6ea8 263f 570d 6e3f
00000010: b787 2d3f 716a 203f 96b2 fc3e e43d 143f
00000020: 8b48 3c3f e965 9b3e ef4e 0e3e bb52 3f3e
00000030: 671e 2a3f aa95 bc3e 852a 6b3f 816f 703f
00000040: eb65 583f 3fc6 593f c038 413e 4dce 753f
00000050: bf38 783d da68 353f 3d7a 4d3f 691b 143e
00000060: f18a 5d3e 05a6 373f 4e06 f73e db7f 6b3f
00000070: 9103 5e3f 107d 7c3f f5a3 cf3e 1333 333e
00000080: 6cf2 ab3e 77a4 0c3e 5057 103e 17f3 f03e
00000090: a0af 913e 18c0 873e f6c2 8f3e 3421 403f
000000a0: b846 c83e c54a 453f 2006 3c3f 776a ce3e
000000b0: 5000 b93e 5344 f43e 6d26 5c3e f43d 293f
000000c0: 1dc7 153f 378a 173f c1f4 a43e f0d2 333f
000000d0: 6c96 463f b392 b03e c61b a43e 5831 4e3f
000000e0: 9c56 723f 68eb ad3e 8f8f 623f b935 213e
000000f0: 0311 783f eaa2 4d3f 857e 423f

model.6.bias f4 [63]
0.121827476 0.08138539 0.31351507 0.14540562 -0.24813892 -0.11256111 0.15123683 -0.118960746
0.12356276 0.035441466 0.039221518 0.15744431 0.27313977 0.29319957 0.15493472 -0.041114144
0.015392277 -0.12580656 0.059316427 0.16722474 -0.032623835 0.06675965 0.077107534 0.07166983
0.08891382 0.068738155 0.084240966 -0.07049738 0.038168103 0.05544152 -0.028741095 0.055712655
0.30168748 0.051050868 -0.026764203 0.055743292 0.13159983 -0.009553747 0.07956114 -0.052999113
0.20132701 0.0842468 -0.0041855937 -0.04424009 0.26929 0.08435026 0.0025695993 0.029447114
-0.021838339 -0.065315716 0.00054055103 -0.04133385 0.08261265 0.2721379 0.109377764 -0.07678574
0.19753775 -0.02328306 -0.043808963 0.032354016 -0.013125492 0.15831861 0.21568681
00000000: af80 f93d 62ad a63d 0c85 a03e 36e5 143e
00000010: 2118 7ebe 7086 e6bd d4dd 1a3e b1a1 f3bd
00000020: 790e fd3d 122b 113d bea6 203d 1539 213e
00000030: fad8 8b3e 411e 963e 35a7 1e3e 4e67 28bd
00000040: e42f 7c3c 6fd3 00be c8f5 723d f63c 2b3e
00000050: 92a0 05bd 49b9 883d 8eea 9d3d a2c7 923d
00000060: 7318 b63d 97c6 8c3d 8786 ac3d ee60 90bd
00000070: 2856 1c3d a616 633d 7272 ebbc f432 643d
00000080: c876 9a3e b71a 513d 9a40 dbbc 1453 643d
00000090: 1bc2 063e 5287 1cbc f3f0 a23d 9915 59bd
000000a0: ab28 4e3e 9689 ac3d 4e27 89bb 1935 35bd
000000b0: 61e0 893e d4bf ac3d b966 283b 133b f13c
000000c0: 51e6 b2bc 3fc4 85bd c4b3 0d3a af4d 29bd
000000d0: d230 a93d a955 8b3e 7301 e03d d841 9dbd
000000e0: 5647 4a3e 1ebc bebc 0771 33bd a585 043d
000000f0: 4e0c 57bc 461e 223e 01dd 5c3e

model.6.running_mean f4 [63]
0.033935923 0.081145614 -0.06893118 -0.19210811 0.4994665 0.31847176 -0.25213838 0.29354227
-0.14168268 -0.1085678 0.10183288 -0.12417397 0.05096551 -0.029711109 -0.16879958 0.21696663
0.14785396 0.45885384 -0.06078745 -0.09141619 0.22808117 -0.07678128 0.0046708477 0.09030945
0.12591602 -0.21421129 -0.12476303 0.5318213 0.020840358 -0.10575429 0.3072461 0.081478685
-0.031538174 0.12451748 0.12637408 0.22355974 0.01645461 0.0058631687 -0.24211943 0.26899818
-0.16306777 -0.20278434 -0.026171928 0.13954265 0.03046088 -0.2248627 0.107641175 0.038005494
0.37347233 0.21096574 -0.12987913 0.32834324 0.21002166 0.004288659 0.017726699 0.30012736
-0.07233579 0.42945734 0.45589122 0.06478457 -0.05550757 -0.24331172 0.0352996
00000000: 6500 0b3d ac2f a63d ca2b 8dbd fdb7 44be
00000010: 13ba ff3e bb0e a33e 4818 81be 2c4b 963e
00000020: 4415 11be cb58 debd c28d d03d ec4e febd
00000030: 36c1 503d b664 f3bc ccd9 2cbe 802c 5e3e
00000040: 0767 173e e4ee ea3e 43fc 78bd 6938 bbbd
00000050: 1c8e 693e 813f 9dbd e90d 993b 29f4 b83d
00000060: 21f0 003e 345a 5bbe c283 ffbd 7125 083f
00000070: 66b9 aa3c b595 d8bd 5c4f 9d3e 4cde a63d
00000080: 2c2e 01bd 0503 ff3d 3568 013e d8ec 643e
00000090: d1cb 863c d31f c03b 28ee 77be 21ba 893e
000000a0: 3dfb 26be b3a6 4fbe 8366 d6bc 45e4 0e3e
000000b0: 1889 f93c 6842 66be fa72 dc3d a6ab 1b3d
000000c0: c437 bf3e 6707 583e 09ff 04be 9b1c a83e
000000d0: eb0f 573e e187 8c3b 9537 913c 4baa 993e
000000e0: c924 94bd d5e1 db3e 936a e93e c6ad 843d
000000f0: e85b 63bd b526 79be 5096 103d

model.6.running_var f4 [63]
0.013999255 0.016232474 0.022983905 0.030214153 0.003027198 0.01994977 0.009272 0.010963961
0.024168087 0.010920574 0.004407368 0.003912667 0.01644763 0.006813765 0.032617673 0.044989534
0.023981264 0.0037707367 0.006440382 0.020868676 0.025281845 0.05346464 0.036123235 0.037982438
0.017593386 0.032013826 0.021897648 0.025918022 0.04625911 0.06044462 0.032868583 0.009850084
0.01247117 0.057101913 0.0075285514 0.022635762 0.012633041 0.0114008365 0.01254011 0.026441064
0.017053174 0.02195469 0.08888069 0.08112321 0.016410192 0.025962882 0.13256674 0.094190545
0.102593474 0.019122206 0.027852857 0.017543167 0.017395323 0.012500761 0.014644218 0.042475916
0.033452533 0.17023277 0.02424572 0.11617316 0.039915837 0.0660161 0.029468957
00000000: 225d 653c f7f9 843c be48 bc3c ac83 f73c
00000010: f463 463b b36d a33c 96e9 173c 2fa2 333c
00000020: 27fc c53c 35ec 323c af6b 903b d435 803b
00000030: 2ebd 863c 0146 df3b 1c9a 053d f246 383d
00000040: 5b74 c43c 771e 773b d709 d33b c9f4 aa3c
00000050: df1b cf3c bdfd 5a3d f5f5 133d 7993 1b3d
00000060: 0120 903c ee20 033d b262 b33c 0852 d43c
00000070: 317a 3d3d c794 773d 35a1 063d 3f62 213c
00000080: e153 4c3c b2e3 693d 11b2 f63b a26e b93c
00000090: d0fa 4e3c 93ca 3a3c 0975 4d3c ee9a d83c
000000a0: 19b3 8b3c 52da b33c 1407 b63d ed23 a63d
000000b0: ab6e 863c 1cb0 d43c 93bf 073e f9e6 c03d
000000c0: 871c d23d 2ca6 9c3c ad2b e43c b0b6 8f3c
000000d0: a380 8e3c fecf 4c3c 4dee 6f3c 3afb 2d3d
000000e0: 8605 093d 8051 2e3e f69e c63c 32ec ed3d
000000f0: ca7e 233d 7333 873d e268 f13c

model.8.bias f4 [64]
0.0 0.0 0.0 0.0 0.0 0.0 0.0 0.0
0.0 0.0 0.0 0.0 0.0 0.0 0.0 0.0
0.0 0.0 0.0 0.0 0.0 0.0 0.0 0.0
0.0 0.0 0.0 0.0 0.0 0.0 0.0 0.0
0.0 0.0 0.0 0.0 0.0 0.0 0.0 0.0
0.0 0.0 0.0 0.0 0.0 0.0 0.0 0.0
0.0 0.0 0.0 0.0 0.0 0.0 0.0 0.0
0.0 0.0 0.0 0.0 0.0 0.0 0.0 0.0
00000000: 0000 0000 0000 0000 0000 0000 0000 0000
00000010: 0000 0000 0000 0000 0000 0000 0000 0000
00000020: 0000 0000 0000 0000 0000 0000 0000 0000
00000030: 0000 0000 0000 0000 0000 0000 0000 0000
00000040: 0000 0000 0000 0000 0000 0000 0000 0000
00000050: 0000 0000 0000 0000 0000 0000 0000 0000
00000060: 0000 0000 0000 0000 0000 0000 0000 0000
00000070: 0000 0000 0000 0000 0000 0000 0000 0000
00000080: 0000 0000 0000 0000 0000 0000 0000 0000
00000090: 0000 0000 0000 0000 0000 0000 0000 0000
000000a0: 0000 0000 0000 0000 0000 0000 0000 0000
000000b0: 0000 0000 0000 0000 0000 0000 0000 0000
000000c0: 0000 0000 0000 0000 0000 0000 0000 0000
000000d0: 0000 0000 0000 0000 0000 0000 0000 0000
000000e0: 0000 0000 0000 0000 0000 0000 0000 0000
000000f0: 0000 0000 0000 0000 0000 0000 0000 0000

model.8.A f4 [3, 3, 3]
-0.51849467 0.52442014 0.44367486 -0.01800864 0.35387304 0.1096188 -0.1638262 0.540355
-0.23342559 0.077474624 0.059193306 -0.2575621 0.23242186 -0.24496031 0.3910652 -0.5858122
-0.16953728 0.25086483 0.3596493 -0.04463763 -0.22397473 0.54493594 0.14127764 0.45243582
-0.3206163 0.43849927 -0.35385507
00000000: 11bc 04bf 6640 063f 5a29 e33e db86 93bc
00000010: d92e b53e d27f e03d 0ec2 27be b554 0a3f
00000020: 1e07 6fbe 04ab 9e3d ae74 723d 2edf 83be
00000030: ffff 6d3e e0d6 7abe b339 c83e caf7 15bf
00000040: 2e9b 2dbe 5b71 803e f423 b83e f3d5 36bd
00000050: a259 65be ec80 0b3f 16ab 103e aba5 e73e
00000060: d227 a4be fa82 e03e 7e2c b5be

model.8.F f4 [3, 21, 21, 3, 3]
-0.024419786 0.011543003 -0.03155007 -0.03826159 -0.012232763 0.0045723584 -0.012214914 -0.038789712
-0.029862545 -0.015107666 -0.037200972 0.014317119 -0.02522161 0.019987324 -0.017127207 -0.027550397
0.00084618886 -0.012786953 0.009911909 -0.015782185 -0.011645446 0.037674785 0.0030233741 -0.028421152
0.004416972 -0.027642459 0.026234077 -0.0059554954 0.004960826 0.038689427 0.01936308 0.049725242
0.005809954 -0.020393498 0.0112027945 0.009485556 -0.002803602 -0.025145127 -0.019895812 -0.03240213
-0.017367186 -0.004444668 -0.048915844 -0.03932951 -0.032957934 -0.028435886 0.0044575944 -0.049179394
-0.019061858 -0.0081322715 -0.030146305 -0.038232308 -0.04294541 -0.030001156 0.014648198 0.01752829
-0.011611593 -0.033798214 0.009256521 -0.020972388 0.0011160774 0.016646082 0.022328777 -0.021107111
0.017133541 -0.01693892 -0.020100119 0.018627716 -0.010570334 0.018090712 -0.021374252 -0.005298287
0.015992438 -0.012932152 0.0015894594 -0.026764657 0.004980045 -0.00016300761 0.019918928 0.020071024
0.02416059 -0.022542939 0.026230581 -0.00041331752 0.01089228 0.004483463 0.010694138 0.025919711
-0.011883819 0.010589522 0.009928623 -0.050112966 0.016208908 -0.0039662165 -0.04792545 0.020090286
-0.0017128086 0.03188399 -0.018216789 0.028017249 0.02768958 0.024434188 0.023057973 0.03666647
-0.0087123895 0.011323927 -0.017551588 -0.0067240903 0.017914047 -0.02534676 0.012283155 -0.002650842
-0.011965432 0.0013787567 0.03012702 0.039651826 0.022442639 0.01717222 -0.0016735236 0.0068310117
0.0030864936 0.011323517 0.014016516 -0.01240041 -0.02663692 0.006483812 0.009455135 0.02157749
-0.0081266295 0.018461507 0.008887119 0.010247301 0.011282495 0.0035734023 -0.00086601736 0.008795426
0.021364402 0.0395512 -0.010130771 -0.045313433 0.013841303 -0.019176574 -0.040684193 0.009217282
0.011539257 0.012296038 0.005642526 0.058325786 0.027000392 0.043096166 0.03581758 0.058769487
0.049750775 -0.04297373 -0.045384783 -0.06012197 -0.027396685 -0.0006418453 -0.020044949 -0.034057215
-0.025862608 -0.017355323 0.0044511827 0.012514751 -0.0114164725 -0.037889633 -0.0024954705 -0.0044384073
-0.0027798007 0.0017831691 -0.01823886 -0.0018010302 0.039840866 -0.01850354 0.019500898 0.028331885
-0.02289846 -0.012644987 0.013585641 -0.007888188 -0.003960386 0.020102924 -0.010008747 -0.009338349
0.0006512853 0.010937601 -0.020414645 -0.006587845 0.013282828 0.029998878 -0.052094806 -0.0036112561
0.024935743 0.013233435 0.024280438 0.010320072 0.0028216145 0.016095271 -0.008273665 0.023037152
0.015726881 -0.052853126 0.0119184125 -0.018514093 0.015772274 -0.0063872463 0.0052520977 -0.0208382
0.022374034 -0.0041055116 0.00535387 0.0026122537 0.029830541 0.038862668 0.013073172 0.007735704
-0.028895136 0.04109969 0.011776493 0.03712435 -0.019772418 0.032295067 0.01886657 -0.027628116
0.0029430366 0.026587568 -0.015539107 0.021044206 -0.01715303 0.05590113 -0.018415216 -0.010233091
-0.03180237 0.026043424 0.023614876 0.03899414 0.005883565 0.055043247 0.017828684 -0.014328446
0.010198843 0.0098450035 0.0018346687 0.013793713 -0.019756412 -0.0267148 -0.023523819 -0.042988293
0.013513573 0.00709454 0.018335037 0.0067747463 0.016654698 0.0074629853 0.036778145 -0.034607474
00000000: 010c c8bc dd1e 3d3c a53a 01bd 2fb8 1cbd
00000010: ed6b 48bc b9d3 953b 1021 48bc f6e1 1ebd
00000020: 4ca2 f4bc 2586 77bc 0c60 18bd 5992 6a3c
00000030: 8d9d cebc 75bc a33c 5b4e 8cbc 5fb1 e1bc
00000040: c6d2 5d3a 5e80 51bc 8f65 223c a449 81bc
00000050: 8acc 3ebc e050 1a3d cd23 463b 7ad3 e8bc
00000060: 3fbc 903b 7072 e2bc d9e8 d63c 5126 c3bb
00000070: 6d8e a23b ce78 1e3d 529f 9e3c b2ac 4b3d
00000080: 6d61 be3b 4410 a7bc ed8b 373c 4e69 1b3c
00000090: a3bc 37bb 27fd cdbc 8bfc a2bc 19b8 04bd
000000a0: a145 8ebc 94a4 91bb fb5b 48bd fb17 21bd
000000b0: e6fe 06bd 60f2 e8bc 0311 923b 5570 49bd
000000c0: 9d27 9cbc 383d 05bc 62f5 f6bc 7b99 1cbd
000000d0: 87e7 2fbd fcc4 f5bc fffe 6f3c 7d97 8f3c
000000e0: 8d3e 3ebc ff6f 0abd aaa8 173c 49ce abbc
000000f0: 5849 923a 5d5d 883c d7ea b63c d2e8 acbc
00000100: a45b 8c3c 7dc3 8abc 01a9 a4bc 2799 983c
00000110: 322f 2dbc f932 943c 0e19 afbc 419d adbb
00000120: 9302 833c 60e1 53bc 6855 d03a 8e41 dbbc
00000130: a52f a33b 06ed 2ab9 052d a33c fd6b a43c
00000140: 6eec c53c f8ab b8bc 84e1 d63c 8ab2 d8b9
00000150: 8975 323c 03ea 923b 7736 2f3c 9355 d43c
00000160: 59b4 42bc ad7f 2d3c aaab 223c 4143 4dbd
00000170: 8bc8 843c 09f7 81bb 7a4d 44bd 6294 a43c
00000180: 5280 e0ba c998 023d 603b 95bc 6e84 e53c
00000190: 42d5 e23c 352a c83c 13e4 bc3c 952f 163d
000001a0: 69be 0ebc fe87 393c 59c8 8fbc c255 dcbb
000001b0: 7bc0 923c 02a4 cfbc 493f 493c c0b9 2dbb
000001c0: a90a 44bc 66b7 b43a f1cc f63c f469 223d
000001d0: a0d9 b73c c1ac 8c3c 225a dbba aed6 df3b
000001e0: c546 4a3b 4686 393c 87a5 653c 172b 4bbc
000001f0: ac35 dabc 2876 d43b b6e9 1a3c 47c3 b03c
00000200: 8e25 05bc 963c 973c 479b 113c 4ce4 273c
00000210: 37da 383c be2f 6a3b 7105 63ba b11a 103c
00000220: 6604 af3c 7000 223d 89fb 25bc 949a 39bd
00000230: a2c6 623c 3118 9dbc 78a4 26bd 1504 173c
00000240: 270f 3d3c 5275 493c f0e4 b83b 05e7 6e3d
00000250: ed2f dd3c 9b85 303d 74b5 123d 46b8 703d
00000260: 78c7 4b3d 3905 30bd 65e5 39bd 7442 76bd
00000270: 036f e0bc 8241 28ba 4e35 a4bc 947f 0bbd
00000280: d2dd d3bc c02c 8ebc 3adb 913b ac0a 4d3c
00000290: 280c 3bbc 2932 1bbd 0c8b 23bb 0f70 91bb
000002a0: 512d 36bb 3ab9 e93a a969 95bc 8c10 ecba
000002b0: 2d30 233d bc94 97bc 59c0 9f3c 4518 e83c
000002c0: 8d95 bbbc eb2c 4fbc 4f96 5e3c 753d 01bc
000002d0: 20c6 81bb e3ae a43c bafb 23bc e0ff 18bc
000002e0: 04bb 2a3a a033 333c 9d3c a7bc d9de d7bb
000002f0: 38a0 593c 35c0 f53c 5d61 55bd d3aa 6cbb
00000300: 0b46 cc3c 0dd1 583c c5e7 c63c 8515 293c
00000310: d6ea 383b 3bda 833c 448e 07bc 69b8 bc3c
00000320: a9d5 803c 857c 58bd 7245 433c deaa 97bc
00000330: db34 813c 1b4c d1bb ca19 ac3b dfb4 aabc
00000340: c049 b73c 8787 86bb 846f af3b 5832 2b3b
00000350: 2e5f f43c 762e 1f3d dc30 563c ca7b fd3b
00000360: 7eb5 ecbc 2658 283d 31f2 403c b40f 183d
00000370: c4f9 a1bc d547 043d 118e 9a3c 5c54 e2bc
00000380: f6df 403b 2cce d93c bd97 7ebc e664 ac3c
00000390: 8384 8cbc 95f8 643d 82db 96bc b2a8 27bc
000003a0: 3443 02bd 0559 d53c fc73 c13c 52b8 1f3d
000003b0: ecca c03b 0775 613d 760d 923c dcc1 6abc
000003c0: 0c19 273c f04c 213c 4479 f03a 07ff 613c
000003d0: 33d8 a1bc ffd8 dabc 06b5 c0bc 7e14 30bd
000003e0: 0968 5d3c 5179 e83b 5c33 963c b1fe dd3b
000003f0: 6f6f 883c 0f8c f43b aea4 163d 91c0 0dbd

model.9.weight f4 [63]
0.42865628 0.16712542 0.7842497 0.16678554 0.19857746 0.75729525 0.5864217 0.15350167
0.5862079 0.80117863 0.88665664 0.07578577 0.33316097 0.5599917 0.8448528 0.42431328
0.67908096 0.6107981 0.41887453 0.6736148 0.4207606 0.7358093 0.21461661 0.83554137
0.1550076 0.8270764 0.42180452 0.35213628 0.9097957 0.6505407 0.7477159 0.7772369
0.22066592 0.9971468 0.89590883 0.3198824 0.8585867 0.3038376 0.6712499 0.9231512
0.7473834 0.97208726 0.6471248 0.78300047 0.5499802 0.5515419 0.28480658 0.16933289
0.93326753 0.37016866 0.605113 0.35960606 0.71779805 0.7953878 0.49728566 0.13516106
0.94656557 0.41429463 0.3657797 0.8449683 0.69399 0.8995502 0.20218347
00000000: d678 db3e ed22 2b3e 97c4 483f d4c9 2a3e
00000010: e457 4b3e 1ade 413f bc1f 163f 8b2f 1d3e
00000020: b911 163f 0b1a 4d3f eefb 623f 9235 9b3d
00000030: 1394 aa3e 9e5b 0f3f 4648 583f 973f d93e
00000040: 40d8 2d3f 445d 1c3f b976 d63e 0572 2c3f
00000050: ef6d d73e 005e 3c3f 75c4 5b3e 0ae6 553f
00000060: 50ba 1e3e 47bb 533f c3f6 d73e 354b b43e
00000070: 5fe8 683f d689 263f 4f6a 3f3f fff8 463f
00000080: 3ff6 613e 0345 7f3f 485a 653f a0c7 a33e
00000090: 57cc 5b3f 9a90 9b3e 09d7 2b3f a353 6c3f
000000a0: 8554 3f3f b6da 783f f9a9 253f b872 483f
000000b0: 81cb 0c3f da31 0d3f 2bd2 913e 9a65 2d3e
000000c0: 9fea 6e3f bf86 bd3e b0e8 1a3f 491e b83e
000000d0: 9dc1 373f 899e 4b3f 3a9c fe3e a967 0a3e
000000e0: 1f52 723f 6d1e d43e 7a47 bb3e d84f 583f
000000f0: 54a9 313f ec48 663f 2f09 4f3e

model.9.bias f4 [63]
-0.23829655 0.08337033 0.11449505 0.03792394 0.044919413 -0.017934874 -0.026134523 0.025287824
0.24519953 -0.22277848 -0.2996194 0.037161272 -0.027739005 -0.014530371 0.17987971 -0.021571787
-0.05125547 0.0035238962 0.008260662 0.1464431 0.035078052 -0.2148486 0.06690201 0.07023013
-0.035706025 0.28175765 0.097930975 -0.048321214 0.18425775 0.068033785 -0.18273939 0.0002124184
0.20019555 0.12352762 -0.18090884 0.014425133 0.13191716 -0.035167336 0.17073658 0.11044396
-0.0049500773 -0.038919155 0.18782772 0.037634745 -0.13511401 0.26588413 -0.05462403 0.029155837
0.22528662 -0.030896774 0.01964959 0.05706771 -0.17484084 -0.05003317 -0.040415436 0.023843937
-0.21985568 0.061887912 0.015037777 -0.025770163 0.020293225 0.1836483 0.19230536
00000000: 0304 74be 10be aa3d 617c ea3d 2256 1b3d
00000010: 6bfd 373d 28ec 92bc 1118 d6bc 6928 cf3c
00000020: 9615 7b3e 0b20 64be b767 99be 6b36 183d
00000030: e93c e3bc cb10 6ebc 6332 383e 51b7 b0bc
00000040: 41f1 51bd 2bf1 663b ba57 073c 2ef5 153e
00000050: 01ae 0f3d 4501 5cbe ec03 893d d0d4 8f3d
00000060: 7b40 12bd 8a42 903e 0990 c83d 77ec 45bd
00000070: 10ae 3c3e 4c55 8b3d 0920 3bbe a1bc 5e39
00000080: 1000 4d3e 0dfc fc3d 2b40 39be 6557 6c3c
00000090: 4b15 073e a00b 10bd 92d5 2e3e 7130 e23d
000000a0: 4234 a2bb b169 1fbd e955 403e e426 1a3d
000000b0: 545b 0abe f721 883e 72bd 5fbd 39d8 ee3c
000000c0: 89b1 663e 3b1b fdbc 2df8 a03c d5bf 693d
000000d0: 7a09 33be 95ef 4cbd a88a 25bd 5c54 c33c
000000e0: d921 61be 2e7e 7d3d 0261 763c f31b d3bc
000000f0: fa3d a63c 4d0e 3c3e b2eb 443e

model.9.running_mean f4 [63]
-0.09085004 0.06597892 0.033351853 0.0035240783 -0.057503268 -0.04086746 0.060773466 -0.071810536
0.089293405 -0.083606385 -0.12404065 -0.07246817 0.090988316 0.07548419 -0.028857974 0.042603657
0.05295279 0.044542164 0.07697107 -0.06291125 0.07436994 -0.0016595708 -0.053550262 -0.22596292
-0.09336788 0.0016006783 0.13551453 0.069753975 -0.07790678 0.027732776 -0.078585215 -0.081290096
-0.04820905 -0.050764732 0.07350929 -0.13846077 -0.1199495 0.054199934 -0.115220174 -0.11140575
0.02018273 0.21476547 -0.11495187 0.10506235 0.11627058 0.11437532 0.06822441 -0.13781722
-0.018600902 0.108145006 0.07455631 -0.07473182 -0.028337428 0.10526523 0.055987697 -0.15083313
-0.08889557 0.118914865 0.078990415 0.158425 0.032796975 0.0047096126 -0.058305953
00000000: 960f babd f51f 873d f49b 083d 39f4 663b
00000010: 8c88 6bbd a364 27bd 99ed 783d 6711 93bd
00000020: 76df b63d d339 abbd 0609 febd 316a 94bd
00000030: 1558 ba3d 7497 9a3d 8f67 ecbc 2c81 2e3d
00000040: 06e5 583d d871 363d 02a3 9d3d 9dd7 80bd
00000050: 444f 983d f585 d9ba 8557 5bbd d362 67be
00000060: a937 bfbd dacd d13a 52c4 0a3e 2cdb 8e3d
00000070: 978d 9fbd d92f e33c 49f1 a0bd 6c7b a6bd
00000080: da76 45bd aeee 4fbd 0a8c 963d a9c8 0dbe
00000090: 15a8 f5bd c000 5e3d 8ef8 ebbd b328 e4bd
000000a0: 4156 a53c 7beb 5b3e e36b ebbd ee2a d73d
000000b0: 451f ee3d 9c3d ea3d 3db9 8b3d f51f 0dbe
000000c0: eb60 98bc 217b dd3d fbb0 983d ff0c 99bd
000000d0: e523 e8bc 4c95 d73d 5b53 653d 0074 1abe
000000e0: e10e b6bd a389 f33d bac5 a13d 2a3a 223e
000000f0: 1f56 063d 1853 9a3b 39d2 6ebd
