KAIR/denoising/dncnn25/models/5000_G.pth (torch, 772165 bytes, 111 tensors)

model.0.bias f4 [64]
0	0x00000000	0.0
1	0x00000000	0.0
2	0x00000000	0.0
3	0x00000000	0.0
4	0x00000000	0.0
5	0x00000000	0.0
6	0x00000000	0.0
7	0x00000000	0.0
8	0x00000000	0.0
9	0x00000000	0.0
10	0x00000000	0.0
11	0x00000000	0.0
12	0x00000000	0.0
13	0x00000000	0.0
14	0x00000000	0.0
15	0x00000000	0.0
16	0x00000000	0.0
17	0x00000000	0.0
18	0x00000000	0.0
19	0x00000000	0.0
20	0x00000000	0.0
21	0x00000000	0.0
22	0x00000000	0.0
23	0x00000000	0.0
24	0x00000000	0.0
25	0x00000000	0.0
26	0x00000000	0.0
27	0x00000000	0.0
28	0x00000000	0.0
29	0x00000000	0.0
30	0x00000000	0.0
31	0x00000000	0.0
32	0x00000000	0.0
33	0x00000000	0.0
34	0x00000000	0.0
35	0x00000000	0.0
36	0x00000000	0.0
37	0x00000000	0.0
38	0x00000000	0.0
39	0x00000000	0.0
40	0x00000000	0.0
41	0x00000000	0.0
42	0x00000000	0.0
43	0x00000000	0.0
44	0x00000000	0.0
45	0x00000000	0.0
46	0x00000000	0.0
47	0x00000000	0.0
48	0x00000000	0.0
49	0x00000000	0.0
50	0x00000000	0.0
51	0x00000000	0.0
52	0x00000000	0.0
53	0x00000000	0.0
54	0x00000000	0.0
55	0x00000000	0.0
56	0x00000000	0.0
57	0x00000000	0.0
58	0x00000000	0.0
59	0x00000000	0.0
60	0x00000000	0.0
61	0x00000000	0.0
62	0x00000000	0.0
63	0x00000000	0.0

model.0.A f4 [3, 3, 3]
0	0xbea75526	-0.3268215
1	0x3f154f69	0.58324295
2	0x3ef928be	0.48663896
3	0x3e545068	0.20733798
4	0x3ec5bbcf	0.3861985
5	0xbd99503a	-0.07486005
6	0xbd1aefb7	-0.037826266
7	0xbef545cb	-0.4790481
8	0xbe3ba00b	-0.1832277
9	0xbd96f59d	-0.07371066
10	0x3e9dd61d	0.30827418
11	0xbef5ec46	-0.48031825
12	0xbde2c194	-0.11072078
13	0x3ee9ae5d	0.4564084
14	0x3ea9e26f	0.33180568
15	0xbea1c18c	-0.31592977
16	0x3e1443da	0.14479008
17	0xbd70864d	-0.05872183
18	0xbe8a1992	-0.26972634
19	0xbe4e5e99	-0.20153274
20	0xbdd70e9c	-0.105008334
21	0x3ed44c2b	0.41464362
22	0xbe45979c	-0.19296116
23	0x3ec974b7	0.3934686
24	0x3eaeb1ec	0.3412012
25	0x3f01b103	0.50660723
26	0xbeada41a	-0.33914262

model.0.F f4 [3, 21, 1, 3, 3]
0	0xbd73f521	-0.059559945
1	0x3d970938	0.07374805
2	0xbe0d565a	-0.13802472
3	0x3e3d2df8	0.18474567
4	0x3e305453	0.17219667
5	0x3c9d29cb	0.019184968
6	0xbd063e27	-0.032774117
7	0x3c91b6df	0.017787395
8	0xbccfc5f2	-0.025362942
9	0x3e397c1c	0.1811375
10	0x3e0df315	0.1386226
11	0x3cfc6b41	0.030812861
12	0xbb921ddf	-0.0044591273
13	0xbdd77a10	-0.105213284
14	0xbdc4fbb0	-0.09618318
15	0x3e00976f	0.12557767
16	0xbda05a06	-0.078296706
17	0x3d9cee24	0.07662609
18	0xbe1ee28e	-0.15516111
19	0xbe25ab5a	-0.16178647
20	0x3dfad8e6	0.12248401
21	0x3e05e551	0.13075759
22	0x3d164a98	0.036692232
23	0xbd8a4758	-0.06751889
24	0x3db73003	0.089447044
25	0xbdb113de	-0.086463675
26	0xbd07c9ac	-0.033151314
27	0x3e078008	0.13232434
28	0xbe20f239	-0.157174
29	0x3d87a020	0.06622338
30	0xbb36e93c	-0.0027910015
31	0x3deba771	0.11506546
32	0xbcfd31a0	-0.030907452
33	0xbc4504c4	-0.012025062
34	0xbcdbed00	-0.026846409
35	0x3e0e42c4	0.13892657
36	0xbdae0dbe	-0.08498715
37	0xbca0cbe3	-0.01962847
38	0xbd90775f	-0.07054018
39	0xbe4d190b	-0.20029084
40	0xbe25c287	-0.16187488
41	0x3d617eff	0.055052754
42	0x3c99c090	0.018768579
43	0xbe3c2612	-0.18373898
44	0x3c11b7d4	0.008893926
45	0xbdbc7b37	-0.09203189
46	0x3e09cdef	0.13457464
47	0x3c9e7806	0.019344341
48	0x3e02ddfd	0.12779994
49	0x3e10b959	0.14133205
50	0x3d829abe	0.06377171
51	0x3de31bbf	0.110892765
52	0x3e07ac17	0.13249241
53	0x3e0e2dec	0.13884705
54	0x3d133cfc	0.03594683
55	0xbbdb376f	-0.006689958
56	0x3da26981	0.079302795
57	0xbdf5a05b	-0.11993476
58	0x3d749f9f	0.05972254
59	0x3cdc530f	0.026895074
60	0x3d6e3db0	0.0581643
61	0xbd8f50a7	-0.06997805
62	0xbd6fdd90	-0.058560908
63	0xbd882bca	-0.06648977
64	0xbc51db68	-0.012808658
65	0xbe105925	-0.14096506
66	0xbe226d17	-0.15861927
67	0xbd0a5374	-0.033770993
68	0xbc64705f	-0.013942807
69	0xbdf76cc8	-0.12081295
70	0x3df317ef	0.11869799
71	0x3dc73c53	0.09728303
72	0x3d897a41	0.06712771
73	0x3bfd4edc	0.007730348
74	0x3e1f04ad	0.15529127
75	0xbd39035d	-0.045169223
76	0xbd88fc7f	-0.06688785
77	0xbd08e31f	-0.033419725
78	0xbe1210f0	-0.14264274
79	0xbdd7f7ec	-0.10545334
80	0xbdea1018	-0.11428851
81	0xbdfd17b8	-0.123580396
82	0xbd67d8d3	-0.056603264
83	0xbdecb647	-0.11558204
84	0x3da92d5d	0.082606055
85	0x3c84571c	0.016154818
86	0x3b3bb8ad	0.002864401
87	0xbe11d27c	-0.1424045
88	0x3d2d9d60	0.042386413
89	0xbe1a8268	-0.15088809
90	0xbd77bc95	-0.06048258
91	0x3e3d02bd	0.18458076
92	0x3db7cb6b	0.08974346
93	0x3e20edc6	0.15715703
94	0x3df0fce2	0.117669836
95	0x3d7ecf26	0.06220927
96	0x3cd062c9	0.02543773
97	0x3c90f053	0.01769272
98	0xbd117ead	-0.035521198
99	0x3d9af972	0.07567109
100	0xbd394b7e	-0.04523801
101	0x3ac36582	0.0014907571
102	0xbd043c84	-0.032284275
103	0x3cdd1da9	0.026991682
104	0x3c13d1a0	0.009022146
105	0x3ddf7f90	0.109130025
106	0xbda7729d	-0.081761576
107	0x3b9c42be	0.0047686985
108	0xbd3bc2f9	-0.045840237
109	0xbe39f288	-0.18158925
110	0xbe0eebb8	-0.13957107
111	0xbd0dec21	-0.03464902
112	0xbd10ae77	-0.035322633
113	0x3d934a18	0.07191867
114	0xbdaa19f9	-0.08305735
115	0x3d3db6b1	0.046316806
116	0x3d4ab752	0.049491234
117	0xbdceec87	-0.10103708
118	0xbe13019b	-0.14356081
119	0x3d010a70	0.031504095
120	0xbdc5bf8a	-0.09655674
121	0xbe1f83bd	-0.15577598
122	0xbdd4189b	-0.103562556
123	0x3e0326e7	0.12807809
124	0xbe1a72da	-0.15082875
125	0x3d397d95	0.04528578
126	0x3d880f79	0.06643576
127	0xbbb5afc3	-0.005544634
128	0x3da8dd12	0.08245291
129	0xbc298db8	-0.01034873
130	0x3c80c1e5	0.015717456
131	0xbe1ed1d1	-0.15509726
132	0xbdf60dbd	-0.12014339
133	0x3dca83eb	0.098884426
134	0xbe12a4e6	-0.14320716
135	0x3d8ed754	0.06974664
136	0xbd003fa3	-0.03131069
137	0x3e03b917	0.12863575
138	0xbe0b082d	-0.13577338
139	0x3e0d68c1	0.13809492
140	0x3e0c58cf	0.13705753
141	0x3b4496b5	0.0029997055
142	0x3d937659	0.072003074
143	0x3dad59d9	0.08464403
144	0x3d0799db	0.033105712
145	0xbe135212	-0.14386776
146	0x3dd7f827	0.10545378
147	0x3e1a243a	0.15052882
148	0x3cef4e7d	0.02921223
149	0x3dfc71d7	0.12326401
150	0xbc9ab5d7	-0.018885536
151	0xbcb73c2d	-0.022367561
152	0x3e09fa2a	0.13474336
153	0x3e1f3089	0.15545858
154	0x3d4dc4f6	0.050236665
155	0xbd74c7d3	-0.05976088
156	0x3e4cef8f	0.2001326
157	0x3d20ec34	0.03928776
158	0xbd39a9a8	-0.045327812
159	0xbdc04d2a	-0.09389718
160	0x3d6e0cd1	0.05811769
161	0x3ddfe31e	0.10931991
162	0x3d80fefe	0.06298636
163	0xbe146684	-0.14492232
164	0x3d0c8c7b	0.03431366
165	0x3e204653	0.15651827
166	0xbd6f1be2	-0.0583762
167	0x3e0bad28	0.13640273
168	0x3dc71a98	0.09721869
169	0x3dd71594	0.105021626
170	0xbdb9f0c5	-0.09079126
171	0x3d8301f7	0.06396859
172	0x3dae3999	0.0850708
173	0x3d543e8d	0.051817466
174	0x3d434c8e	0.04768043
175	0x3d8c885c	0.06861946
176	0xbc272e19	-0.010203862
177	0xbdd47ffe	-0.10375975
178	0x3dea0810	0.11427319
179	0x3dac03b3	0.08399143
180	0xbdeddde8	-0.11614591
181	0x3d60169b	0.05470906
182	0xbdc5b3e4	-0.09653452
183	0xbdc49f4a	-0.096006945
184	0xbdc76fe0	-0.09738135
185	0xbd9c350b	-0.07627305
186	0xbe0b0421	-0.13575794
187	0xbe49e72b	-0.1971709
188	0xbddbc966	-0.10731773
189	0xbe19c9a5	-0.15018328
190	0xbd34368c	-0.043997332
191	0x3d628630	0.055303752
192	0xbd7a9f14	-0.061186865
193	0x3d12672a	0.035742916
194	0x3de8d6ca	0.11369093
195	0xbe0fed27	-0.1405531
196	0xbd01b803	-0.031669628
197	0xbdf8286a	-0.12117083
198	0xbe2ce3d0	-0.16883779
199	0xbd34f9c2	-0.0441835
200	0xbd36b196	-0.044602953
201	0x3d665cd9	0.05624089
202	0x3c2a2f51	0.010387258
203	0xbcd2a911	-0.025715383
204	0xbdc34232	-0.0953411
205	0xbd1fb71a	-0.03899298
206	0xbd35fe87	-0.04443219
207	0x3e007e3c	0.12548155
208	0xbcfdeb67	-0.030996038
209	0x3e0b5218	0.13605535
210	0x3bd817b8	0.0065946244
211	0x3db13e9b	0.08654519
212	0x3ce5b52b	0.02804049
213	0xbdf5d38d	-0.12003241
214	0x3dbaa23f	0.09112977
215	0x3db19809	0.086715765
216	0xbd6d162d	-0.057882477
217	0xbe29a59a	-0.16567078
218	0xbdfc01bc	-0.12305018
219	0xbdbab97e	-0.09117411
220	0xbe461e37	-0.19347464
221	0xbd842238	-0.06451839
222	0x3d3cccd6	0.046093784
223	0x3cfe0e3a	0.031012643
224	0x3e07b6e0	0.13253355
225	0x3de7c03d	0.113159634
226	0xbd889686	-0.06669335
227	0xbdb982e6	-0.0905817
228	0xbd3bc12c	-0.04583852
229	0x3e18c192	0.14917591
230	0xbc2775dc	-0.010220971
231	0x3db56e7a	0.08858962
232	0x3ddc4b5e	0.10756563
233	0xbade8701	-0.001697749
234	0x3cb00177	0.021485073
235	0x3cabd668	0.02097626
236	0x3dece4b2	0.11567058
237	0x3d905809	0.070480414
238	0xbd6cf403	-0.057849895
239	0x3e06f412	0.13179043
240	0xbd5c0820	-0.053718686
241	0xbbf1331a	-0.007360828
242	0xbdb845eb	-0.08997711
243	0x3e155a22	0.14585164
244	0xbe02efb2	-0.12786749
245	0x3d87e1b0	0.06634843
246	0xbcd773ab	-0.026300272
247	0x3e39e322	0.1815305
248	0x3dc54eb1	0.0963415
249	0x39ec7d33	0.00045106708
250	0x3d88b5d8	0.06675309
251	0xbddf5181	-0.109042175
252	0x3df63159	0.12021131
253	0x3da7a4a6	0.08185701
254	0x3e1f3006	0.15545663
255	0x3e1f6ad3	0.15568094

model.2.bias f4 [64]
0	0x00000000	0.0
1	0x00000000	0.0
2	0x00000000	0.0
3	0x00000000	0.0
4	0x00000000	0.0
5	0x00000000	0.0
6	0x00000000	0.0
7	0x00000000	0.0
8	0x00000000	0.0
9	0x00000000	0.0
10	0x00000000	0.0
11	0x00000000	0.0
12	0x00000000	0.0
13	0x00000000	0.0
14	0x00000000	0.0
15	0x00000000	0.0
16	0x00000000	0.0
17	0x00000000	0.0
18	0x00000000	0.0
19	0x00000000	0.0
20	0x00000000	0.0
21	0x00000000	0.0
22	0x00000000	0.0
23	0x00000000	0.0
24	0x00000000	0.0
25	0x00000000	0.0
26	0x00000000	0.0
27	0x00000000	0.0
28	0x00000000	0.0
29	0x00000000	0.0
30	0x00000000	0.0
31	0x00000000	0.0
32	0x00000000	0.0
33	0x00000000	0.0
34	0x00000000	0.0
35	0x00000000	0.0
36	0x00000000	0.0
37	0x00000000	0.0
38	0x00000000	0.0
39	0x00000000	0.0
40	0x00000000	0.0
41	0x00000000	0.0
42	0x00000000	0.0
43	0x00000000	0.0
44	0x00000000	0.0
45	0x00000000	0.0
46	0x00000000	0.0
47	0x00000000	0.0
48	0x00000000	0.0
49	0x00000000	0.0
50	0x00000000	0.0
51	0x00000000	0.0
52	0x00000000	0.0
53	0x00000000	0.0
54	0x00000000	0.0
55	0x00000000	0.0
56	0x00000000	0.0
57	0x00000000	0.0
58	0x00000000	0.0
59	0x00000000	0.0
60	0x00000000	0.0
61	0x00000000	0.0
62	0x00000000	0.0
63	0x00000000	0.0

model.2.A f4 [3, 3, 3]
0	0xbeeecdf0	-0.46641493
1	0x3f0cf385	0.5505908
2	0x3e277789	0.16354193
3	0x3ee7348f	0.45157287
4	0xbe8a1755	-0.26970926
5	0xbe7280d1	-0.23681952
6	0x3ea842d3	0.32863483
7	0xbeee4da1	-0.465436
8	0x3e9f2330	0.31081533
9	0xbe9b98a3	-0.3038989
10	0xbedcacb6	-0.43100518
11	0x3d755bf0	0.05990213
12	0x3de96806	0.11396794
13	0xbece5338	-0.40297866
14	0x3e5dac6f	0.2164781
15	0xbe8fa471	-0.28055146
16	0xbeaab4c1	-0.3334103
17	0xbd20890e	-0.039193206
18	0x3e9001d4	0.28126395
19	0x3f02031d	0.50786
20	0xbee946a3	-0.45561704
21	0xbde3c902	-0.111223236
22	0xbe12849c	-0.14308399
23	0xbe6ecbdd	-0.23319955
24	0xbe93c7cb	-0.28863367
25	0xbef7d549	-0.4840491
26	0x3d982483	0.07428839

model.2.F f4 [3, 21, 21, 3, 3]
0	0x3c8a2d2e	0.016867246
1	0xbcd78d8f	-0.026312618
2	0xbcfb2ab7	-0.030660016
3	0xbc7534a9	-0.014966168
4	0xbc4d3d04	-0.012526754
5	0x3c07b2ce	0.008282376
6	0xbccf7741	-0.02532542
7	0x3ced8246	0.028992783
8	0xbc2d2ed3	-0.010570246
9	0x3bb9e076	0.00567251
10	0xbcdc0e6b	-0.026862344
11	0xba8a8b97	-0.0010570165
12	0xbc089df8	-0.008338444
13	0xbc4172bb	-0.011807139
14	0xb997e890	-0.00028974237
15	0xbd161ba5	-0.036647458
16	0xbc2ec270	-0.010666475
17	0x3c30c1ed	0.010788423
18	0xbcaaca9d	-0.020848567
19	0xbcc802d4	-0.024415411
20	0x3d172d93	0.036908697
21	0xbc7c61a6	-0.015404141
22	0xbcf3f1d5	-0.0297784
23	0x3bf23d0b	0.007392531
24	0x3ce99f32	0.028518293
25	0x3cf1791d	0.029476697
26	0x3c835a14	0.016034164
27	0x3ce02113	0.027359521
28	0xbc10c60a	-0.008836279
29	0x3c97e6c5	0.018542657
30	0x3cc3e887	0.023914589
31	0xbcfd081f	-0.030887662
32	0xbbbabbf1	-0.005698674
33	0x3cac3092	0.021019254
34	0xbc29a984	-0.010355357
35	0x3afceb6f	0.0019296239
36	0x3bd7ae05	0.006582024
37	0xbcc5d89f	-0.024151145
38	0x3c6fa759	0.014627301
39	0xbc82f84d	-0.01598754
40	0x3bdd4e37	0.0067537087
41	0x3d39165e	0.045187347
42	0xbc6591d2	-0.014011817
43	0xbc6861fa	-0.014183516
44	0xb828be4d	-4.0231553e-05
45	0xbcc0153b	-0.023447623
46	0xbd6a035b	-0.057132106
47	0xbcd85d95	-0.02641181
48	0x3c08fb0f	0.008360638
49	0xbc4482b0	-0.011994049
50	0xbca5c6a7	-0.020236326
51	0xbb226e5e	-0.0024785022
52	0xbc825792	-0.015910897
53	0x3c80a6b0	0.015704483
54	0x3cbde37e	0.023179766
55	0xbc7fad7a	-0.015605325
56	0xba9fd660	-0.0012194626
57	0x3ac2548d	0.0014826223
58	0x3c061ae9	0.008185127
59	0xbc9ede1a	-0.019393016
60	0x3d2503a5	0.04028668
61	0x3ccb801a	0.024841357
62	0x3d4e463a	0.050359942
63	0x3cf1b4e5	0.029505203
64	0xbcc98d40	-0.024603486
65	0xbcbae524	-0.02281434
66	0x3d076970	0.033059537
67	0x3ba82bca	0.005132173
68	0x3cba909b	0.022774031
69	0x3caabc0d	0.020841623
70	0x3c072e1e	0.008250741
71	0x3a3a332b	0.00071029615
72	0x3c4921f0	0.012276158
73	0xbd18f5ba	-0.037343718
74	0xbc641ce2	-0.013922902
75	0xbd05d616	-0.03267487
76	0x3b6e715f	0.0036383492
77	0xbbe9c866	-0.007134485
78	0x3ca1b585	0.019739876
79	0x3c3be7f3	0.011468875
80	0x3bf91252	0.007601061
81	0xbd088d54	-0.033337906
82	0x3d3f144a	0.04665021
83	0xbd39d27e	-0.045366757
84	0xbcce7968	-0.025204375
85	0xbb111a67	-0.002214098
86	0xbd0f6e13	-0.035017084
87	0x3cc48a4d	0.023991728
88	0x3cd8db7a	0.026471842
89	0x3b324d74	0.002720681
90	0xbb3aac88	-0.0028484184
91	0xbcafe5ab	-0.021471819
92	0x3c100e7a	0.008792514
93	0xbbe36a97	-0.0069401967
94	0xbd40d447	-0.047077443
95	0x3bb93b58	0.0056528263
96	0x3c447143	0.011989894
97	0xbc10d21a	-0.008839155
98	0x3cb02d24	0.0215059
99	0xbd149443	-0.036274206
100	0x3c832368	0.016008094
101	0xbc69749f	-0.014248996
102	0xbbc2b6de	-0.0059422096
103	0xbd06d379	-0.03291652
104	0xbd1b747b	-0.03795288
105	0x3c484852	0.012224274
106	0xbb46e1b3	-0.003034693
107	0xba2877d8	-0.00064265495
108	0x3bbd0bd5	0.0057692328
109	0xbc4355e8	-0.011922337
110	0xbccb0b9a	-0.024785805
111	0xbc801987	-0.015637172
112	0x3ba76145	0.005108031
113	0x3cad8921	0.021183552
114	0xba097570	-0.0005243635
115	0x3b39ac56	0.002833148
116	0xbcc066b6	-0.023486476
117	0x3af85b20	0.0018948056
118	0xbc810e6e	-0.01575395
119	0xbc149a35	-0.009069969
120	0xbd374d0a	-0.044751205
121	0x3c9a1643	0.018809443
122	0x3d15d8ac	0.036583588
123	0x3c0a23c0	0.008431375
124	0x3c66d353	0.01408847
125	0x3d678b86	0.056529544
126	0xbc0274cb	-0.007962416
127	0xbb6bb1a6	-0.003596404
128	0xbc43a072	-0.011940109
129	0xbc809763	-0.015697187
130	0x3d36ac8a	0.04459814
131	0xbb814600	-0.003945112
132	0x3ba5896b	0.005051782
133	0xbc87e6d5	-0.016589561
134	0xbbac0c57	-0.0052504945
135	0xbc2e5c37	-0.010642103
136	0x3c085f3e	0.008323489
137	0x3bf932c5	0.007604929
138	0xbd21e5ca	-0.039525785
139	0xbcc6d633	-0.02427206
140	0xbd684457	-0.0567058
141	0x3cba1878	0.022716746
142	0xbc1301cd	-0.008972597
143	0x3c4845d3	0.012223679
144	0x3b839af5	0.004016275
145	0x3b897cb1	0.0041957726
146	0xbcb872fc	-0.022515766
147	0xbd01b983	-0.03167106
148	0x3c9de3ba	0.019273628
149	0xbbc69ee8	-0.0060614236
150	0xbce4e846	-0.027942788
151	0x3cd84d28	0.026403978
152	0x3d02cf3e	0.031935923
153	0xbd368f57	-0.044570293
154	0x3c43b7e9	0.011945703
155	0x3d549423	0.051899087
156	0x3ca8ed84	0.020621069
157	0x3d81502d	0.063141204
158	0xbcb34924	-0.021885462
159	0x3ca7bd64	0.02047605
160	0x3b3f87e9	0.0029225296
161	0xbd16e560	-0.036839843
162	0xbb829c47	-0.003985915
163	0x3cf84383	0.03030563
164	0x3c1f3fe1	0.00971982
165	0xbb7d1a8a	-0.0038620555
166	0x3b801207	0.003908399
167	0xbd1a6977	-0.037698235
168	0x3cd8ae8c	0.026450418
169	0x3d329d35	0.043606956
170	0x3c55e388	0.013054736
171	0xbcd01e6d	-0.025405133
172	0x3b5dbde6	0.0033835112
173	0xbcc99cb8	-0.024610862
174	0xbca2cfb2	-0.019874427
175	0x3d1dc71d	0.038519967
176	0xbcf5c7c9	-0.030002492
177	0xbd1c58f3	-0.038170766
178	0x3b8ca0ee	0.0042916453
179	0x3ba1b467	0.0049348357
180	0x3b03202a	0.0020008185
181	0xbd2f6521	-0.042821053
182	0xbc93841e	-0.018007334
183	0x3d0406de	0.03223311
184	0x3c279611	0.01022865
185	0x391f1adb	0.00015173426
186	0xbd36e3ba	-0.04465077
187	0x3d47a93a	0.04874537
188	0x3c69a5aa	0.014260689
189	0x3bc12f24	0.005895512
190	0x3cabbaab	0.020963034
191	0xbafba1a2	-0.0019197951
192	0x3d477e96	0.048704706
193	0x3bd5253f	0.006504684
194	0x3ca63fc2	0.020294074
195	0x3c7fbaab	0.01560847
196	0x3bdb8021	0.0066986238
197	0xb9cf2aed	-0.000395141
198	0x3c54eb9d	0.012995628
199	0x3b3f1b3d	0.0029160522
200	0xbc390c24	-0.011294398
201	0xbcc37ffc	-0.023864739
202	0x3b8f89ed	0.0043804557
203	0x3d55c3b2	0.052188583
204	0xbb064128	-0.0020485613
205	0xbcf585ae	-0.02997097
206	0xbd13104f	-0.035904225
207	0x3c0b271b	0.00849321
208	0x3cf053cc	0.029336832
209	0xba452280	-0.00075200945
210	0x3c9923c1	0.018693807
211	0xbd1ef850	-0.038811028
212	0x3c79cc5d	0.015246478
213	0xbd100c66	-0.035168074
214	0xbd29a032	-0.04141254
215	0xbcae3bc2	-0.02126873
216	0x3cfbb922	0.030727927
217	0xbb7095d0	-0.003671039
218	0xbb430601	-0.0029758217
219	0x3ccc74ac	0.024957977
220	0xb9370492	-0.00017453943
221	0xbc721002	-0.014774324
222	0x3d3df52d	0.046376396
223	0xbc023eb5	-0.007949521
224	0xbcb13ce1	-0.021635475
225	0x3b32fc61	0.0027311074
226	0x3d1acf8f	0.0377956
227	0xbc7925c6	-0.01520676
228	0xb9b5f3bb	-0.00034704604
229	0x3d38ea52	0.04514534
230	0x3c891a90	0.016736299
231	0x3bfb74a0	0.007673815
232	0xba923f61	-0.0011157804
233	0x3c4e35b4	0.012586046
234	0xbcaf565f	-0.02140349
235	0x3b4c7a0a	0.003120067
236	0x3c8cec3e	0.017202493
237	0x3b33da48	0.0027443338
238	0x3b65396c	0.0034976853
239	0x3c742c26	0.014903104
240	0xbcc47db2	-0.023985717
241	0x3ce35308	0.027749553
242	0x3c11e396	0.008904358
243	0xbca77db2	-0.020445678
244	0xbd42c026	-0.04754653
245	0x3b09098a	0.0020910227
246	0x3d0ddb59	0.034633014
247	0x3bfe5481	0.0077615385
248	0xbc83ac7a	-0.016073454
249	0x3afccc7d	0.0019287016
250	0xbcc6c807	-0.024265302
251	0x3c5e4129	0.01356534
252	0x3c295286	0.0103346165
253	0xbaa2204c	-0.0012369244
254	0xbce42455	-0.027849356
255	0xbc8a2044	-0.016861089

model.3.weight f4 [63]
0	0x3ec3678d	0.3816494
1	0x3f4aefa7	0.7927193
2	0x3ee1ac5e	0.44076818
3	0x3ea43c0b	0.3207706
4	0x3dabd9b3	0.08391132
5	0x3f5de6f5	0.8668054
6	0x3df4f274	0.11960307
7	0x3f50102b	0.8127467
8	0x3e17f07f	0.14837836
9	0x3e97e978	0.2967031
10	0x3f1fc2fe	0.6240691
11	0x3e5a5e03	0.21324925
12	0x3f560a41	0.83609396
13	0x3f783fcd	0.9697235
14	0x3f489adc	0.78361297
15	0x3ed9d649	0.425463
16	0x3f26c3e7	0.65142673
17	0x3de2ad37	0.11068194
18	0x3eed230f	0.4631581
19	0x3e558fc1	0.20855619
20	0x3e641aad	0.22275801
21	0x3f243dc4	0.64156747
22	0x3f39fb3f	0.72648996
23	0x3f63c961	0.88979155
24	0x3f57ab0f	0.8424539
25	0x3f1daec8	0.6159482
26	0x3ea8316d	0.3285021
27	0x3ec40659	0.38286093
28	0x3ed10dfb	0.4083098
29	0x3e1b2664	0.15151364
30	0x3e9e3255	0.30897775
31	0x3e066b6d	0.13126917
32	0x3f3faa9f	0.7486972
33	0x3f0d82db	0.55277795
34	0x3f199ef3	0.6000816
35	0x3e8596ea	0.260917
36	0x3f543617	0.82895035
37	0x3e6b4d11	0.22978617
38	0x3e93b391	0.28847936
39	0x3f406178	0.75148726
40	0x3f2affef	0.66796774
41	0x3f275a6e	0.6537236
42	0x3e6b8682	0.2300053
43	0x3f212b6a	0.6295687
44	0x3ed11c47	0.40841886
45	0x3ecb79e6	0.3974144
46	0x3f76656a	0.96248496
47	0x3ed2ce02	0.41172796
48	0x3e3c03c9	0.18360819
49	0x3f6ac280	0.91703033
50	0x3e55e35a	0.20887509
51	0x3e74337e	0.23847768
52	0x3ea1ac49	0.31576756
53	0x3f6efa0a	0.9335028
54	0x3f755d01	0.9584504
55	0x3f62e89d	0.8863619
56	0x3e133a09	0.14377607
57	0x3ecf98e7	0.40546343
58	0x3ebb3819	0.36566237
59	0x3f4bf64d	0.796727
60	0x3e9f19a2	0.31074244
61	0x3ed3f4ae	0.41397613
62	0x3f6de029	0.92920166

model.3.bias f4 [63]
0	0x3d8d2e9a	0.06893654
1	0x3e017780	0.12643242
2	0x3da718a5	0.081589974
3	0x3d60ee7c	0.054914936
4	0xbc6b8860	-0.014375776
5	0x3dd7f45c	0.10544655
6	0xbd022143	-0.031770002
7	0x3cb56559	0.022143053
8	0x3e102de5	0.14080007
9	0x3def4a69	0.116841145
10	0x3e69c2ef	0.22828268
11	0x3d1034c3	0.035206567
12	0x3dda0a1e	0.10646461
13	0xbcc93e5d	-0.02456587
14	0xbca8acd3	-0.020590222
15	0x3d3284d6	0.043583713
16	0xbb19ef38	-0.0023488533
17	0x3dc1d4d4	0.09464422
18	0xb9a98a48	-0.0003233722
19	0xbd002a2b	-0.031290215
20	0x3da8ae65	0.08236388
21	0x3d71ed6b	0.05906431
22	0xbc82052b	-0.015871605
23	0x3d7e8afa	0.062144257
24	0x3d9c3512	0.0762731
25	0x3dc8d5cc	0.098064035
26	0x3db243d2	0.08704342
27	0x3de2a12b	0.110658966
28	0x3d993f6f	0.07482802
29	0x3d45deeb	0.048308294
30	0x3d38b12d	0.045090843
31	0xbd4569ee	-0.048196726
32	0xbd4e13c0	-0.050311804
33	0xbd1beda7	-0.03806844
34	0xbc7eae42	-0.015544476
35	0x3d6e8ae6	0.058237933
36	0x3e0cb235	0.13739856
37	0x3c9ffacd	0.01952877
38	0xbcc5a021	-0.024124207
39	0x3e20c3bb	0.15699665
40	0xbc09c861	-0.00840959
41	0xbd050c9a	-0.03248272
42	0x3da935f8	0.08262247
43	0xbda72fef	-0.081634395
44	0x3e063ba0	0.13108683
45	0x3d5b7d24	0.05358614
46	0x3dc28cee	0.094995365
47	0x3d94f98c	0.0727416
48	0x3e38e0d2	0.18054512
49	0x3de73eda	0.11291285
50	0x3e542f90	0.20721269
51	0x3e0d19fa	0.1377944
52	0xbd10884f	-0.035286244
53	0xbd447078	-0.04795882
54	0xbdb180eb	-0.08667167
55	0xbb43220b	-0.002977493
56	0x3d2aa6a1	0.041662816
57	0x3d063cea	0.032772936
58	0xbbf654c1	-0.0075174277
59	0xbd6b5679	-0.057455514
60	0x3d11bd4c	0.03558092
61	0x3d0b56f6	0.03401848
62	0xbd45e7ec	-0.04831688

model.3.running_mean f4 [63]
0	0x3c364792	0.011125462
1	0xbdb5c818	-0.088760555
2	0xbd7c8fd3	-0.0616606
3	0x3ce56952	0.028004322
4	0x3da3ed1f	0.08004212
5	0xbdafc8b8	-0.08583206
6	0x3cfa247a	0.030534972
7	0x3d939ee1	0.07208038
8	0x3c1ad7e5	0.009450887
9	0x3c3571c5	0.011074488
10	0xbd9b8d04	-0.07595256
11	0xbdf2d692	-0.11857332
12	0xbdbfc9c8	-0.093646586
13	0x3dd3ba4b	0.10338267
14	0x3de985df	0.11402487
15	0x3d837f3e	0.06420754
16	0x3d88f681	0.06687642
17	0xbd30a1d1	-0.04312307
18	0x3db64b47	0.08901077
19	0x3d671bac	0.056422874
20	0xbd1b6799	-0.037940595
21	0xbd7f5575	-0.062337358
22	0x3d87be9c	0.06628153
23	0xbd9962ac	-0.07489523
24	0xbd242425	-0.040073533
25	0xbd16d4c6	-0.03682401
26	0xbcf4150d	-0.029795194
27	0xbd1032a7	-0.035204556
28	0xbd0d3835	-0.03447743
29	0xbd29a7ad	-0.041419674
30	0xbd196ca1	-0.037457112
31	0x3d39794b	0.04528169
32	0x3d28dda1	0.041226987
33	0x3dc33476	0.095314905
34	0x3db68204	0.08911517
35	0xbd4a0917	-0.049325075
36	0xbd4bde26	-0.049772404
37	0xbc8b4825	-0.017002175
38	0x3de5ef35	0.11227266
39	0xbd4aa93a	-0.049477793
40	0x3d10dde9	0.03536788
41	0x3d567d63	0.05236567
42	0xbd294539	-0.04132578
43	0x3dc76206	0.09735493
44	0xbd411624	-0.047140256
45	0xbdbe2d53	-0.09285989
46	0xbdbb5976	-0.09147923
47	0xbdc12e6c	-0.094326824
48	0xbd102657	-0.035192814
49	0xbdd6cf80	-0.10488796
50	0xbd0f471b	-0.03497992
51	0xbcf1941e	-0.029489573
52	0x3d955db5	0.07293264
53	0x3dc14e4b	0.09438761
54	0x3e1d8d85	0.15386017
55	0x3dcc83d2	0.0998608
56	0xbc8e7234	-0.01738844
57	0x3d0f535f	0.03499162
58	0x3d8675cc	0.06565437
59	0x3dbaf94e	0.09129582
60	0xbd191132	-0.037369914
61	0x3d01d9be	0.031701796
62	0x3d9a9fc7	0.07550006

model.3.running_var f4 [63]
0	0x3a6580eb	0.0008754867
1	0x3b3c31b6	0.0028716153
2	0x3ae032ee	0.0017105022
3	0x39e2c227	0.00043250734
4	0x3b11f3d7	0.0022270584
5	0x3b26a907	0.0025430338
6	0x3a0b1d01	0.0005306751
7	0x3b02900f	0.0019922291
8	0x390f1005	0.0001364351
9	0x397565d6	0.00023402958
10	0x3b0ad714	0.0021185325
11	0x3ba7dd6a	0.00512283
12	0x3b4c3b27	0.0031163187
13	0x3b7462f6	0.003729043
14	0x3b95d4ba	0.004572478
15	0x3ae954fb	0.0017801815
16	0x3acf9603	0.0015837554
17	0x3a818d4e	0.0009884031
18	0x3b41d123	0.0029574118
19	0x3abc0199	0.0014343738
20	0x3a4e3cd4	0.00078673405
21	0x3ab2828c	0.0013619228
22	0x3ab47b8b	0.0013769729
23	0x3b0650fa	0.0020495043
24	0x3a2cdae3	0.0006593896
25	0x39ff2e5c	0.0004867193
26	0x39c9c50f	0.00038484528
27	0x3a0e7873	0.00054348184
28	0x39e7518c	0.0004412051
29	0x3a41aff8	0.0007388587
30	0x3a23aa9c	0.00062433793
31	0x3a476973	0.0007606961
32	0x3a1d06fc	0.00059901155
33	0x3b4c7db3	0.0031202852
34	0x3b3b5e9a	0.0028590322
35	0x3a3e8cdc	0.00072689145
36	0x3a75ca4c	0.0009376153
37	0x392c3aad	0.00016425057
38	0x3b8e751c	0.0043474566
39	0x3a81b72c	0.0009896508
40	0x3a02f1bf	0.00049951294
41	0x3a84b4be	0.0010124666
42	0x3a3d0314	0.00072102365
43	0x3b579f87	0.0032901482
44	0x3a5b4bf6	0.0008365506
45	0x3b3eb7dd	0.002910129
46	0x3b409c7d	0.002939015
47	0x3b489a70	0.003060963
48	0x3a05c69d	0.0005103143
49	0x3b83180d	0.00400067
50	0x3a0bc5da	0.00053319114
51	0x39ae6ff1	0.0003327127
52	0x3af58f74	0.0018734769
53	0x3b490665	0.0030673977
54	0x3c088ccf	0.008334353
55	0x3b66666c	0.0035156263
56	0x394d29e5	0.0001956593
57	0x39f1847e	0.00046065816
58	0x3acfe34b	0.0015860585
59	0x3b391fd8	0.002824774
60	0x3a2924b5	0.0006452308
61	0x39d7239d	0.0004103453
62	0x3b046f8d	0.002020809

model.5.bias f4 [64]
0	0x00000000	0.0
1	0x00000000	0.0
2	0x00000000	0.0
3	0x00000000	0.0
4	0x00000000	0.0
5	0x00000000	0.0
6	0x00000000	0.0
7	0x00000000	0.0
8	0x00000000	0.0
9	0x00000000	0.0
10	0x00000000	0.0
11	0x00000000	0.0
12	0x00000000	0.0
13	0x00000000	0.0
14	0x00000000	0.0
15	0x00000000	0.0
16	0x00000000	0.0
17	0x00000000	0.0
18	0x00000000	0.0
19	0x00000000	0.0
20	0x00000000	0.0
21	0x00000000	0.0
22	0x00000000	0.0
23	0x00000000	0.0
24	0x00000000	0.0
25	0x00000000	0.0
26	0x00000000	0.0
27	0x00000000	0.0
28	0x00000000	0.0
29	0x00000000	0.0
30	0x00000000	0.0
31	0x00000000	0.0
32	0x00000000	0.0
33	0x00000000	0.0
34	0x00000000	0.0
35	0x00000000	0.0
36	0x00000000	0.0
37	0x00000000	0.0
38	0x00000000	0.0
39	0x00000000	0.0
40	0x00000000	0.0
41	0x00000000	0.0
42	0x00000000	0.0
43	0x00000000	0.0
44	0x00000000	0.0
45	0x00000000	0.0
46	0x00000000	0.0
47	0x00000000	0.0
48	0x00000000	0.0
49	0x00000000	0.0
50	0x00000000	0.0
51	0x00000000	0.0
52	0x00000000	0.0
53	0x00000000	0.0
54	0x00000000	0.0
55	0x00000000	0.0
56	0x00000000	0.0
57	0x00000000	0.0
58	0x00000000	0.0
59	0x00000000	0.0
60	0x00000000	0.0
61	0x00000000	0.0
62	0x00000000	0.0
63	0x00000000	0.0

model.5.A f4 [3, 3, 3]
0	0xbe6437cf	-0.22286914
1	0xbdfcb1ca	-0.12338598
2	0xbee5511e	-0.4478845
3	0x3ef6e792	0.4822355
4	0x3d3e4061	0.046448115
5	0xbf04246c	-0.51618075
6	0xbf060e13	-0.52365226
7	0xbdbefd56	-0.09325664
8	0xbf08cf5d	-0.5344141
9	0xbe0aa1f6	-0.13538346
10	0xbe308657	-0.17238747
11	0x3f010d6f	0.50411123
12	0xbef11169	-0.47083595
13	0xbf03dc02	-0.5150758
14	0x3dada8b1	0.08479441
15	0xbbf851bf	-0.0075781043
16	0xbed3bb5c	-0.4135388
17	0xbee1c831	-0.44098046
18	0xbf003aeb	-0.500899
19	0x3e15aa3e	0.14615723
20	0xbea2e3ff	-0.31814572
21	0x3ee75d3c	0.4518832
22	0x3df46bc5	0.11934618
23	0x3efc44cb	0.49271235
24	0xbd23be19	-0.039976213
25	0x3f00c926	0.5030693
26	0x3d487baf	0.04894608

model.5.F f4 [3, 21, 21, 3, 3]
0	0xbbc5a4c1	-0.006031603
1	0x3b2594b5	0.0025265638
2	0x3d2f0d6c	0.04273741
3	0x39a3faea	0.00031276728
4	0xbb6d5667	-0.003621483
5	0x3c5690e9	0.013096073
6	0xbbd984f5	-0.006638164
7	0xbc42658f	-0.011865034
8	0xbcf40ce6	-0.029791307
9	0xbbd111c6	-0.0063802926
10	0x3d0db4c1	0.03459621
11	0x3d138e12	0.03602416
12	0x3cde8854	0.027164616
13	0xbd22e1b0	-0.039766014
14	0x3d1f276e	0.038855962
15	0xbc4e851e	-0.01260498
16	0x3cbddb5f	0.023175893
17	0x3ced576d	0.028972352
18	0x3ccb94cd	0.024851227
19	0x3c8e6322	0.017381255
20	0xb8f78e0f	-0.00011804338
21	0x3c906009	0.017623918
22	0x3d0a865f	0.033819553
23	0x3cc595d8	0.024119303
24	0xbccccc2c	-0.0249997
25	0x3cc3c7c1	0.023898961
26	0x3bc3437c	0.0059589725
27	0x3d50a705	0.050940532
28	0xbca0e3e5	-0.019639919
29	0x3c75794a	0.014982531
30	0x3c23b9f4	0.009993065
31	0x3cb48b12	0.02203897
32	0x3cb58901	0.022160055
33	0xbc0343f8	-0.0080118105
34	0xbc33a6d3	-0.010965067
35	0x3d1262d8	0.035738796
36	0x3bab5537	0.0052286643
37	0x3ae80531	0.0017701742
38	0x3ce7ddcd	0.028304005
39	0xbc57cc0c	-0.013171207
40	0x3d379bf4	0.044826463
41	0xbb8bcda6	-0.0042664586
42	0x3ca060d1	0.019577416
43	0xbcdb3073	-0.0267565
44	0x3bd91d2c	0.006625792
45	0xbc4e35b5	-0.012586047
46	0x3d16a2f6	0.036776505
47	0x3c90f791	0.017696174
48	0xbd03fbdc	-0.032222614
49	0xbcd893d8	-0.026437685
50	0x3cc7a938	0.024372682
51	0x3c0a157f	0.008427977
52	0xba7bfa1b	-0.0009612159
53	0x3cc2ff80	0.023803473
54	0x3c6db39b	0.014508153
55	0x3c968652	0.018374596
56	0x3cfddd56	0.03098933
57	0x3d45839b	0.048221212
58	0xbd244e6b	-0.040113848
59	0xbbc523ec	-0.006016245
60	0xba99d6d4	-0.0011736997
61	0x3d36c2f2	0.044619508
62	0xba9c6f40	-0.001193501
63	0x3b6b0b05	0.0035864722
64	0x3c0b2e01	0.008494855
65	0x3cffe615	0.031237641
66	0x3c002b9d	0.007822898
67	0x3a3bb7b2	0.00071608566
68	0x3d1293bf	0.035785433
69	0xbc90735a	-0.017633129
70	0x3b0e3f90	0.0021705367
71	0xbd153551	-0.0364278
72	0xbc93b4d0	-0.018030554
73	0x3b65ca96	0.0035063378
74	0x3cbec1c6	0.023285758
75	0xbae6e890	-0.0017616916
76	0x3b8e0fff	0.004335403
77	0xbbce196f	-0.006289653
78	0xba0d6166	-0.00053932366
79	0x3d89d229	0.06729538
80	0xbcc2d05e	-0.023780998
81	0xbc323516	-0.0108769145
82	0x3d13e91d	0.036110986
83	0xbcf30d4d	-0.029669428
84	0xbd545769	-0.051841173
85	0x3c66554e	0.014058424
86	0x3af52ff9	0.0018706314
87	0x3c6ceb4c	0.014460396
88	0xbb410eaa	-0.0029458203
89	0xbb8650b5	-0.0040989765
90	0xbb739b50	-0.003717143
91	0x3b20317f	0.0024443564
92	0x3bbb9a2c	0.005725166
93	0xbcdbf867	-0.026851846
94	0xbba45b10	-0.0050157383
95	0x3cf0d0e4	0.029396482
96	0x3c6e688f	0.014551296
97	0x3b371220	0.0027934387
98	0xbaaf02ba	-0.0013352253
99	0x3cb5edca	0.022208113
100	0xbc859090	-0.016304284
101	0xbd0399fb	-0.03212927
102	0x3c01134d	0.007878137
103	0x3be85325	0.0070899897
104	0x3cb34aaa	0.021886189
105	0xbb69774e	-0.003562409
106	0xbd26f308	-0.040759116
107	0xbcde8c39	-0.027166473
108	0xbc5c873d	-0.013459978
109	0xbd15e0d3	-0.036591362
110	0xbc703a87	-0.0146623915
111	0x3c9568b4	0.018238403
112	0xbd02cee1	-0.031935576
113	0x3b9adce8	0.004726041
114	0x3c9fa8cf	0.019489674
115	0xbba00245	-0.004883083
116	0x3ca5506b	0.020179948
117	0xbcd7ff73	-0.026366925
118	0xbad462f4	-0.0016203807
119	0xbc797e60	-0.015227884
120	0x3c9abd69	0.018889146
121	0xbcc92f72	-0.024558757
122	0x3a15e98f	0.0005718702
123	0xbceaae15	-0.028647462
124	0x3c66126c	0.014042478
125	0x3c99550c	0.018717311
126	0xbd11789f	-0.035515424
127	0xbcc3b5fe	-0.023890492
128	0xbcf3abdf	-0.02974504
129	0xbd6bfaa4	-0.057612076
130	0xbc1d697c	-0.009607669
131	0xbd07cc57	-0.033153858
132	0xbd5a94b9	-0.05336449
133	0xbd3a3ed4	-0.045470074
134	0xbcb7a11e	-0.022415694
135	0x3cba5527	0.022745682
136	0x3b6b03a9	0.0035860336
137	0x3ce800d9	0.028320717
138	0xb90a0aa8	-0.00013164675
139	0x3c248f21	0.01004389
140	0x3c9da185	0.019242058
141	0x3c3e8cb8	0.01163023
142	0xbc67da62	-0.014151188
143	0x3cf7cd45	0.030249247
144	0xbb6137db	-0.0034365568
145	0xba396534	-0.00070722704
146	0x3ca67484	0.02031923
147	0x3cd28846	0.025699746
148	0x3c7ddcf8	0.015494578
149	0x3c7a7737	0.015287212
150	0x3c93f295	0.018060008
151	0x3d13a64e	0.036047272
152	0x3aa159b1	0.0012310055
153	0x3b9a6080	0.0047112107
154	0xbc7c70fe	-0.015407799
155	0xbad6f5fe	-0.0016400216
156	0xbcee3725	-0.02907903
157	0x3cb4e65d	0.022082502
158	0x3c7e1bb0	0.015509531
159	0xbd031a8e	-0.032007746
160	0x3c6c834d	0.014435601
161	0xbccfd2fd	-0.025369162
162	0xbbfe95cc	-0.007769322
163	0x3c68e563	0.014214846
164	0xbc892a43	-0.016743785
165	0xbd677141	-0.05650449
166	0xbd01e3b4	-0.031711295
167	0xbd2f6500	-0.04282093
168	0x3c99b1fc	0.018761627
169	0xbbc1b38c	-0.0059112962
170	0xbb611e0e	-0.003435019
171	0xbcbef5ab	-0.023310503
172	0x3c6c5f25	0.014426981
173	0x3b3cee6f	0.002882864
174	0xbd22b2a8	-0.03972116
175	0x3c6df188	0.014522918
176	0xbcab637a	-0.020921458
177	0xbb854d30	-0.0040680394
178	0x3cf17bbe	0.02947795
179	0x3a24c3af	0.00062852626
180	0x3c828ded	0.015936816
181	0xbc5e9007	-0.0135841435
182	0xbc322f47	-0.01087553
183	0x3c03c1c0	0.008041799
184	0xbce06306	-0.027390968
185	0xbc2fb7cf	-0.010724976
186	0x3b12f7a6	0.0022425442
187	0xbb8e24da	-0.004337889
188	0x3d1194de	0.03554236
189	0x3a7e96fa	0.00097118283
190	0x3c3a4e42	0.011371197
191	0xbb9ed04e	-0.004846609
192	0xbc873206	-0.016503345
193	0x3cddd53b	0.027079215
194	0x3bf35678	0.0074260794
195	0x3d05c886	0.032661937
196	0x3cbb6e91	0.02287987
197	0x3c1fb2b9	0.009747201
198	0x3cf0f152	0.029411945
199	0x3ca09738	0.019603357
200	0xb9472f6b	-0.00018995783
201	0xbbdb867c	-0.0066993814
202	0xbc326a01	-0.010889531
203	0x3be43be6	0.0069651483
204	0x3c3044b3	0.010758567
205	0x3cd95ff3	0.02653501
206	0xbc3769a8	-0.011194624
207	0xbc37cc8d	-0.011218202
208	0x3cc94ca9	0.024572687
209	0x3cc96a70	0.024586886
210	0x3c5cc408	0.013474472
211	0xbcaeea2c	-0.021351896
212	0x3c2d4d40	0.0105775
213	0x3d08036a	0.03320638
214	0xbcb8baa8	-0.022549942
215	0xbc4b671f	-0.012414723
216	0x3ce08baa	0.027410347
217	0x3a989dc8	0.0011643702
218	0x3c2e56c1	0.010640801
219	0x3c285d78	0.010276191
220	0x3d0892ef	0.03334325
221	0x3c33854b	0.0109570725
222	0xbba9200a	-0.00516129
223	0x3d18ebcb	0.037334245
224	0xbc556f48	-0.01302702
225	0xbd11f702	-0.035635956
226	0xbc63d979	-0.01390683
227	0x3cabe6d2	0.020984087
228	0x3c7762c5	0.015099232
229	0x3cd1eb06	0.025624763
230	0xbcb8f245	-0.02257646
231	0xbd20cf53	-0.03926022
232	0xbb0e8f1a	-0.0021752776
233	0xbc67be6c	-0.014144521
234	0xbd24bb4c	-0.040217683
235	0x3d04e7ff	0.03244781
236	0xbb1bb408	-0.002375843
237	0xbcfb6a68	-0.030690387
238	0x3bda6ede	0.0066660484
239	0xbc8388bc	-0.016056411
240	0xbd034400	-0.03204727
241	0x3d035546	0.032063745
242	0xbbe7e347	-0.007076654
243	0xbc955578	-0.018229231
244	0xbd008faa	-0.03138701
245	0x3c668b6d	0.014071328
246	0x3a7f41cb	0.0009737282
247	0x3c4d10c6	0.012516206
248	0x392b1257	0.00016314663
249	0xbca34a9f	-0.019933043
250	0x3cbcfa2a	0.023068506
251	0xbb3c0d86	-0.0028694584
252	0x3cc7e858	0.024402782
253	0x3b38b9da	0.0028186948
254	0xbcb8fe46	-0.022582185
255	0x3c8ef805	0.01745225

model.6.weight f4 [63]
0	0x3f2b9e0a	0.67038023
1	0x3f1497e0	0.5804424
2	0x3f28e666	0.6597656
3	0x3f6eb6bc	0.9324758
4	0x3f2d2ba7	0.67644733
5	0x3f21f500	0.63264465
6	0x3f027a5e	0.5096797
7	0x3f155b04	0.58342004
8	0x3f3f0b21	0.74626356
9	0x3e97acd1	0.29624036
10	0x3e038f73	0.1284769
11	0x3e3af463	0.18257289
12	0x3f29f5c4	0.66390634
13	0x3eb88d83	0.36045465
14	0x3f6edc81	0.9330521
15	0x3f7234f1	0.9461203
16	0x3f58c65a	0.8467766
17	0x3f5b03f4	0.85552907
18	0x3e36ec14	0.17863494
19	0x3f75ed74	0.9606545
20	0x3db13d75	0.086543
21	0x3f358b39	0.7091556
22	0x3f512a42	0.81705105
23	0x3e025fb0	0.12731814
24	0x3e45c182	0.19312099
25	0x3f37568a	0.71616423
26	0x3ef713af	0.48257205
27	0x3f6d340a	0.9265753
28	0x3f5edaee	0.8705281
29	0x3f7d104b	0.98852986
30	0x3edf3827	0.43597528
31	0x3e38d3cd	0.18049546
32	0x3eaeec48	0.34164643
33	0x3e0c699f	0.13712166
34	0x3e0704cc	0.13185424
35	0x3efcc590	0.49369478
36	0x3e8a59bf	0.27021596
37	0x3e8c535d	0.2740735
38	0x3e901e0e	0.2814793
39	0x3f40c0d0	0.7529421
40	0x3ecd6824	0.40118515
41	0x3f4a80e8	0.79102945
42	0x3f3e2f30	0.7429075
43	0x3ed2ff71	0.4121051
44	0x3eb946d6	0.36186856
45	0x3efcea20	0.49397373
46	0x3e711a51	0.23545195
47	0x3f2af2f8	0.6677699
48	0x3f19a6fc	0.6002042
49	0x3f191617	0.5979933
50	0x3ea573df	0.32314965
51	0x3f3c3182	0.7351304
52	0x3f47823a	0.77933085
53	0x3eb27793	0.34856853
54	0x3ea0bca3	0.31393918
55	0x3f4f2c03	0.8092653
56	0x3f71c553	0.9444172
57	0x3eaa3634	0.3324448
58	0x3f634421	0.8877583
59	0x3e299786	0.16561708
60	0x3f788067	0.97070926
61	0x3f52aa05	0.8229068
62	0x3f44dd2f	0.769

model.6.bias f4 [63]
0	0x3d201f35	0.03909226
1	0x3d11ed8f	0.035626944
2	0x3e3bc883	0.18338208
3	0x3d9f1e93	0.077695034
4	0xbe14a012	-0.14514187
5	0xbdd5935a	-0.10428496
6	0x3db09eb9	0.08624024
7	0xbdcf5dc9	-0.1012531
8	0x3d9aed6b	0.07564815
9	0x3cb2a1e5	0.021805713
10	0x3c6b61a9	0.014366546
11	0x3d5d7257	0.05406412
12	0x3e1af1b4	0.15131265
13	0x3de9270c	0.11384401
14	0x3db4fcff	0.08837318
15	0xbd0af6df	-0.03392684
16	0x3c4bab60	0.012430996
17	0xbdd08702	-0.10182001
18	0x3ccafb07	0.024777902
19	0x3daff8b1	0.08592356
20	0xbccfbd60	-0.025358856
21	0x3d410843	0.04712702
22	0x3ca85b4f	0.020551352
23	0x3d006b3a	0.03135226
24	0x3d236631	0.03989238
25	0x3d70f1d4	0.058824375
26	0x3d2ea472	0.042637296
27	0xbd5f4b1d	-0.054514993
28	0x3d0143b7	0.03155872
29	0x3cef2455	0.02919213
30	0x3c1f9b67	0.009741641
31	0x3cdc765d	0.026911909
32	0x3df90901	0.121599205
33	0x3d0703c5	0.03296258
34	0x3c8a6c8c	0.016897462
35	0x3d5f2946	0.05448272
36	0x3d144900	0.03620243
37	0x3b2061b7	0.0024472305
38	0x3d3f23e7	0.0466651
39	0xbd405832	-0.04695911
40	0x3df8219d	0.12115786
41	0x3d10ffad	0.03540008
42	0xbc2b2c5d	-0.010447589
43	0xbbdef760	-0.0068043917
44	0x3e14b561	0.14522316
45	0x3d82eb43	0.06392529
46	0x3bbe160f	0.0058009694
47	0x3d1e8858	0.038704246
48	0xbcc1c1e9	-0.023652034
49	0xbd3348a5	-0.04377045
50	0xbb91faef	-0.0044549624
51	0x3b9977f9	0.0046834913
52	0x3cdc051a	0.026857901
53	0x3ddf4ae2	0.10902955
54	0x3d4b4ab9	0.049631808
55	0xbd866f91	-0.06564248
56	0x3da0e8a8	0.07856876
57	0xbccf53d5	-0.025308529
58	0xbd40a12d	-0.04702871
59	0x3cf88b9a	0.030340005
60	0xbb024143	-0.0019875325
61	0x3d9b965b	0.075970374
62	0x3e1098af	0.14120744

model.6.running_mean f4 [63]
0	0xbc903c04	-0.017606743
1	0xbc8d772b	-0.017268738
2	0xbe1ba464	-0.15199429
3	0xbe1ec066	-0.15503082
4	0x3e79ca13	0.24393491
5	0x3e6f8a72	0.23392656
6	0xbe60e075	-0.21960624
7	0x3e592f22	0.21209386
8	0xbe12dd4b	-0.14342229
9	0xbd4bb157	-0.04972967
10	0x3da97f0b	0.08276185
11	0xbd852bd2	-0.06502499
12	0xbd336dcd	-0.043805886
13	0xbd53ff7a	-0.051757313
14	0xbe6405a9	-0.22267784
15	0x3e745e01	0.23863985
16	0x3e1074c9	0.1410705
17	0x3ea795cc	0.32731473
18	0xbd47340d	-0.048633624
19	0xbda30709	-0.07960326
20	0x3dc87c5b	0.09789344
21	0xbd6d5b09	-0.057948146
22	0x3cb487ee	0.022037473
23	0x3de815f3	0.113323115
24	0x3c06f204	0.008236412
25	0xbe047d5b	-0.12938444
26	0xbde5d2ce	-0.112218484
27	0x3edae8d4	0.4275576
28	0xbc9a49cb	-0.018834015
29	0xbcbb2b92	-0.022847924
30	0x3e8c0849	0.2735007
31	0x3d86b86e	0.06578146
32	0xbd499da0	-0.04922259
33	0x3d8edce1	0.06975723
34	0x3dd34348	0.10315567
35	0x3e725fbf	0.23669337
36	0xbd6f5b9b	-0.05843697
37	0x3c491ef5	0.012275447
38	0xbe077f70	-0.13232207
39	0x3e6d4b50	0.2317326
40	0xbe1f2a5a	-0.155435
41	0xbe20d4c2	-0.1570616
42	0xbd2936a5	-0.04131188
43	0x3d14241c	0.03616725
44	0xbd828000	-0.0637207
45	0xbe81b953	-0.25336704
46	0x3ddb6013	0.10711684
47	0xb92f3c2f	-0.0001671172
48	0x3ebb91d2	0.3663469
49	0x3e629da6	0.2213045
50	0xbda199a4	-0.07890633
51	0x3eaf0ca4	0.34189332
52	0x3df5bf01	0.11999322
53	0xbd954003	-0.072876
54	0x3c08accc	0.008341979
55	0x3e79c2ca	0.24390712
56	0xbe26b8f4	-0.16281492
57	0x3e9db994	0.30805647
58	0x3e8b79d6	0.2724139
59	0x3e7a0c5e	0.2441878
60	0x3dabc115	0.08386437
61	0xbe8766c1	-0.26445583
62	0xbdaa93a9	-0.08328945

model.6.running_var f4 [63]
0	0x3c770215	0.01507618
1	0x3ccf6dd9	0.025320934
2	0x3d05c199	0.032655332
3	0x3d008b87	0.031383064
4	0x3bdea08e	0.006794042
5	0x3ce12f50	0.02748838
6	0x3c9fa7fa	0.019489277
7	0x3cc399ad	0.02387699
8	0x3cf07031	0.029350372
9	0x3c25cc31	0.010119484
10	0x3b98a109	0.0046578688
11	0x3c00c5f7	0.0078596985
12	0x3ca832b4	0.02053199
13	0x3c1982af	0.009369536
14	0x3d28cc6c	0.041210577
15	0x3d5e9043	0.054336797
16	0x3d08d3c4	0.03340508
17	0x3ce55ac8	0.02799739
18	0x3c7647fc	0.015031811
19	0x3cbbf739	0.022945033
20	0x3c6eea97	0.014582298
21	0x3d34447b	0.04401062
22	0x3d38dbfc	0.04513167
23	0x3d342130	0.043976963
24	0x3c3c0112	0.011474865
25	0x3d24a19d	0.04019319
26	0x3cb861d3	0.022507584
27	0x3d89e0bd	0.067323186
28	0x3d86c8e5	0.06581286
29	0x3d81d9e8	0.063403904
30	0x3d28c5bd	0.041204203
31	0x3c3d0cb0	0.0115386695
32	0x3c950c81	0.018194439
33	0x3ccf83ca	0.025331397
34	0x3c385901	0.011251689
35	0x3cb52dca	0.02211656
36	0x3c5d9470	0.01352416
37	0x3cd06729	0.025439816
38	0x3c92dd16	0.017927688
39	0x3d5555a4	0.052083626
40	0x3ccff889	0.025387065
41	0x3cb524fe	0.022112366
42	0x3d7b8a4b	0.061411183
43	0x3d8cc2ef	0.06873118
44	0x3cc261b2	0.023728225
45	0x3d46731e	0.048449628
46	0x3dc0a1ec	0.09405884
47	0x3dc7457c	0.0973005
48	0x3dbb3069	0.09140093
49	0x3d1554f2	0.036457963
50	0x3d150c7e	0.036388867
51	0x3d2542ef	0.040347036
52	0x3cacfc6a	0.021116454
53	0x3c97e2a3	0.018540686
54	0x3cb00553	0.021486914
55	0x3d27ea31	0.040994827
56	0x3d2158fb	0.0393915
57	0x3dce9c12	0.10088362
58	0x3d06749d	0.032826055
59	0x3e15456a	0.1457726
60	0x3d9f07d4	0.07765165
61	0x3dacee74	0.08443919
62	0x3d016997	0.03159484

model.8.bias f4 [64]
0	0x00000000	0.0
1	0x00000000	0.0
2	0x00000000	0.0
3	0x00000000	0.0
4	0x00000000	0.0
5	0x00000000	0.0
6	0x00000000	0.0
7	0x00000000	0.0
8	0x00000000	0.0
9	0x00000000	0.0
10	0x00000000	0.0
11	0x00000000	0.0
12	0x00000000	0.0
13	0x00000000	0.0
14	0x00000000	0.0
15	0x00000000	0.0
16	0x00000000	0.0
17	0x00000000	0.0
18	0x00000000	0.0
19	0x00000000	0.0
20	0x00000000	0.0
21	0x00000000	0.0
22	0x00000000	0.0
23	0x00000000	0.0
24	0x00000000	0.0
25	0x00000000	0.0
26	0x00000000	0.0
27	0x00000000	0.0
28	0x00000000	0.0
29	0x00000000	0.0
30	0x00000000	0.0
31	0x00000000	0.0
32	0x00000000	0.0
33	0x00000000	0.0
34	0x00000000	0.0
35	0x00000000	0.0
36	0x00000000	0.0
37	0x00000000	0.0
38	0x00000000	0.0
39	0x00000000	0.0
40	0x00000000	0.0
41	0x00000000	0.0
42	0x00000000	0.0
43	0x00000000	0.0
44	0x00000000	0.0
45	0x00000000	0.0
46	0x00000000	0.0
47	0x00000000	0.0
48	0x00000000	0.0
49	0x00000000	0.0
50	0x00000000	0.0
51	0x00000000	0.0
52	0x00000000	0.0
53	0x00000000	0.0
54	0x00000000	0.0
55	0x00000000	0.0
56	0x00000000	0.0
57	0x00000000	0.0
58	0x00000000	0.0
59	0x00000000	0.0
60	0x00000000	0.0
61	0x00000000	0.0
62	0x00000000	0.0
63	0x00000000	0.0

model.8.A f4 [3, 3, 3]
0	0xbf043073	-0.5163643
1	0x3f04ac52	0.5182544
2	0x3eea54f7	0.45767948
3	0x3c90d85e	0.017681297
4	0x3ec1df62	0.3786574
5	0x3de2e6d6	0.11079185
6	0xbe235d23	-0.15953498
7	0x3f09940a	0.53741515
8	0xbe78c1fc	-0.24292749
9	0x3da9799b	0.082751475
10	0x3d3dd6ae	0.046347313
11	0xbe8bd6e8	-0.27312398
12	0x3e59f59e	0.21285102
13	0xbe82324e	-0.25429004
14	0x3ebcd053	0.3687769
15	0xbf118284	-0.56839776
16	0xbe2eb461	-0.17060997
17	0x3e54683d	0.20742889
18	0x3eb5a481	0.3547707
19	0xbd44c8c6	-0.048043035
20	0xbe6c7bdf	-0.23094128
21	0x3ee3bc80	0.44479752
22	0x3e1e6c39	0.15470971
23	0x3eeeb2cd	0.4662079
24	0xbeacdf6c	-0.33764207
25	0x3edce6cc	0.43144834
26	0xbebfdc14	-0.37472594

model.8.F f4 [3, 21, 21, 3, 3]
0	0xbcb979de	-0.022641119
1	0x3c8a1626	0.016856264
2	0xbce40970	-0.027836531
3	0xbd07e923	-0.03318132
4	0x3aa7e9b7	0.0012810741
5	0x3c5d9428	0.013524093
6	0xbc02f5aa	-0.007993141
7	0xbd0860c3	-0.033295404
8	0xbd0852e6	-0.033282183
9	0xbc9da05d	-0.019241506
10	0xbd2d669f	-0.042334195
11	0x3c0f2170	0.008735999
12	0xbcdf4f14	-0.027259387
13	0x3c76500c	0.015033733
14	0xbcd13884	-0.025539644
15	0xbcf466cc	-0.029834174
16	0xbb4f2204	-0.0031605968
17	0xbc9be058	-0.019027874
18	0x3c6eff73	0.014587271
19	0xbc6a106d	-0.014286143
20	0xbc5a4b0e	-0.0133235585
21	0x3c6846ba	0.014177019
22	0xbbc700b8	-0.0060730837
23	0xbcd7191c	-0.02625709
24	0x3be03872	0.0068426663
25	0xbcd34b73	-0.025792813
26	0x3d115b83	0.035487663
27	0xbbf4bc12	-0.007468709
28	0x3adede85	0.0017003572
29	0x3d099d23	0.033597123
30	0x3c912e58	0.017722294
31	0x3d258a7a	0.040415265
32	0x3c4069f3	0.01174401
33	0xbcf05394	-0.029336728
34	0x3a5d24b5	0.0008435951
35	0x3bc917b8	0.0061368607
36	0x3b32447d	0.0027201467
37	0xbcc0b173	-0.023522114
38	0xbc7eed06	-0.0155594405
39	0xbcd21a05	-0.025647173
40	0xbc169056	-0.009189686
41	0x3bec2669	0.0072067273
42	0xbd182f77	-0.03715464
43	0xbd0f4847	-0.03498104
44	0xbcaca5a2	-0.021075074
45	0xbd1f0b34	-0.038829044
46	0x3c0d3be5	0.008620237
47	0xbd36b746	-0.044608377
48	0xbccaebd6	-0.024770658
49	0xbc1eeb3f	-0.009699642
50	0xbcd56739	-0.026050197
51	0xbd2a5e45	-0.04159381
52	0xbd2c7020	-0.04209912
53	0xbcca881a	-0.024723101
54	0x3c33bb6f	0.010969981
55	0x3ca4d8be	0.020122882
56	0xbc067e9c	-0.008208897
57	0xbd0c047c	-0.034183964
58	0x3c270440	0.010193884
59	0xbc6fa687	-0.014627106
60	0xba0dfb21	-0.0005416144
61	0x3cb8bd49	0.022551196
62	0x3ce946fb	0.028476229
63	0xbcab5766	-0.020915698
64	0x3c9dbbec	0.019254647
65	0xbc3de84b	-0.0115910275
66	0xbca6ca61	-0.020360174
67	0x3c77be81	0.015121103
68	0xbc2e0579	-0.010621422
69	0x3cb151c3	0.021645432
70	0xbcaa4407	-0.020784391
71	0x3a863eb8	0.001024208
72	0x3c6e51bb	0.014545853
73	0xbc9617e6	-0.018321943
74	0x3b9cccb8	0.0047851466
75	0xbd0197d7	-0.031638946
76	0x3bd8d753	0.0066174655
77	0xbb2e2198	-0.0026570316
78	0x3cd2d27e	0.025735136
79	0x3cbc345a	0.022974182
80	0x3cc83cbb	0.024443021
81	0xbcb425fa	-0.021990765
82	0x3d06d23d	0.032915343
83	0x3c2c196d	0.010504109
84	0x3c0f27b3	0.008737492
85	0xbaf6dfd2	-0.0018835014
86	0x3c983850	0.01858154
87	0x3d035a75	0.03206869
88	0xbc5e6749	-0.01357443
89	0x3ca68803	0.020328527
90	0x3cb12bf9	0.021627413
91	0xbd061c97	-0.03274211
92	0x3cdeac6f	0.027181832
93	0x3bce1f96	0.0062903864
94	0xbd1ec6d1	-0.038763825
95	0x3cb83c36	0.022489648
96	0x3bf5e6ba	0.0075043114
97	0x3cea8cd3	0.028631603
98	0xbcbf9c82	-0.023390058
99	0x3cf317a8	0.029674366
100	0x3d171a1b	0.03689013
101	0x3cd51e94	0.026015557
102	0x3c16702f	0.00918202
103	0x3cbdcb87	0.023168338
104	0xbc1edbe0	-0.009695977
105	0x3b77c69d	0.0037807592
106	0xbb7e5387	-0.003880711
107	0xbb6d64a4	-0.0036223317
108	0xb94320df	-0.00018608895
109	0xbcb72fe3	-0.022361701
110	0xbbe7fed9	-0.0070799408
111	0xbcdf1cd7	-0.027235432
112	0xba63b97b	-0.00086870015
113	0xbc15dca3	-0.009146842
114	0xbbb6df42	-0.0055808136
115	0x3c1df163	0.009640071
116	0xbb0ef869	-0.0021815544
117	0x3cc34cba	0.023840297
118	0x3a1b8202	0.00059321534
119	0x3c61a6aa	0.013772646
120	0x3c3b2779	0.011422985
121	0x3c48a880	0.012247205
122	0x3cc8df2d	0.024520481
123	0x3ba5b4c5	0.00505695
124	0xbc545330	-0.012959287
125	0x3c9a768b	0.018855354
126	0xb9bb1592	-0.0003568349
127	0x3c8dc94b	0.017307898
128	0xbcbadbda	-0.022809912
129	0x3ce1d310	0.027566463
130	0x3c45f42a	0.012082139
131	0x3c73adaf	0.014872952
132	0x3bc46d10	0.0059944466
133	0x3bfb8b16	0.0076764924
134	0x3b61044d	0.003433484
135	0x3cc2dc99	0.02378683
136	0xbbc6691e	-0.0060550114
137	0x3ceba26f	0.028763978
138	0x3c34a7ee	0.011026366
139	0xbd135821	-0.03597272
140	0xbc0a6eb0	-0.0084492415
141	0xbc2fd195	-0.010731121
142	0xbd372340	-0.04471135
143	0xbc8bd0b5	-0.017067293
144	0x3c104997	0.008806608
145	0x3bb7de59	0.0056112227
146	0xbc47c0f6	-0.012192002
147	0x3d447db8	0.047971457
148	0xba5ef819	-0.00085055974
149	0x3ca912dd	0.020638878
150	0x3cb86791	0.022510322
151	0x3d085c59	0.033291195
152	0x3c9f8a23	0.019475048
153	0xbcfab8ba	-0.030605663
154	0xbd2509f3	-0.04029269
155	0xbd4dae45	-0.050215025
156	0xbc80b83a	-0.015712846
157	0x3c12208f	0.008918895
158	0x3bdae62a	0.0066802697
159	0x3b4d61d3	0.0031338825
160	0x3a950b6e	0.0011371204
161	0x3cb63763	0.022243207
162	0x3baaff99	0.005218458
163	0x3c8e2aea	0.017354447
164	0xbb3dd5e8	-0.002896661
165	0xbd00176e	-0.031272344
166	0x3b49c1b2	0.0030785617
167	0x3c056c2c	0.008143466
168	0x3c153f1b	0.009109284
169	0x3c890aed	0.016728843
170	0xbc443863	-0.011976334
171	0x3c86d486	0.016458761
172	0x3d510ab7	0.05103561
173	0x3b80ca47	0.0039303633
174	0x3c9fc299	0.019501971
175	0x3cbac8bb	0.022800794
176	0x3ba8639b	0.005138827
177	0xbc4e9e03	-0.012610915
178	0x3ca95a40	0.020672917
179	0xbc5a4880	-0.013322949
180	0x3b858382	0.004074515
181	0x3ceba0e8	0.02876325
182	0xbaaecbe7	-0.0013335914
183	0xbaf035c0	-0.0018326566
184	0x3a9e2d2a	0.0012067903
185	0x3c6a7678	0.014310472
186	0xbcb85794	-0.022502698
187	0xbc2338c1	-0.009962262
188	0x3c0e9aa6	0.008703863
189	0x3d127ba4	0.035762444
190	0xbd38f906	-0.045159362
191	0xbb4fd040	-0.003170982
192	0x3d06c971	0.032906953
193	0x3a8f19f9	0.0010917775
194	0x3ced9b1c	0.029004626
195	0x3b8ea4a3	0.0043531223
196	0xbb4d9c9b	-0.0031373862
197	0x3ca5a2e2	0.02021927
198	0xbc8c931e	-0.017159995
199	0x3c576677	0.013146988
200	0x3c51b578	0.012799613
201	0xbd18e37b	-0.037326317
202	0x3bdc6d43	0.006726892
203	0xbca39126	-0.019966673
204	0x3cb31db7	0.021864755
205	0x3ae293fb	0.0017286533
206	0xbbaad484	-0.005213322
207	0xbc493a3f	-0.012281953
208	0x3d4ff2c2	0.05076862
209	0x3b7674cf	0.0037606244
210	0xbd1c6255	-0.038179714
211	0xbcf414cd	-0.029795075
212	0x3c9147f6	0.017734509
213	0x3d01e72d	0.031714607
214	0x3c36c19f	0.011154561
215	0xb99adbfe	-0.00029537076
216	0xbd170ce0	-0.036877513
217	0x3d1b1edc	0.037871227
218	0x3ca378a9	0.019954996
219	0x3cadf594	0.021235265
220	0x3c375579	0.011189812
221	0x3cb954f0	0.02262351
222	0xbbbc9d90	-0.0057560876
223	0xbc618d55	-0.013766606
224	0xbc2d3ed1	-0.010574059
225	0x3c8530cc	0.01625862
226	0x3c085681	0.008321405
227	0x3c6c7c2c	0.014433902
228	0x3b862c4f	0.0040946375
229	0x3d828164	0.063723356
230	0xbb672b11	-0.0035273472
231	0xbc3a2923	-0.011362347
232	0xbc9aefd7	-0.018913193
233	0x3d2eddff	0.04269218
234	0x3c154622	0.009110959
235	0x3d3bd148	0.045853883
236	0xbb0ab606	-0.0021165623
237	0x3d52a0d8	0.051422924
238	0x3d17d224	0.03706564
239	0xbc51cba4	-0.012804899
240	0x3d445189	0.04792932
241	0xbcbcddc6	-0.023054969
242	0x3c67ec04	0.014155392
243	0x3ca4f294	0.020135202
244	0xbcd0efe6	-0.025505017
245	0xbd16cb2d	-0.036814857
246	0xbca468f6	-0.02006958
247	0xbcce9c96	-0.02522115
248	0x3caf7b35	0.021421054
249	0x3c84afd3	0.01619712
250	0x3c7ec9d0	0.015551046
251	0x3c6d1353	0.014469939
252	0x3c1e5606	0.009664064
253	0x3bb4a149	0.0055123908
254	0x3d09c679	0.033636544
255	0xbc82dac6	-0.01597346

model.9.weight f4 [63]
0	0x3eda1cdd	0.42600146
1	0x3e2c3581	0.16817285
2	0x3f485cf4	0.78266835
3	0x3e23c5be	0.15993401
4	0x3e440555	0.19142659
5	0x3f4345ff	0.7627868
6	0x3f19dfac	0.6010692
7	0x3e1b8101	0.1518593
8	0x3f15faa0	0.5858555
9	0x3f4cbbe8	0.7997422
10	0x3f64c492	0.8936244
11	0x3da641e3	0.08118036
12	0x3eafd1fb	0.3433989
13	0x3f126e45	0.5719951
14	0x3f56a13b	0.8383977
15	0x3ed7f94a	0.4218238
16	0x3f36d2bf	0.71415323
17	0x3f1da3b3	0.6157791
18	0x3ed95323	0.4244624
19	0x3f2cd4d7	0.6751227
20	0x3eda38c6	0.4262144
21	0x3f3edaf1	0.7455283
22	0x3e491c61	0.19639732
23	0x3f51cc3a	0.8195225
24	0x3e1dee35	0.154229
25	0x3f52bec5	0.8232234
26	0x3ed735ea	0.4203332
27	0x3eb9eb62	0.36312395
28	0x3f686e10	0.9079294
29	0x3f256de3	0.646208
30	0x3f4208af	0.757945
31	0x3f4dbb76	0.8036417
32	0x3e5d5f9d	0.21618505
33	0x3f7b168f	0.98081297
34	0x3f6f293a	0.9342228
35	0x3ea80a7b	0.32820496
36	0x3f5d4eb3	0.8644821
37	0x3e9c797d	0.30561438
38	0x3f2b3c42	0.6688882
39	0x3f6a40d4	0.9150517
40	0x3f43a283	0.7641985
41	0x3f7c5f61	0.98583037
42	0x3f298396	0.6621641
43	0x3f48c9e1	0.7843304
44	0x3f14977a	0.58043635
45	0x3f0c14e5	0.5471938
46	0x3e9e1bab	0.30880484
47	0x3e254efc	0.16143411
48	0x3f6e8474	0.9317086
49	0x3ec59fc4	0.38598454
50	0x3f1c9dd0	0.611783
51	0x3eb7b6fd	0.35881796
52	0x3f3b30aa	0.7312113
53	0x3f4d9317	0.80302566
54	0x3f0182bf	0.5059013
55	0x3deefa56	0.116688415
56	0x3f72b8e8	0.94813395
57	0x3ed37c38	0.4130571
58	0x3ec8098d	0.39069787
59	0x3f5b7f62	0.85741246
60	0x3f3142a9	0.6924234
61	0x3f667e85	0.90036803
62	0x3e51ddeb	0.20494811
