KAIR/denoising/dncnn25/models/latest_G.pth (torch, 773253 bytes, 111 tensors)

model.0.bias f4 [64]
00000000: 0000 0000 0000 0000 0000 0000 0000 0000
00000010: 0000 0000 0000 0000 0000 0000 0000 0000
00000020: 0000 0000 0000 0000 0000 0000 0000 0000
00000030: 0000 0000 0000 0000 0000 0000 0000 0000
00000040: 0000 0000 0000 0000 0000 0000 0000 0000
00000050: 0000 0000 0000 0000 0000 0000 0000 0000
00000060: 0000 0000 0000 0000 0000 0000 0000 0000
00000070: 0000 0000 0000 0000 0000 0000 0000 0000
00000080: 0000 0000 0000 0000 0000 0000 0000 0000
00000090: 0000 0000 0000 0000 0000 0000 0000 0000
000000a0: 0000 0000 0000 0000 0000 0000 0000 0000
000000b0: 0000 0000 0000 0000 0000 0000 0000 0000
000000c0: 0000 0000 0000 0000 0000 0000 0000 0000
000000d0: 0000 0000 0000 0000 0000 0000 0000 0000
000000e0: 0000 0000 0000 0000 0000 0000 0000 0000
000000f0: 0000 0000 0000 0000 0000 0000 0000 0000
0.0 0.0 0.0 0.0 0.0 0.0 0.0 0.0
0.0 0.0 0.0 0.0 0.0 0.0 0.0 0.0
0.0 0.0 0.0 0.0 0.0 0.0 0.0 0.0
0.0 0.0 0.0 0.0 0.0 0.0 0.0 0.0
0.0 0.0 0.0 0.0 0.0 0.0 0.0 0.0
0.0 0.0 0.0 0.0 0.0 0.0 0.0 0.0
0.0 0.0 0.0 0.0 0.0 0.0 0.0 0.0
0.0 0.0 0.0 0.0 0.0 0.0 0.0 0.0

model.0.A f4 [3, 3, 3]
00000000: a048 99be eb08 163f 0298 fa3e 76df 433e
00000010: da14 ac3e 5924 2cbc 50f7 c4bd 2ff9 06bf
00000020: 3f93 7abe eaa4 bbbd 7856 853e 943a e0be
00000030: c0ab 9bbd a981 f13e 39fd a93e 159f 9fbe
00000040: d9d6 b83d a6a9 1b3d 7ba6 9ebe fc8f 65be
00000050: a534 e0bd 59dd d13e 2d6c 1bbe 1a7b ce3e
00000060: a4e9 c93e 6f9c 033f 538c 7ebe
-0.2993822 0.5860736 0.48944098 0.19128212 0.33609658 -0.010506713 -0.096174836 -0.52723974
-0.24470232 -0.09162314 0.26042533 -0.43794692 -0.07601118 0.47169235 0.33201006 -0.31176057
0.09025354 0.038003586 -0.3098639 -0.22418207 -0.10947541 0.40989187 -0.15177985 0.40328294
0.39436066 0.51410574 -0.24858217

model.0.F f4 [3, 21, 1, 3, 3]
00000000: 97d5 00bd de2a 963d 8e70 dcbd b1fd 273e
00000010: f24b 383e 4f28 01b9 1353 afbb 5f77 c43c
00000020: c375 d1bb ae30 1f3e 2e95 1a3e 152b e53c
00000030: 2c87 fa3b 9639 ddbd a125 85bd e830 0d3e
00000040: 63b5 82bd d307 ad3d de16 fbbd 66dc 19be
00000050: 3217 9a3d 708f e33d 7b53 673b a958 afbd
00000060: 16e6 813d 32bf 9fbd 72e1 95bc 9576 ef3d
00000070: 0836 ffbd 6517 8c3d 46cb 8b3c eae8 1f3e
00000080: 2274 393c 1f22 833c d6e8 bbba 25fd d63d
00000090: 2804 8bbd 1f4f a6bd 4bd1 7ebd eeb6 8ebe
000000a0: 7592 4fbe 1dbf 283c 5396 d73a 7ff9 3dbe
000000b0: bf7f 04bd 20f1 96bd 3bbd 023e a53f a73c
000000c0: a569 e83d b26b 233e 035f 6a3d d7aa d63d
000000d0: edbd 103e c903 073e cb3d 3d3c 773f d43b
000000e0: d772 9e3d d748 e9bd 0626 b33d 28f6 38bb
000000f0: 0cc8 c03b 716b abbd fbab e3bc 2507 9bbd
00000100: 3bc1 95bc e09f f1bd c421 1abe b2a6 97bd
00000110: d115 db3c 6890 babd 2004 083e ec44 973d
00000120: c7a2 893d 280b 093d 2aff 163e 1d3f 0bbd
00000130: 8fd8 85bd ec71 0ebd 1700 04be 6fc9 dbbd
00000140: b58f b8bd b7e5 edbd 286c 55bd b70e e2bd
00000150: f154 883d 321f d33c 5ad1 e1bc bdbb 18be
00000160: b351 a43d 24fd 1bbe 5f4f d1bc 47a0 423e
00000170: f6b8 c33d 8404 1e3e abd8 313e ddaa c33d
00000180: eed7 e93c d210 373d f772 6dbb 768b 583d
00000190: b33c 09bc 7f68 623c 5d36 05bd 1994 fe3c
000001a0: 7062 433c c411 cc3d 29a5 91bd 512a 153c
000001b0: 0f50 eabc 5ef6 25be 4d00 f5bd 8ccb 44bd
000001c0: 7d17 80bd aad3 453d fdb4 86bd ec9b a3bc
000001d0: 1f6c 8a3c 9452 a3bd 12a9 37be 548e a63b
000001e0: e483 f5bd f359 69be fd5a dfbd 62ef c53d
000001f0: 1656 2dbe f3e1 0dbd 96ed d33c 73c5 dbbc
00000200: 1d90 993d f0f4 72bc aae5 9d3c 085a 0bbe
00000210: 4948 edbd ddd7 b63d 7d25 fabd a097 a63d
00000220: 8e2e b2bb dc57 023e 2f55 ddbd 715f 3b3e
00000230: 2e3b 0c3e abda 23bb dd3b b53d e2ce d83d
00000240: 269f 113d de40 f9bd 6886 cc3d 48e9 113e
00000250: d7e9 fe3c 3d07 e23d 7ca4 5fbc 00ba 31bb
00000260: 17c6 f23d 1822 203e e543 a13d fdb2 77bc
00000270: 6c15 673e 5394 bf3d dd90 05bd 47b2 51bd
00000280: 6906 c53d 3756 b03d 5f9e 463d 3040 edbd
00000290: e84e 4c3c e5e2 283e e35d 78bd 6626 f63d
000002a0: 1f7e ce3d 09bd b13d 6255 6bbd 21af ad3d
000002b0: 972c d93d 8f93 8b3d ca11 9b3d 7092 db3d
000002c0: 3575 033c 1d0f a0bd 67c0 083e ef4c a33d
000002d0: 00df 07be 8ad5 2b3c aa28 03be c090 d2bd
000002e0: 0e21 fabd ca7b b1bd ea62 04be 4cda 49be
000002f0: e6a4 f5bd 9921 10be 8730 8abd 054a 913c
00000300: 5a61 cfbd 022b 233d 23f0 ab3d 992b 17be
00000310: cb90 26bd 8add b4bd 7a17 36be 23c2 ddbc
00000320: bc8a 0dbd 117c 773d bdb3 0ebc 1e57 31bd
00000330: 603d b9bd 4c8b 9dbd 3950 b6bb 7293 043e
00000340: d22a 573c aad7 bd3d c415 943c 6057 063e
00000350: 1ecf 3c3d 90bd 67bd 5d7e c93d ebb8 b83d
00000360: c333 74bd 28f7 51be 0403 b9bd 910e ddbd
00000370: afac 87be 2df2 adbd f748 a23c 8738 373d
00000380: 7d80 bc3d eb26 d03d 57aa 6bbd b28e 79bd
00000390: 1c6a 293b 2652 253e 30be 71bd f927 93bc
000003a0: 47df b13d 7d45 55bd 5d39 833d ecbd 9c3d
000003b0: 571e ce3d 987a ad3d 2f2e 2ebd 0061 e23d
000003c0: e8ac f1bc 6569 bdbb 9825 73bd 615e fe3d
000003d0: 5723 89bd bc18 433d a8a3 ea3c 40f6 633e
000003e0: 8c94 e83d 4cfe 143d ae75 6a3d 0f0a 63bd
000003f0: 0ee0 cd3d 3f53 a63d ac3f 143e 4a71 473e
-0.031453695 0.07332395 -0.107636556 0.1640537 0.17997721 -0.00012317415 -0.0053504794 0.023982702
-0.006392212 0.15545914 0.1509597 0.027974645 0.0076455083 -0.10801999 -0.06501318 0.13788188
-0.06382253 0.08448758 -0.12260221 -0.15025482 0.075239554 0.11111343 0.003529756 -0.085618325
0.063427135 -0.078001395 -0.018295977 0.116925396 -0.124614775 0.068404 0.017064702 0.15616193
0.011319192 0.016007481 -0.0014336358 0.10497502 -0.06787902 -0.0812056 -0.062211316 -0.2787394
-0.20270713 0.010299471 0.0016447998 -0.18552206 -0.03234839 -0.0737021 0.12767498 0.02041609
0.11348275 0.15959051 0.057219516 0.10481804 0.14134951 0.13185038 0.011550377 0.006477292
0.07736748 -0.11390846 0.08747487 -0.0028222892 0.0058832224 -0.08370102 -0.027791968 -0.07569722
-0.018280616 -0.11798072 -0.15051943 -0.074048415 0.026743801 -0.091095746 0.13282824 0.07386193
0.067205004 0.033457905 0.14745775 -0.033995736 -0.06535446 -0.034776613 -0.1289066 -0.1073178
-0.09011785 -0.1161608 -0.0521051 -0.11037963 0.06656826 0.025771711 -0.027565647 -0.14915366
0.080233954 -0.15233284 -0.025550542 0.19006453 0.09556763 0.1543141 0.17367809 0.09554074
0.028545346 0.044693775 -0.0036231854 0.052867375 -0.008376288 0.013818859 -0.032522548 0.031076478
0.011925325 0.09964326 -0.0711158 0.009104327 -0.028602628 -0.16207263 -0.11962948 -0.04804568
-0.0625448 0.04829756 -0.065774895 -0.01997181 0.01689726 -0.07974735 -0.17935589 0.005082885
-0.11988047 -0.22788219 -0.109060265 0.09664799 -0.1692737 -0.03463931 0.025870126 -0.02682755
0.074981906 -0.014828905 0.019274551 -0.13608563 -0.11586053 0.089278914 -0.122141816 0.08134389
-0.0054376787 0.12728828 -0.10807263 0.18298127 0.1369445 -0.0025002162 0.08849309 0.10586335
0.035552166 -0.121705756 0.099865735 0.14249146 0.031117363 0.11036537 -0.013650056 -0.0027118921
0.11854189 0.15638006 0.07874278 -0.015118358 0.22566766 0.093544625 -0.032608856 -0.05119541
0.09620363 0.08610194 0.04849088 -0.115845084 0.012469985 0.16492803 -0.060636412 0.12019043
0.100826494 0.08678634 -0.057454474 0.08480669 0.10604208 0.06815254 0.07571752 0.1072129
0.00802355 -0.07815383 0.13354646 0.07973658 -0.13268661 0.010487923 -0.12808481 -0.10281515
-0.12213336 -0.08666189 -0.12928358 -0.1971218 -0.119943425 -0.14075316 -0.06747537 0.01773549
-0.1012599 0.039835937 0.08395412 -0.14762725 -0.04066543 -0.08831318 -0.17782393 -0.02707011
-0.034556136 0.060421053 -0.008709845 -0.043295972 -0.090449095 -0.076925844 -0.0055637625 0.12946871
0.013132768 0.0926965 0.018076785 0.13119268 0.04609596 -0.056577265 0.09838555 0.09019645
-0.059619676 -0.20504439 -0.09033778 -0.10793794 -0.26498935 -0.08493457 0.019810183 0.044731643
0.09204195 0.10163673 -0.057535496 -0.0609271 0.00258506 0.16144618 -0.059019268 -0.017963396
0.08685165 -0.052068222 0.064074256 0.07653412 0.100643806 0.084706485 -0.042524513 0.110536575
-0.029501393 -0.0057803863 -0.059362024 0.12420345 -0.06696194 0.04763101 0.02864249 0.22261906
0.11356458 0.03637533 0.057241134 -0.055429514 0.10052501 0.08121347 0.14477414 0.1947681

model.2.bias f4 [64]
00000000: 0000 0000 0000 0000 0000 0000 0000 0000
00000010: 0000 0000 0000 0000 0000 0000 0000 0000
00000020: 0000 0000 0000 0000 0000 0000 0000 0000
00000030: 0000 0000 0000 0000 0000 0000 0000 0000
00000040: 0000 0000 0000 0000 0000 0000 0000 0000
00000050: 0000 0000 0000 0000 0000 0000 0000 0000
00000060: 0000 0000 0000 0000 0000 0000 0000 0000
00000070: 0000 0000 0000 0000 0000 0000 0000 0000
00000080: 0000 0000 0000 0000 0000 0000 0000 0000
00000090: 0000 0000 0000 0000 0000 0000 0000 0000
000000a0: 0000 0000 0000 0000 0000 0000 0000 0000
000000b0: 0000 0000 0000 0000 0000 0000 0000 0000
000000c0: 0000 0000 0000 0000 0000 0000 0000 0000
000000d0: 0000 0000 0000 0000 0000 0000 0000 0000
000000e0: 0000 0000 0000 0000 0000 0000 0000 0000
000000f0: 0000 0000 0000 0000 0000 0000 0000 0000
0.0 0.0 0.0 0.0 0.0 0.0 0.0 0.0
0.0 0.0 0.0 0.0 0.0 0.0 0.0 0.0
0.0 0.0 0.0 0.0 0.0 0.0 0.0 0.0
0.0 0.0 0.0 0.0 0.0 0.0 0.0 0.0
0.0 0.0 0.0 0.0 0.0 0.0 0.0 0.0
0.0 0.0 0.0 0.0 0.0 0.0 0.0 0.0
0.0 0.0 0.0 0.0 0.0 0.0 0.0 0.0
0.0 0.0 0.0 0.0 0.0 0.0 0.0 0.0

model.2.A f4 [3, 3, 3]
00000000: 5a43 ebbe 65e5 0c3f 23e1 223e 2b90 cc3e
00000010: bff3 88be 95d6 77be 0dcb a33e 664e e7be
00000020: 5d3c 9d3e fbf7 97be f0e7 d9be 1817 8e3d
00000030: 11e7 f73d 726f c5be 7a24 6c3e da5c 91be
00000040: cbb6 a8be bbd6 a5bc 729e 863e 32ec f03e
00000050: a1d7 f4be 60a8 dabd 8fcd fbbd ebf4 86be
00000060: 1e85 8fbe d1b1 e3be ad71 aa3d
-0.45949823 0.5503753 0.15906195 0.3995374 -0.26748464 -0.2420295 0.31990853 -0.45177
0.30710116 -0.29681382 -0.42559767 0.069379985 0.12104619 -0.3856159 0.2306079 -0.28391153
-0.3295196 -0.020243993 0.2629276 0.47055203 -0.47820762 -0.10676646 -0.122950666 -0.26358733
-0.28031248 -0.444716 0.08322463

model.2.F f4 [3, 21, 21, 3, 3]
00000000: fd3f a93c b848 b2bc 8c2e a6bc 0c69 82bc
00000010: 9874 bbbc 4254 b23b 0d53 77bc b75f db3c
00000020: 410c adbb 6231 693c 9db6 bcbc 5b19 bc3b
00000030: 9909 b3bb 3f27 34bc f489 313c cc8a 15bd
00000040: 963d a3bc 13fc 903c f8c4 79bc 96f0 e7bc
00000050: eac8 d23c d6e4 49bc 7c88 cdbc 713d 0a3c
00000060: 0086 c23c b33d d73c 8da6 443b b444 e73c
00000070: d278 d1bb 184f 903c ff15 f93c a62b e9bc
00000080: 161e bdbb 5e12 973c ad47 6abb edb4 f93a
00000090: 0e8f c03c 32a0 bdb9 12cb 2b3c 10f1 3f3c
000000a0: 22e9 acba d49e 293d ccba 28bb 75e8 38bb
000000b0: 69a1 2f3b 09f1 79bc 2443 59bd c339 49bc
000000c0: 537e 4c3b 3607 db39 3200 64bc 7326 51bb
000000d0: 9c67 c83b 6558 db3c 0307 8a3c a26a c9bc
000000e0: eefe 27bc 707b 093c 68ca 953c 631d babc
000000f0: 8874 0d3d f0b4 273d 2104 233d 0dce e63c
00000100: 4fe0 e7bc effd bcbc d6e2 293d 35aa dd3c
00000110: a097 e03c 2bfd 003d 94a1 9b3c bec6 133c
00000120: 61c1 153c 6610 26bd 480f 59bc 085a d9bc
00000130: 0cd2 69b9 9837 78bc 1bb9 ef3b dff9 103c
00000140: 47bb f9bb b896 f9bc 5048 2e3d 28bb 17bd
00000150: bf1f 8fbc 6dc0 203c ff15 3cbd da35 a83c
00000160: 8d41 c03c 1398 0cbc b62d d8bb d438 20bd
00000170: 7188 86bc a3c8 6cbc f271 89bd f88f ae3b
00000180: 6b14 59bb 16aa 0fbc 6b25 e33c 2362 d6bc
00000190: 4f91 583c 7266 a4bb 3ea8 c2bc 458b 78bd
000001a0: 3c6b 62bd f772 383c cf35 8fbb 27cb 84bc
000001b0: 3558 ddbb 749b 15bc 9693 39bd 5f67 4abc
000001c0: ddac 53bb db22 623c 0ddb 2bbc 2572 11bc
000001d0: 585c 15bd 1992 a4bb 92a7 b2bc 4294 6bbc
000001e0: ddbd 4abd 7ce2 123d 5cd1 133d 26dc dd3b
000001f0: 5672 a23c eac9 213d 99e9 abbb 5f9c 55bb
00000200: b86d 0fbc d741 f1bb b5d7 763d a5ad 003a
00000210: 7f67 0c3c e78e abbc 0e41 d8bb 52aa aebc
00000220: 0a25 5a3c abb0 493b 3ca8 4fbd 2b78 0ebd
00000230: 3120 38bd 2e50 84bc 4645 d7bc 6a30 903b
00000240: 94fc 0e3c 6356 613c 63b8 4fbc 6a0f 1ebd
00000250: 43e8 473c 8fda d3bb 4f00 9dbc 8709 e63c
00000260: 3b0d 0b3d b2e9 3dbd 30ec d4bb 6580 d73c
00000270: 4897 fd3c 9eea a73d 80ad e83b 1f8b 353c
00000280: 9e27 4d3c 1a88 7cbc 99b9 f13a 46f7 e53c
00000290: 8941 4c3c e047 29bc 4405 bebb 834e 23bd
000002a0: 3729 c03c 7355 333d 2471 463c 07e1 e2bc
000002b0: f9a6 c2bc 4cb9 4bbd abac 11bd 0f9d 083d
000002c0: a3ad 8dbb 01f6 23bd 5512 05bc 855d 7cbb
000002d0: 035c 94bc 6cce 63bd 390a debc 09e3 c63c
000002e0: dc5b 313c 05db 813c 25a2 02bd 5f65 823d
000002f0: 5ce1 0f3c f1f7 0b3c 60d5 e93c c3ab 563b
00000300: c2c8 583d 64f7 513c 5056 833c 5edd 3a3c
00000310: a8b6 093c 0f3c a5bb f3f0 843c 8cfa c33c
00000320: 1ea3 3dbc 7e02 bfbc e387 9cbb 96d4 893d
00000330: 6c6e 363c 7930 cdbc a6e7 c3bc ab9e e3ba
00000340: 2b8e bd3c 73f5 e63a 90b7 a13c 6e22 15bd
00000350: 8182 f4bb 2cfc 9cbc 0d80 0abd 7efe eebc
00000360: 2448 b53c 555c 1b3c 9133 fa3a 156d 233d
00000370: 1532 2dbc fb2e 76bc 88ce 1e3d 5297 7fbc
00000380: 3558 81bc 7b74 a7bc dfda 293d 5609 a13b
00000390: 659b e2bc 3e13 803d 51c7 3a3d 2ff2 2b3a
000003a0: d207 77bc 6cd8 153c 76bb 84bb bb51 523b
000003b0: 7032 aa3c 244d 903c 3ed7 9ebb 5154 54bc
000003c0: 43d7 bbbb 8a1d 263c 9941 7bbc c411 93bc
000003d0: 941f 22bd 4876 36bc 2549 1e3d 4de3 963b
000003e0: 2025 31bb 0d5e a83b ee52 33bb 5f9e 223c
000003f0: 43bf 963b 8f8c 4fbc ccfb edbc 26fc 93bc
0.020660395 -0.02176319 -0.020285867 -0.01591923 -0.022882745 0.005442173 -0.015095484 0.026779039
-0.005281002 0.014232965 -0.023036296 0.0057403273 -0.0054637906 -0.010995685 0.010836113 -0.03650932
-0.019926827 0.017698323 -0.015244715 -0.028312963 0.025730569 -0.012322625 -0.025089495 0.0084375
0.023745537 0.026274538 0.0030006499 0.028231002 -0.0063925767 0.01761584 0.030405996 -0.028463196
-0.005771409 0.018441375 -0.0035748289 0.0019051112 0.023505714 -0.00036168244 0.010485427 0.011715189
-0.0013192038 0.041411236 -0.0025746105 -0.0028214727 0.0026799089 -0.015255221 -0.053042546 -0.012281838
0.0031203225 0.00041776308 -0.013916062 -0.0031913787 0.006115867 0.026775548 0.016849047 -0.02458698
-0.010253651 0.008391246 0.018284991 -0.02271909 0.03453496 0.04094404 0.03979886 0.028174425
-0.0283052 -0.023070304 0.041476093 0.0270587 0.02741605 0.03149144 0.018997945 0.009019552
0.009140343 -0.040542983 -0.013248272 -0.026532188 -0.0002229886 -0.015149973 0.0073157675 0.008848636
-0.007621202 -0.030467376 0.04254943 -0.03704372 -0.017471192 0.009811503 -0.045919415 0.02053349
0.023468757 -0.008581179 -0.006597246 -0.039116696 -0.016422482 -0.014452132 -0.067111865 0.005327221
-0.0033123742 -0.008768579 0.027727803 -0.026169842 0.013218238 -0.0050170952 -0.023761865 -0.060679693
-0.055278048 0.0112578785 -0.004370428 -0.016210152 -0.0067549 -0.009131301 -0.045306765 -0.012353747
-0.003229908 0.0138022555 -0.0104892375 -0.008877312 -0.03646502 -0.005022299 -0.02180842 -0.014378609
-0.049497474 0.035860524 0.036088333 0.0067706285 0.01982991 0.0394992 -0.005246353 -0.0032594425
-0.008754186 -0.007362585 0.060264308 0.00049086876 0.008569597 -0.020942165 -0.006599552 -0.02132145
0.013314495 0.0030775468 -0.05069755 -0.03478257 -0.044952575 -0.016151514 -0.02627815 0.0044003027
0.0087272115 0.013753506 -0.012678239 -0.03858892 0.012201372 -0.006465263 -0.019165186 0.028080715
0.033948164 -0.046365447 -0.0064978823 0.02630634 0.030955926 0.081990466 0.007100761 0.011080532
0.0125216525 -0.0154133085 0.0018442153 0.02807201 0.012466797 -0.010332078 -0.0057989676 -0.039869796
0.023457153 0.043782663 0.012111936 -0.027695192 -0.02376126 -0.04973726 -0.03556506 0.033352908
-0.0043236776 -0.04002953 -0.0081220465 -0.003850789 -0.01811028 -0.05561678 -0.027104484 0.02427818
0.010825124 0.015851507 -0.031892914 0.06366991 0.008781757 0.008543001 0.028544128 0.0032756187
0.052925833 0.01281533 0.016032368 0.011405317 0.008405365 -0.00504256 0.016228175 0.023923181
-0.011574535 -0.023316618 -0.004776941 0.06730001 0.011134725 -0.025047528 -0.02391417 -0.0017366012
0.02313908 0.0017620757 0.01974085 -0.036409788 -0.0074618463 -0.019163214 -0.033813525 -0.029174086
0.022129126 0.009482463 0.0019088854 0.03989895 -0.0105710225 -0.015025849 0.038771182 -0.015600042
-0.01578913 -0.020441284 0.041468497 0.004914443 -0.027661989 0.0625367 0.04560024 0.00065592205
-0.015077548 0.009145837 -0.0040506674 0.0032092172 0.020776004 0.017614909 -0.004847436 -0.012959556
-0.0057324483 0.010138879 -0.015335464 -0.017952807 -0.039580896 -0.011136599 0.038643975 0.004604733
-0.0027030185 0.005138165 -0.0027362662 0.009925454 0.004600437 -0.012667789 -0.02905073 -0.01806457

model.3.weight f4 [63]
00000000: 996d d73e bf0a 443f 96dd ce3e 3c00 a13e
00000010: 5cbe 6d3d f3e5 5a3f b8d7 8d3d 1705 4b3f
00000020: 836c 1c3e 01f6 843e 0247 1b3f f403 543e
00000030: 67bd 533f 4ff8 723f 309a 483f f126 ce3e
00000040: c449 2a3f 7327 de3d 8b8c e83e 519b 223e
00000050: 29d5 5a3e 53e9 233f fa0b 353f 7586 603f
00000060: 2526 543f 33f9 1c3f 6828 9f3e c109 b33e
00000070: 4941 d03e 0d8e 243e 606a 943e 77d7 0c3e
00000080: 7bc9 3b3f 3552 0b3f 7cc7 163f ade6 523e
00000090: 5829 543f ad61 763e 80de 8e3e 6b9c 3d3f
000000a0: 6570 303f 24d9 273f 7194 5d3e af74 223f
000000b0: 4ec3 c13e 8e2c cb3e 01ff 713f 8038 b63e
000000c0: 719b 403e 1833 603f 1c07 433e 5aae 643e
000000d0: 2ed6 943e f2a4 683f fa5c 713f f79e 523f
000000e0: 4076 0f3e c621 be3e 59ea b23e 5b8a 4b3f
000000f0: 7a8e 963e 38e5 cc3e 3ddf 613f
0.42075804 0.765789 0.40403432 0.3144549 0.05804287 0.85507125 0.06925911 0.7930464
0.15275769 0.25968936 0.60655224 0.20704633 0.8271088 0.9491014 0.7836027 0.40264085
0.6651881 0.10847368 0.45419726 0.15879561 0.21370377 0.640279 0.707214 0.87705165
0.82870704 0.6131775 0.31085515 0.3496838 0.4067481 0.16069813 0.28987408 0.13754068
0.7335431 0.5442231 0.5889814 0.20595808 0.82875586 0.24060698 0.2790413 0.740668
0.689215 0.65565705 0.21638657 0.63459295 0.37844318 0.3968243 0.9452973 0.3558998
0.18809296 0.8757796 0.19045681 0.22332135 0.29069656 0.90876687 0.94282496 0.8227381
0.14009953 0.37135142 0.34944418 0.7950799 0.29405576 0.4001863 0.8823126

model.3.bias f4 [63]
00000000: 30eb 8d3d 2c51 4e3e 86a8 123e 10fa 543d
00000010: fd06 463c d19a df3d 2f02 f6bd c452 2fbd
00000020: 2953 ca3e 67f5 4b3e 1a53 dc3e 50ec 993d
00000030: 036f eb3d e1e2 7abd 161a a5bd ddd3 19bc
00000040: f90b 95bd 02d8 543e 2977 98bc d3da 29bc
00000050: 9913 2b3e d3ad 693d 2ac4 6cbd fbb0 ff3d
00000060: 9c72 193e 7913 283e 9f09 573e d8c4 303e
00000070: f0a3 133e a10c fc3c ead1 263d 2441 93bd
00000080: afea 36be ae4f 48bd 6eed c8bc ef11 053e
00000090: e4d8 133e 4715 063d b208 a7bc 2300 703e
000000a0: 74c4 65bd 8945 b6bd 1faf f53d 05f1 a1bd
000000b0: e067 5c3e c397 273d 1b49 003e 0ce4 1d3e
000000c0: 7d2d ae3e 152d 1c3e 02de b43e 5d9b 983e
000000d0: d9a4 33bd 2a3d b2bd 394c 3cbe f068 1abd
000000e0: d8e3 223e 5adc 893c 7c1d 21bd a689 dabd
000000f0: d9aa 823d 640b 313d 30b9 d1bd
0.06929624 0.20148152 0.14322099 0.05199629 0.012086627 0.10918201 -0.12012135 -0.04280354
0.3951657 0.19917832 0.4303215 0.07515776 0.11495783 -0.061251525 -0.08061616 -0.009388891
-0.07277674 0.20785525 -0.018611507 -0.010367113 0.16706695 0.057050537 -0.057804264 0.12484928
0.14985126 0.16413678 0.20999764 0.1726259 0.14418006 0.03076774 0.040727533 -0.07190159
-0.17862962 -0.048904113 -0.024527278 0.12995122 0.14438206 0.032735135 -0.020389888 0.23437552
-0.056095555 -0.088999815 0.11996292 -0.07907299 0.21524 0.040916216 0.12527888 0.15419024
0.3401908 0.15251572 0.3532563 0.29806033 -0.043858383 -0.08703072 -0.18388452 -0.037697732
0.15907228 0.016828705 -0.03933476 -0.106707856 0.06380243 0.043223754 -0.102404

model.3.running_mean f4 [63]
00000000: 8ae2 693c 5ca9 02be 03aa bfbd 38b9 123d
00000010: 2042 363d fead 99bd d31d 8d3d 6a05 db3d
00000020: 20eb 5c3c 1e98 073c 5840 cebd 6a24 f5bd
00000030: fd4f d7bd 2cea 143e 7b66 0d3e b0a2 9a3d
00000040: 9636 973d e5ed 01be 7624 093e 9d8b 373d
00000050: 396d eabc 512f 95bd a5f7 ba3d abe5 c3bd
00000060: 8148 0fbd cc7c 25bd cd1a 19bd c0c5 92bd
00000070: 9c0a 36bd fd35 8fbd d8bf 7bbd 79f2 a73d
00000080: 89dc 7b3d 1a7e fd3d e360 0e3e db16 10bd
00000090: c89d 75bd cf00 9cbc 6bc7 263e e34b 66bd
000000a0: e055 493d 50ac a53d de53 7fbd 3bc2 e13d
000000b0: d871 8cbd cc79 eabd 75de dfbd 6146 07be
000000c0: 4ab2 98bd f7fc f4bd 13d4 a5bd 34cb d2bc
000000d0: 80a6 f63d 3b46 0e3e 43c4 463e 4552 d23d
000000e0: 6e0e 85bc 4aac 0e3d 8bb2 ea3d c1df 413e
000000f0: 9a44 03bd 786b 0e3d ba6b d53d
0.0142752025 -0.12759918 -0.09358599 0.03582117 0.044496655 -0.075038895 0.06890454 0.10694392
0.013483793 0.008276014 -0.10070866 -0.11969836 -0.105133034 0.14542454 0.13808624 0.075505614
0.07383458 -0.12688406 0.13392815 0.04481088 -0.028616535 -0.072844155 0.09129266 -0.0956529
-0.034981254 -0.04040222 -0.037379075 -0.07166624 -0.04444371 -0.06992719 -0.061462253 0.08200545
0.061489616 0.123775676 0.13904147 -0.035178047 -0.059964925 -0.019043354 0.1628701 -0.056224715
0.049154162 0.080895066 -0.06233584 0.11023375 -0.068576515 -0.11449012 -0.10931102 -0.13210441
-0.07455881 -0.11962312 -0.080970906 -0.02573166 0.12043476 0.13893978 0.19410805 0.10269598
-0.016242232 0.034832276 0.114598356 0.18933012 -0.032047845 0.03477046 0.10420938

model.3.running_var f4 [63]
00000000: e5e2 3e3b 71ba a63b 9364 583b a6a2 ba3a
00000010: 9bb4 4c3a 935a e33a 8516 f23a 17ff 6f3b
00000020: c67b 6339 da36 cb39 84f2 503b a7b9 963b
00000030: 8b9c 683b 18fc d33b ac77 bd3b 8989 163b
00000040: 8f3b d83a 340a b93b cb5d b93b abc4 ab3a
00000050: 8a72 823a a5bd d03a a5a0 1f3b a578 3a3b
00000060: c7b8 f339 5747 033a b57e 023a ac35 e93a
00000070: e7a6 253a d966 d23a 7d97 ba3a 21a3 0b3b
00000080: 2c10 963a 431d 9a3b fa10 c33b 966d 0a3a
00000090: 3039 983a ec6c 6839 fa7f 073c a6fc 8a3a
000000a0: 50fa 573a 3c75 083b 61a0 9d3a bafb 713b
000000b0: 1772 c33a 3977 813b 5fff 6a3b bef7 a83b
000000c0: 141a f03a 0888 923b 4735 0f3b 2063 8739
000000d0: 6378 973b f76e bf3b ad6b 3c3c 68b6 5f3b
000000e0: cc30 2039 3541 de39 a78f 863b c59d 2d3c
000000f0: d327 c739 5ef9 dd39 b9b1 553b
0.002912694 0.0050881435 0.0033018931 0.0014239147 0.0007808895 0.0017345719 0.0018469846 0.0036620551
0.00021694516 0.00038760045 0.0031882832 0.004599768 0.0035493698 0.006469261 0.0057820883 0.002297016
0.0016497242 0.0056469683 0.005656933 0.0013104876 0.0009952348 0.0015925659 0.0024357226 0.0028453257
0.00046486242 0.0005007884 0.0004977987 0.0017792485 0.0006319121 0.001605238 0.0014235821 0.002130695
0.0011448911 0.0047031953 0.0059529515 0.0005280612 0.0011613723 0.0002216582 0.008270258 0.001060386
0.00082388986 0.002082183 0.0012025946 0.0036923722 0.0014911321 0.00395098 0.003585778 0.0051564863
0.0018318319 0.0044717826 0.0021851824 0.0002582306 0.0046225055 0.0058420855 0.011500281 0.0034135822
0.00015276967 0.00042391723 0.00410648 0.010596697 0.0003798591 0.00042338198 0.0032607152

model.5.bias f4 [64]
00000000: 0000 0000 0000 0000 0000 0000 0000 0000
00000010: 0000 0000 0000 0000 0000 0000 0000 0000
00000020: 0000 0000 0000 0000 0000 0000 0000 0000
00000030: 0000 0000 0000 0000 0000 0000 0000 0000
00000040: 0000 0000 0000 0000 0000 0000 0000 0000
00000050: 0000 0000 0000 0000 0000 0000 0000 0000
00000060: 0000 0000 0000 0000 0000 0000 0000 0000
00000070: 0000 0000 0000 0000 0000 0000 0000 0000
00000080: 0000 0000 0000 0000 0000 0000 0000 0000
00000090: 0000 0000 0000 0000 0000 0000 0000 0000
000000a0: 0000 0000 0000 0000 0000 0000 0000 0000
000000b0: 0000 0000 0000 0000 0000 0000 0000 0000
000000c0: 0000 0000 0000 0000 0000 0000 0000 0000
000000d0: 0000 0000 0000 0000 0000 0000 0000 0000
000000e0: 0000 0000 0000 0000 0000 0000 0000 0000
000000f0: 0000 0000 0000 0000 0000 0000 0000 0000
0.0 0.0 0.0 0.0 0.0 0.0 0.0 0.0
0.0 0.0 0.0 0.0 0.0 0.0 0.0 0.0
0.0 0.0 0.0 0.0 0.0 0.0 0.0 0.0
0.0 0.0 0.0 0.0 0.0 0.0 0.0 0.0
0.0 0.0 0.0 0.0 0.0 0.0 0.0 0.0
0.0 0.0 0.0 0.0 0.0 0.0 0.0 0.0
0.0 0.0 0.0 0.0 0.0 0.0 0.0 0.0
0.0 0.0 0.0 0.0 0.0 0.0 0.0 0.0

model.5.A f4 [3, 3, 3]
00000000: 9331 5abe 9a59 c2bd 3208 e2be 31b9 033f
00000010: c041 d53c 7963 06bf 4798 00bf ae9c afbd
00000020: e983 06bf 15a4 2ebe c27e 2bbe d2c3 033f
00000030: 1484 ecbe c82b f6be 282e c83d 840b 8b3b
00000040: 2e5e d3be 8a12 edbe d132 00bf 9361 183e
00000050: d72c a5be 133f e43e 8eb5 a13d 9185 003f
00000060: bbef 45bd fdc4 043f 1501 1f3d
-0.21307974 -0.094897464 -0.44146878 0.51454455 0.026032329 -0.52495533 -0.50232357 -0.08574806
-0.5254503 -0.1705478 -0.16747573 0.51470673 -0.46194518 -0.48080277 0.097744286 0.004243316
-0.4128279 -0.46303207 -0.5007754 0.14880972 -0.32260773 0.44579372 0.07895957 0.50203806
-0.048324328 0.5186308 0.03881939

model.5.F f4 [3, 21, 21, 3, 3]
00000000: 8580 eabc dc9a 42bb de96 483c cfdb 1cbc
00000010: 929a a93a 08bb 3abc 2bac 3cbc f67e 00ba
00000020: 2ab3 efbc 6468 99bb 0cf4 e63c 8219 0d3d
00000030: d961 033d b52e 40bd f8af 2d3d 2adb d0bc
00000040: 6e08 863c f16f b23c 5723 0c3d 2d4d a03c
00000050: 5a4c 563b 398c 0c3c 0f32 3e3d 0f89 ef3c
00000060: e6c2 98bc efe3 e13c 3102 493a 67b1 cf3c
00000070: 47a1 b3bc 2ceb ebbb 8b7e b03c 2b71 633c
00000080: ca0e cd3c 44e2 863c e986 3c3b d48c 2e3d
00000090: 50a3 fa3b c517 ed3b 4aba c23c de86 7fbc
000000a0: f400 2b3d d1a5 5eba bebf 8e3c 94d2 41bc
000000b0: 7a17 613b 0f83 acbc c82a c13c 929d 1d3c
000000c0: 7194 02bd 1e70 3dbc 6970 9d3c 2f79 783a
000000d0: 86f6 08bb 1dbb 833c bc00 5b3c 0f08 393c
000000e0: 781a 113d d703 443d 0264 4cbd 9b08 623c
000000f0: 0fb2 04bd 926d 343d a088 97bb 43f7 443c
00000100: 581f 1bbc e1ca 443d 84b6 283c 0a40 ba3c
00000110: cc35 553d 1893 2ebc e6ac 41bb 4c8b 85bc
00000120: 5c28 c4bc b67d 9d3a df37 3a3d 3f04 23bd
00000130: 82f2 c1bb e8a8 21bc b555 e0bb 83e1 b53d
00000140: 9bcb 4fbc 08fd 8a3b 560c 3c3d 7f3f 91bc
00000150: b268 64bd 2077 313d 300c 063b 5ce6 883c
00000160: 1810 3a39 5f7d 0cbc 9c15 adbb 835c 633b
00000170: 8540 983a d9c6 02bd bf9e 91bb 22db 0b3d
00000180: 6a6f 863c d675 05bc d56b c33b 35cd 79bb
00000190: cb96 0cbd 48a0 31bd c9d6 693b 3d9c d63c
000001a0: 026a 5b3c 972f 103c 8a95 14bd e017 c1bc
000001b0: 99de 1abc 86b2 07bd 883a 2bbc 8bc6 be3c
000001c0: 605a e1bc f578 713c 0cb5 613c 5d58 e3bb
000001d0: 9c9c a93c 19f0 b3bc 5b66 1d3b 821e 5bbc
000001e0: 87db 76b8 defd aebc bf30 54bc 29be 23bd
000001f0: 802d 993b 811a e23b 70c9 c8bc af86 b2bb
00000200: 2932 01bd 278b 92bd 91e4 bebc ca3a 6abd
00000210: 7b70 6abd a3ee 53bd ddc9 03bd c1dc 943c
00000220: 86e1 01bc 0f4e 253d 5760 1d3c a7a4 263d
00000230: 889e e73c c25d 253c edbd bc3a ed98 3b3a
00000240: 9856 d8bb 8284 84bc 898e a13c f990 fc3c
00000250: 0f97 ebb9 a32a 943c bdea c93b b3ce 8e3c
00000260: a7aa 9dbc 72fd b4bb c265 65bb 99dc 123c
00000270: 2835 e9bc 8e23 2f3d 40ce 553b f4c6 e6bc
00000280: dd80 873c eefa 98bc a8fc a6bc c0d0 bfbc
00000290: 31d3 e0bc 5acc 6ebd 0147 78bd bd24 51bd
000002a0: 8e7a 12bc c622 db39 f3c9 03bc 2848 5b3a
000002b0: 41e9 943c 36da 9dba 1636 b0bc bb60 693d
000002c0: b4e7 2f3b ad1d 173c 72d8 39b9 b463 e73a
000002d0: 93e3 1f3c 9493 8cbc 771d e7bb 713d 9c3c
000002e0: cb3c 2cbd b82c 6fbc 1fc3 ed3b 5c17 523b
000002f0: f113 073d d9f3 5c3c c39e ad3c 3fee 80bb
00000300: 2604 dbbb d6bf a83c bbda a33b 5b37 ae3c
00000310: 9abe 8bbc 8111 0bbd 923e 3c3c 46ce 513b
00000320: 9e8d 97bb c88c f6bc c1e0 bebc 213f b13a
00000330: 422b d4b9 4cea f33c ec28 4fbc f28f 9abb
00000340: 3ffc ce3c 79cc b53c 91c3 e93c fc76 19bd
00000350: f8e7 d4ba c1e7 283d 21f1 c3bc cf34 643b
00000360: 33c1 903c 70d6 78bb 4212 d73c 0286 8c3c
00000370: 008f e73c 3f1f ea3c cda3 9a3b eee8 b53c
00000380: 8fbb 583c bbda e1bc 5053 0dbc 62ad 0d3d
00000390: d7fe 083d 49c3 353d bf80 5e3c a94a debc
000003a0: 5726 8fbb 4d44 f03c 3f10 cdbc 0e89 463d
000003b0: 79d0 073b 45e5 57bc 44d8 8f3a 7d94 3ebc
000003c0: 7104 86bc ec12 113d 43a3 083c 9d99 72bd
000003d0: 1ba7 3fbd a2ea e7bb 0986 6238 b044 0ebb
000003e0: 0ece 493c da41 e1bc 469a 9c3b 3ba0 2dba
000003f0: 4e02 d23c 2cd7 5d3c 7166 e73a 0559 f53b
-0.028625736 -0.0029694354 0.012243001 -0.009573891 0.0012939742 -0.011397131 -0.011515657 -0.0004901731
-0.029260237 -0.004681634 0.028192542 0.034448154 0.032075737 -0.046919543 0.042404145 -0.02549513
0.016361441 0.021781893 0.03421339 0.01956805 0.0032699318 0.008578354 0.04643446 0.02924016
-0.018647622 0.027574508 0.0007667868 0.025353147 -0.021927489 -0.0071996655 0.021544715 0.013881962
0.025031466 0.016465314 0.0028766936 0.042614773 0.007648863 0.0072354996 0.02377047 -0.01559612
0.041748956 -0.00084933365 0.017425414 -0.011829991 0.0034346269 -0.021058587 0.02357997 0.009620087
-0.031879846 -0.011562375 0.01921864 0.0009478507 -0.0020898893 0.016080434 0.013366874 0.011293425
0.035425633 0.047855224 -0.049900062 0.013795997 -0.032396372 0.044049807 -0.0046244413 0.012021842
-0.009467922 0.048045043 0.010297421 0.022735614 0.052053258 -0.010655187 -0.0029552518 -0.016301773
-0.023945026 0.0012015614 0.04546344 -0.03979897 -0.0059188018 -0.009866931 -0.0068461546 0.088809036
-0.012682821 0.0042415895 0.045910202 -0.017730473 -0.055763908 0.043326497 0.0020454042 0.016711406
0.00017744338 -0.008574813 -0.005282117 0.0034692592 0.0011615908 -0.031927917 -0.004443973 0.03414453
0.016410548 -0.00814577 0.0059637823 -0.0038116698 -0.034323495 -0.043365747 0.0035681 0.026197547
0.013391973 0.008800409 -0.036275424 -0.023570955 -0.0094524855 -0.033129238 -0.010450967 0.023288032
-0.027508914 0.014738311 0.013776075 -0.006938024 0.02070456 -0.021965073 0.0024017307 -0.013373973
-5.885542e-05 -0.021361288 -0.012951075 -0.039976273 0.0046746135 0.006900132 -0.024510115 -0.0054481844
-0.031541977 -0.071554475 -0.023302348 -0.057184972 -0.057236176 -0.051741254 -0.032174934 0.01817167
-0.007927304 0.040357646 0.009605489 0.04068437 0.028273836 0.010093154 0.0014399864 0.00071562716
-0.0066021197 -0.016176466 0.019721286 0.030830847 -0.0004493524 0.018086737 0.006162016 0.017432546
-0.019246412 -0.005523377 -0.003500328 0.008963727 -0.02846773 0.042758517 0.0032624155 -0.02817104
0.016540939 -0.01867434 -0.020384148 -0.02341497 -0.027444454 -0.058300354 -0.06061459 -0.051060427
-0.008940352 0.00041796843 -0.008043754 0.0008364939 0.01817763 -0.0012043181 -0.021510165 0.056977015
0.0026840987 0.009223384 -0.00017723607 0.0017653615 0.009758848 -0.017160214 -0.007053073 0.019072266
-0.042050164 -0.014598064 0.0072559263 0.003205738 0.032978002 0.013485872 0.021193868 -0.003934651
-0.006683844 0.020599287 0.00500044 0.02126663 -0.01705866 -0.03395224 0.011489527 0.0032013818
-0.0046250364 -0.030096427 -0.02330053 0.0013522842 -0.0004046802 0.029774807 -0.012644034 -0.0047168666
0.025266765 0.022192227 0.028535636 -0.037466988 -0.0016243448 0.041236643 -0.02391869 0.0034821515
0.01767025 -0.0037969612 0.026253823 0.017153744 0.02826643 0.028579352 0.0047192336 0.022205796
0.013228311 -0.02757012 -0.00862582 0.03458918 0.03344616 0.04437569 0.0135805 -0.02713521
-0.004368584 0.029329443 -0.02503216 0.04847055 0.0020723625 -0.013177221 0.0010974486 -0.011632082
-0.01635954 0.035418436 0.008339706 -0.05922853 -0.046790224 -0.007077531 5.400743e-05 -0.0021708421
0.012317194 -0.02749722 0.004779133 -0.00066233025 0.025635865 0.0135400705 0.0017654431 0.0074874186

model.6.weight f4 [63]
00000000: 79d4 293f 75c8 153f d079 263f d8e8 6c3f
00000010: 0644 2d3f f0fb 1f3f c6f1 fa3e ac01 143f
00000020: 3096 3b3f 55ea 9b3e 1e87 0e3e d168 3d3e
00000030: 6d2b 2a3f fa79 bd3e 0a54 693f cd0a 703f
00000040: 4c85 583f b3a1 593f 4db0 423e 135e 753f
00000050: f969 593d d9df 343f f22b 4d3f a7ee 143e
00000060: b5d2 5f3e 83ab 373f d024 f73e 5cde 6a3f
00000070: 09c3 5d3f fc3f 7c3f 4923 cd3e 1150 303e
00000080: 8027 a93e 00a4 0b3e a91a 113e 8597 ee3e
00000090: d8da 933e 8cc8 893e 11bf 8f3e 9611 403f
000000a0: 7f2c c83e 256f 443f 0827 3b3f 4d1a cd3e
000000b0: 45fd b83e 3694 f23e 25e0 5a3e 278e 283f
000000c0: 503f 153f 1846 173f 5ad6 a53e 450d 323f
000000d0: bd99 463f c6e4 af3e a8cb a43e 50e2 4d3f
000000e0: 7c50 723f 2080 ae3e d963 623f 28f5 1e3e
000000f0: aa0f 783f 653c 4c3f 8cbf 413f
0.6633983 0.58509 0.6502962 0.9254279 0.6768192 0.624938 0.49012583 0.5781505
0.7327604 0.3045222 0.1391873 0.18497016 0.6647251 0.37007123 0.9114386 0.9376648
0.84578395 0.8501236 0.19012566 0.9584667 0.05307958 0.70654064 0.8014518 0.14544164
0.21857722 0.7174608 0.48270273 0.91745543 0.86625725 0.9853513 0.40065983 0.17218043
0.3303795 0.1363678 0.14170326 0.46599975 0.28877902 0.26910818 0.2807546 0.75026834
0.39096448 0.76732093 0.7310643 0.40059128 0.3613073 0.473787 0.21374567 0.6584191
0.5829973 0.5909133 0.323901 0.695515 0.77578336 0.34354228 0.32186627 0.8042345
0.9465406 0.34082127 0.88433605 0.15523207 0.968989 0.79779655 0.756829

model.6.bias f4 [63]
00000000: 9994 133e 6694 ba3d 582d a93e 59a4 1d3e
00000010: 6585 82be 6505 ebbd affb 253e bb5d febd
00000020: a437 0c3e a4be 123d fbc3 1c3d 9aa9 373e
00000030: bc6f 983e c58d a53e 12dc 283e c146 3bbd
00000040: ae34 813c 5542 06be 3fd3 973d e298 3d3e
00000050: 0694 00bd 83dc 893d 47c2 b83d 8e13 943d
00000060: 75fd c33d d59e 8f3d b280 c13d 4544 9ebd
00000070: c04f 2a3d dc98 8b3d 1d4c 0abd dcce 653d
00000080: 6b26 b33e 9b04 4f3d a07a ecbc 0e79 423d
00000090: e461 183e 2094 2abc 2393 b23d 124a 65bd
000000a0: f250 583e c7ea c23d be23 23bb 7895 61bd
000000b0: c645 903e 48a7 b63d ebec 193b 8159 fd3c
000000c0: 6ed7 c7bc ece9 8bbd 6a5e e03a 74d9 82bd
000000d0: d717 b33d a561 993e 806e df3d 5309 a4bd
000000e0: 5aee 5b3e e80d b5bc f26d 35bd b6dc 053d
000000f0: c14e 63bc f80b 2c3e 8bbc 6b3e
0.14412154 0.09110336 0.33042407 0.15394725 -0.25492397 -0.11475638 0.16209291 -0.124202214
0.136931 0.03582634 0.03827284 0.17935792 0.29772747 0.32334724 0.164902 -0.045721773
0.01577219 -0.13111241 0.07413339 0.18515351 -0.031391166 0.067315124 0.090214305 0.07230292
0.095698275 0.07012717 0.09448375 -0.07727865 0.04157996 0.06816265 -0.033763994 0.05610548
0.34990248 0.0505415 -0.028867066 0.047478728 0.14881092 -0.010411292 0.0871947 -0.055978842
0.21124628 0.095174365 -0.002489313 -0.055074185 0.28178233 0.08918625 0.0023487161 0.030926468
-0.024394717 -0.068317264 0.0017117981 -0.06389132 0.087447815 0.2995731 0.10909748 -0.08009591
0.21477643 -0.022101358 -0.044294305 0.03268119 -0.013873757 0.1680144 0.23021142

model.6.running_mean f4 [63]
00000000: 9814 093d 1b82 b73d 543e 80bd 95b6 44be
00000010: 023d 093f 00cd a03e 7b7f 88be 51ef 9f3e
00000020: 2fb5 0abe b7ba 07be 74d4 d83d b3a9 f1bd
00000030: 2db8 633d 85ce 0abd d17b 2bbe 3649 5e3e
00000040: 064a 193e 45b8 f83e 00f9 bebd 6bf1 dbbd
00000050: d0a7 763e 9dc8 89bd 5e22 433c 525d bc3d
00000060: f7ef 0d3e fa98 66be 8670 e4bd d158 0b3f
00000070: 38ef ca3c c7a0 cdbd b886 a93e 2a40 903d
00000080: 14f3 06bd 39e7 0b3e 25e8 0b3e cf96 623e
00000090: 0ecc ed3c ab5a 2e3c aeec 82be e11e 913e
000000a0: ac2b 0dbe 96fb 5cbe 0d8b 09bd 6b46 183e
000000b0: 0ace 3a3d ba2d 5bbe 04d6 c83d 117a 633d
000000c0: 22a0 ba3e a870 623e 214c f8bd 4480 ae3e
000000d0: dd23 653e 108d 683c 74ec 7a3c 7dd7 9b3e
000000e0: 1a57 91bd d389 df3e f9cd f93e ac37 f73c
000000f0: a5b3 a8bd e7d5 73be e24c 6f3d
0.033466905 0.089603625 -0.06261888 -0.19210275 0.53608716 0.31406403 -0.2665976 0.3123727
-0.13545679 -0.1325482 0.10587397 -0.11799946 0.055595566 -0.03388836 -0.16746451 0.21707615
0.14969644 0.48578086 -0.09324837 -0.10739406 0.24087453 -0.06727717 0.011910049 0.09197487
0.1386107 -0.22519293 -0.11154275 0.544324 0.024772272 -0.100404315 0.33110595 0.07043488
-0.03294666 0.13662423 0.13662775 0.22127841 0.029027965 0.010641734 -0.25571197 0.2834387
-0.13786191 -0.21580347 -0.033579875 0.14870612 0.04560665 -0.21404162 0.09806445 0.055536333
0.36450297 0.22113287 -0.121238954 0.34082234 0.22376962 0.014193788 0.015315164 0.30437842
-0.070966914 0.4365984 0.48789957 0.030177914 -0.082373895 -0.23812066 0.05842293

model.6.running_var f4 [63]
00000000: ce5f 743c 34d4 8a3c 8a6a db3c 4d94 0e3d
00000010: b662 7c3b 3968 e13c 9f46 2a3c 4a11 893c
00000020: 0908 e63c a954 273c 298d 8b3b 41d5 8e3b
00000030: cc3f 913c c79a 013c 35bf 133d 571c 4e3d
00000040: 4fc0 d03c d19d 8d3b 2051 ff3b c847 c53c
00000050: 8065 e83c 35be 663d 41bd 213d b364 163d
00000060: 4048 aa3c 6fe4 003d 05d4 b33c 3aaa 113d
00000070: 71cf 4b3d d986 823d df22 043d 5383 2b3c
00000080: 02af 4c3c 8e93 823d 75f7 033c 3979 cb3c
00000090: 0075 703c e3ab 4c3c 801e 483c 94e3 013d
000000a0: 551d 903c 2a46 b33c ca8f c03d 499d bc3d
000000b0: 4e68 833c 97b5 f43c e898 133e 21de c73d
000000c0: 079b f03d 8b20 c93c 54e3 de3c e7f1 883c
000000d0: 1cbc a43c c78a 533c f568 663c 4952 633d
000000e0: cc26 1d3d aa05 4a3e 2282 193d 9b81 033e
000000f0: c69b 1d3d 23e6 8c3d 364d f83c
0.01491542 0.01694689 0.0267842 0.0348094 0.0038510985 0.027515518 0.010392814 0.016731877
0.028080003 0.010213056 0.004258771 0.004358918 0.017730616 0.007910437 0.03607102 0.050319996
0.025482325 0.0043217917 0.0077916533 0.02408208 0.028368711 0.05633374 0.039487127 0.036717128
0.020786405 0.03146785 0.021951685 0.03556273 0.04975838 0.063733764 0.03225982 0.010468322
0.012492897 0.063758 0.008054604 0.024838077 0.0146763325 0.012492153 0.012214303 0.031711176
0.017592112 0.021884043 0.094024256 0.09209687 0.016040947 0.029871745 0.14413798 0.097591646
0.11748319 0.02455165 0.027208008 0.01671691 0.020109229 0.012911505 0.01406311 0.055498395
0.038367078 0.19728723 0.03747762 0.1284241 0.038478635 0.068798326 0.030310255

model.8.bias f4 [64]
00000000: 0000 0000 0000 0000 0000 0000 0000 0000
00000010: 0000 0000 0000 0000 0000 0000 0000 0000
00000020: 0000 0000 0000 0000 0000 0000 0000 0000
00000030: 0000 0000 0000 0000 0000 0000 0000 0000
00000040: 0000 0000 0000 0000 0000 0000 0000 0000
00000050: 0000 0000 0000 0000 0000 0000 0000 0000
00000060: 0000 0000 0000 0000 0000 0000 0000 0000
00000070: 0000 0000 0000 0000 0000 0000 0000 0000
00000080: 0000 0000 0000 0000 0000 0000 0000 0000
00000090: 0000 0000 0000 0000 0000 0000 0000 0000
000000a0: 0000 0000 0000 0000 0000 0000 0000 0000
000000b0: 0000 0000 0000 0000 0000 0000 0000 0000
000000c0: 0000 0000 0000 0000 0000 0000 0000 0000
000000d0: 0000 0000 0000 0000 0000 0000 0000 0000
000000e0: 0000 0000 0000 0000 0000 0000 0000 0000
000000f0: 0000 0000 0000 0000 0000 0000 0000 0000
0.0 0.0 0.0 0.0 0.0 0.0 0.0 0.0
0.0 0.0 0.0 0.0 0.0 0.0 0.0 0.0
0.0 0.0 0.0 0.0 0.0 0.0 0.0 0.0
0.0 0.0 0.0 0.0 0.0 0.0 0.0 0.0
0.0 0.0 0.0 0.0 0.0 0.0 0.0 0.0
0.0 0.0 0.0 0.0 0.0 0.0 0.0 0.0
0.0 0.0 0.0 0.0 0.0 0.0 0.0 0.0
0.0 0.0 0.0 0.0 0.0 0.0 0.0 0.0

model.8.A f4 [3, 3, 3]
00000000: e107 05bf 32a8 063f 70ce e13e 567a b2bc
00000010: 3a5d b23e e46d db3d f066 28be eb8d 0a3f
00000020: 7f6d 6cbe bec3 9a3d ffe7 803d 666a 83be
00000030: cd75 723e 7fa1 79be ded2 c83e abe9 15bf
00000040: 9071 2dbe 0981 833e bb58 b73e 8ba8 3ebd
00000050: ecf7 62be 2127 0f3f 5305 0d3e c91d e63e
00000060: b08f a2be e51f e13e 0dd5 b4be
-0.5196515 0.52600396 0.44102812 -0.02178685 0.3483675 0.10714319 -0.16445518 0.541228
-0.23088644 0.07556866 0.0629425 -0.25667113 0.2367775 -0.24378012 0.3922338 -0.58559674
-0.16937852 0.25684384 0.35809883 -0.046547454 -0.22164887 0.5591908 0.13771562 0.449446
-0.3175025 0.43969646 -0.35318795

model.8.F f4 [3, 21, 21, 3, 3]
00000000: ff60 c3bc 83d1 303c 158e 05bd 472f 1ebd
00000010: 5904 73bc 4b16 193b df63 4dbc 49db 2bbd
00000020: a0f6 fabc 3c6f 75bc 9758 19bd bcc5 733c
00000030: c553 cbbc 07b8 a03c 4c2e 80bc 4f20 e4bc
00000040: 153d 093b 906c 3ebc 32ec 2d3c 2147 aabc
00000050: 9b48 1abc a09b 2a3d 46e6 5e3a b0bb efbc
00000060: 907e c43b ae91 d0bc 7982 ba3c 5154 d5bb
00000070: 7523 ad3b 7154 233d aaaf 933c bb93 4b3d
00000080: 4be6 b63b 452f 9dbc ff9a 3e3c 74b0 293c
00000090: 3ee6 98bb 388d cabc 02f8 aebc 7529 07bd
000000a0: c6a7 9cbc 56d7 c0bb 2362 54bd dc72 24bd
000000b0: e90d 11bd 0caa d3bc 48a5 7f3b 6e76 44bd
000000c0: 2fda 9bbc 0406 e2bb 2279 f3bc be45 1ebd
000000d0: b320 2ebd 5eb2 ecbc c1bb 783c b637 863c
000000e0: a65c 49bc b0bf 0abd fb91 093c 7ab1 b7bc
000000f0: 1bf0 9739 2d48 783c d1c2 ae3c 932e acbc
00000100: e1e8 873c 67fa 8dbc d171 a2bc 8cdf 9f3c
00000110: 6a94 28bc 6b8e 9b3c 578b b0bc 447d cfbb
00000120: 8758 8a3c 8132 39bc 2ada 043b 2df6 d1bc
00000130: 9105 9f3b 0991 c43a b671 a53c 92d4 a73c
00000140: 28b5 cb3c 083c bcbc 74a9 bb3c 7d1a 0ebb
00000150: 37c7 283c e0b3 a03b 5358 253c 6696 d53c
00000160: b9ff 5abc f079 123c db9f 393c 124b 52bd
00000170: a61b 883c b6cd 5abb 8b14 43bd 070e a63c
00000180: c582 49ba 7245 053d ad66 8bbc 9ff2 e23c
00000190: 8de3 d53c 2658 c93c 7f4b c33c b517 273d
000001a0: 6d64 ebbb e0f2 2c3c 15d9 87bc c264 a1bb
000001b0: 544a ac3c 791f b7bc 1e00 7f3c 1cfe 453b
000001c0: 8369 0abc 1a28 de3b 19e0 0e3d 5fcd 383d
000001d0: 7b68 d03c e1f6 873c d3ed 51ba a6bf cc3b
000001e0: b2b5 8c3a f81d 263c e926 533c fb1d 6abc
000001f0: 1f60 e5bc 3c2e 943b f545 503c cc62 c03c
00000200: 2fbf e4bb 1a36 953c 1d63 063c 3c3c fb3b
00000210: 9e95 293c 0a64 153b ee38 d1ba 5735 143c
00000220: 4af2 bc3c 4f31 1f3d b762 58bc aeba 3dbd
00000230: e7a7 4f3c 06a9 a8bc 8eed 23bd da08 e43b
00000240: 3742 3a3c 6e3e 603c 6be0 d83b f30a 733d
00000250: f852 003d cc2c 303d 8d22 0e3d a2b6 7e3d
00000260: 796d 643d 5161 51bd ec2d 4abd 50a7 84bd
00000270: 1dd8 0bbd 9ad7 40bb 2b61 dcbc 65ed 29bd
00000280: a91d fbbc ae09 edbc 6fc3 913b c325 403c
00000290: 505d 4dbc a9ee 21bd 5ea8 8abb 8a39 c6bb
000002a0: fa69 9fbb 72a9 90ba 61ea 9fbc 04c4 5cbb
000002b0: 1fef 2c3d 4f84 9ebc c7cf b13c e25d f23c
000002c0: a1cf e3bc 0edc 0ebc face 633c 9789 bbbb
000002d0: 52c6 8fbb 6fb3 a33c 7ce2 39bc c192 04bc
000002e0: 411d d93a 0cc1 333c 4dcd a8bc e9de c5bb
000002f0: 01c9 443c e9d2 e53c 67d7 51bd 95e2 92ba
00000300: 3699 b23c 7dcc 893c d88d ba3c 5053 073c
00000310: 6fd8 4d39 6f01 573c b513 bebb 53c9 cd3c
00000320: c607 943c d4db 63bd bd4d 463c e850 54bc
00000330: 496f 4f3c 97b1 01bc fb96 dd3b 9d76 fcbc
00000340: 63e5 6a3c ff4f 01bb 7b29 353c dfba d83b
00000350: 9950 c33c 0c53 0e3d 5cf6 043c 15c2 763b
00000360: dcbb d8bc cea5 173d cf14 073c f4b9 183d
00000370: eb74 d9bc d4a4 f03c 0086 b33c 8132 f2bc
00000380: df19 ac39 86f6 de3c 260d 84bc 0651 9b3c
00000390: b766 93bc d6c3 5b3d f84f 96bc e4b1 10bc
000003a0: 1aef f3bc 4c77 c23c c5eb c93c 1aac 113d
000003b0: db5d ed3b 7c90 673d e489 6d3c 7517 47bc
000003c0: 9704 a33b 38ec 283c 40b5 783a 9a28 523c
000003d0: 0c8c a2bc da54 c3bc 8103 b2bc 4520 37bd
000003e0: 0a54 4a3c d128 c53b 948e 913c 4ffb cf3b
000003f0: 7ec1 803c 1c5b b93b cf0b 0e3d 7ba2 0ebd
-0.023849962 0.010792139 -0.032606203 -0.038619306 -0.0148325795 0.0023359235 -0.012536018 -0.041957173
-0.030635178 -0.014980134 -0.037438 0.0148786865 -0.024820218 0.019619001 -0.015647076 -0.027847437
0.0020940949 -0.011622563 0.010615395 -0.02078587 -0.009416725 0.04165232 0.00085029413 -0.029264301
0.0059965327 -0.02546009 0.022767292 -0.0065102954 0.005283768 0.03987545 0.0180281 0.049701434
0.0055816523 -0.019187579 0.011633634 0.010357011 -0.004666119 -0.024725541 -0.021358494 -0.03299852
-0.01912297 -0.005885045 -0.051851403 -0.0401486 -0.035413656 -0.02583792 0.0039008427 -0.047964506
-0.019024936 -0.00689769 -0.029720847 -0.03864073 -0.042511653 -0.028893646 0.015181483 0.016383987
-0.0122901555 -0.033874214 0.008396621 -0.022423495 0.00028979857 0.015153927 0.02133313 -0.021018302
0.016590538 -0.017331315 -0.019829663 0.019515775 -0.010289291 0.018988809 -0.021550817 -0.0063320715
0.016887916 -0.011303545 0.0020271637 -0.025630081 0.0048529585 0.0014996837 0.020195823 0.020487104
0.024866655 -0.022977844 0.02290795 -0.0021683269 0.010301403 0.0049042553 0.010091859 0.026072692
-0.013366633 0.008940205 0.011329616 -0.051341124 0.016614746 -0.0033386773 -0.047627013 0.02027036
-0.00076870277 0.03253693 -0.017016733 0.027703581 0.026109481 0.024578165 0.02383971 0.040794093
-0.0071836025 0.010555953 -0.016583005 -0.0049253413 0.021031536 -0.022353875 0.015563993 0.0030211275
-0.0084480075 0.006779683 0.034881685 0.045117732 0.025440445 0.016597213 -0.0008008156 0.006248432
0.0010735302 0.010138981 0.012887695 -0.014289374 -0.027999936 0.004522113 0.012711992 0.02348461
-0.0069807987 0.018214274 0.008202341 0.0076670926 0.010350613 0.0022795224 -0.0015962401 0.00904592
0.023064751 0.038865384 -0.013207129 -0.04632061 0.012674308 -0.02058841 -0.04002147 0.006959063
0.011368326 0.013686759 0.0066185496 0.059336614 0.031329125 0.04301147 0.03470092 0.06218589
0.055768464 -0.0511182 -0.0493602 -0.06477225 -0.03414165 -0.0029425384 -0.026901802 -0.041486163
-0.030653792 -0.02893528 0.0044483463 0.011727753 -0.012534454 -0.039534245 -0.0042314967 -0.0060493397
-0.0048649283 -0.0011036827 -0.01952094 -0.003368617 0.04222023 -0.019350199 0.021705521 0.029585782
-0.027808966 -0.008719457 0.0139043275 -0.005723189 -0.0043876553 0.019983022 -0.011345502 -0.0080916295
0.0016564504 0.010971319 -0.020605708 -0.006038536 0.012010814 0.028054671 -0.051230814 -0.0011206443
0.021801572 0.01682114 0.022772714 0.008259609 0.00019630951 0.0131229 -0.005800689 0.025120413
0.018070113 -0.055629566 0.012103495 -0.012958743 0.01266081 -0.007915876 0.006762383 -0.030818278
0.014336917 -0.001973152 0.011057253 0.0066140736 0.023842143 0.03474717 0.008115377 0.0037652303
-0.026456766 0.037023358 0.008244707 0.037286714 -0.026545009 0.029375471 0.021914482 -0.029565098
0.00032825672 0.02721716 -0.01611955 0.018959533 -0.017993314 0.05365356 -0.018348679 -0.008831475
-0.029777098 0.023738526 0.024648556 0.03556452 0.0072438545 0.056534275 0.014498208 -0.012151589
0.0049749124 0.010310225 0.00094874576 0.012827063 -0.01984217 -0.023844171 -0.021730186 -0.04470851
0.012349138 0.0060168286 0.017768182 0.006347097 0.015717264 0.005656613 0.03467923 -0.034822922

model.9.weight f4 [63]
00000000: 9cd8 db3e 1518 2e3e 2005 493f b18d 2c3e
00000010: 5c9f 4b3e e00e 423f cb22 153f 7cef 1d3e
00000020: 59e1 153f 6841 4d3f 1199 623f 7fd0 a13d
00000030: 5860 a83e 1677 0e3f 5f7e 583f 0828 db3e
00000040: 5123 2c3f b60a 1c3f d23a d53e 659d 2b3f
00000050: 8758 d73e 04e5 3b3f 0640 5c3e 7023 563f
00000060: e736 1d3e 66c9 533f 0e9a d83e 1a63 b43e
00000070: efae 683f 56d7 263f 6500 3f3f fa4e 463f
00000080: 8f21 633e c813 803f 6367 623f 873c a13e
00000090: ddcc 5a3f 36a9 9b3e cada 2b3f a612 6c3f
000000a0: b932 3e3f 46cf 773f 0479 233f 8923 483f
000000b0: f211 093f 1647 0d3f f41c 8e3e 5fd3 2c3e
000000c0: 7b8a 6e3f 724a bc3e d03b 1a3f 0eb3 b83e
000000d0: 9a2f 363f 8d38 4b3f abbd fd3e 1cc3 0c3e
000000e0: b451 723f e621 d43e 6ad9 b93e 115b 573f
000000f0: 7ce8 313f 62ce 653f 5f03 4f3e
0.42938697 0.17001374 0.78523445 0.16850926 0.1988501 0.7580395 0.58256215 0.15423387
0.5854698 0.80177927 0.8851481 0.079010956 0.32886004 0.5565046 0.84567827 0.4280398
0.6724139 0.60953844 0.4164644 0.6703704 0.42059729 0.73396325 0.21508798 0.83647823
0.15352975 0.82729185 0.42305034 0.35231858 0.9089193 0.65172327 0.74609977 0.7746426
0.2218077 1.0006037 0.88439006 0.3149149 0.85468847 0.30402535 0.6713072 0.92215955
0.74296147 0.9680065 0.6385653 0.7817922 0.5354301 0.55186594 0.27756464 0.16877507
0.93180054 0.36775547 0.60247517 0.36074108 0.71166384 0.79383165 0.49558768 0.13746303
0.9465592 0.41432112 0.36298686 0.8412333 0.6949537 0.8976804 0.2021613

model.9.bias f4 [63]
00000000: aa5c 7ebe 123f ac3d e443 ff3d 9de0 353d
00000010: 2c7e 4a3d 02aa d8bc 2856 fcbc 6676 013d
00000020: 53c0 833e 2688 6cbe 8bf4 a1be 09e3 1b3d
00000030: efe4 01bd d657 3bbc 975b 4b3e 0958 afbc
00000040: 33ac 61bd e4a9 de3a 2479 b03b 9c84 273e
00000050: 62cf 2c3d 6a86 6ebe 14d8 903d 828a a73d
00000060: 0dae 1ebd be6c 9a3e 3b51 d73d 8d65 48bd
00000070: d943 4d3e 182f a03d 24c9 4abe abd2 6a3a
00000080: 608c 753e 435f 0d3e bb6f 37be 15c5 793c
00000090: 705a 143e 8db8 15bd 1892 3c3e 4bd8 ff3d
000000a0: 6abd cbbb 1e1e 40bd cdac 5a3e abad 373d
000000b0: 73a0 1bbe c83a 913e 4e40 5fbd 43ab 0e3d
000000c0: 41f1 813e ba38 0fbd bfd8 bd3c 30ee 703d
000000d0: 2960 48be 7545 8ebd 8c61 39bd a5d0 113d
000000e0: 03aa 75be 6a55 903d 14a0 353c 4a17 08bd
000000f0: 0395 e03c 47d2 5b3e 7d78 683e
-0.24840036 0.08410467 0.12464121 0.04440366 0.049436733 -0.026448254 -0.030802801 0.031607054
0.2573267 -0.23098812 -0.31631884 0.038058314 -0.03171247 -0.011434516 0.19859158 -0.021404283
-0.055095863 0.0016987887 0.005385535 0.1635918 0.042189963 -0.23293462 0.07072464 0.08180715
-0.038740207 0.3016109 0.1051354 -0.04892497 0.20045413 0.078214824 -0.19803292 0.00089577836
0.2397933 0.1380587 -0.17913716 0.015244742 0.14487624 -0.036552954 0.18415105 0.124924265
-0.0062176483 -0.046903722 0.21354981 0.044843357 -0.15197925 0.2836516 -0.054504685 0.034831297
0.25379375 -0.034966208 0.023174642 0.058820903 -0.19567932 -0.069468416 -0.045259044 0.03559937
-0.23990636 0.070475414 0.011085529 -0.033225335 0.027414804 0.21466933 0.22702213

model.9.running_mean f4 [63]
00000000: 8c7e eabd 3d23 7e3d 8307 4b3d fbfc cd3b
00000010: 98e8 43bd 64e6 54bd 3417 553d 44d7 8fbd
00000020: b2b1 ca3d ad5a dbbd 41f2 0fbe b68d 38bd
00000030: 1362 c73d 144a 5c3d c3a4 d7bb 89fa 333d
00000040: 9e50 203d e6c6 2d3d 0fb7 973d 9a53 47bd
00000050: d5c2 9e3d 648a debc c658 66bd 74b2 5fbe
00000060: c477 d8bd 9652 c33c ea2e f03d cb63 4c3d
00000070: 7271 69bd 4d5d da3c a60a d2bd cc87 53bd
00000080: 8256 d1bc 5e50 81bc c1f4 3f3d 216d f4bd
00000090: eba9 f4bd cae2 2a3d 01b1 dcbd 6d1b d8bd
000000a0: 9103 753c b9c8 473e 0b0d abbd 09e8 f03d
000000b0: ecfa c23d 0759 0c3e 4fac 7c3d ce5c 03be
000000c0: 880e 84bb 24af af3d c44f b23d 721c 27bd
000000d0: 3ea4 72bd 90eb b93d e98a 233d 8b31 09be
000000e0: e0a1 e4bd 08de 053e 1be2 af3d 3c64 1d3e
000000f0: 67b2 2f3d 08df ca3c 1bbd 25bd
-0.11449918 0.062045325 0.04956771 0.006286261 -0.04782924 -0.05197753 0.05202408 -0.070234805
0.09897174 -0.107106544 -0.14057256 -0.04505702 0.09735503 0.053781584 -0.0065809204 0.0439401
0.039139383 0.042426012 0.074079625 -0.048663713 0.07752005 -0.0271656 -0.056237005 -0.21845418
-0.105697185 0.023843091 0.11727698 0.049899857 -0.056992956 0.026655817 -0.10255937 -0.051643178
-0.025553945 -0.015785392 0.046864275 -0.11934877 -0.11946472 0.04172019 -0.10775948 -0.10552106
0.014954464 0.19510163 -0.08352097 0.11763007 0.09520516 0.13705836 0.061687764 -0.12828371
-0.0040300526 0.08578327 0.0870662 -0.040798612 -0.059238665 0.09078133 0.039927397 -0.13397805
-0.11163688 0.1307298 0.08588048 0.15370268 0.042894747 0.024764553 -0.04046355
