KAIR/model_zoo/mine_color_1k.pth (torch, 773253 bytes, 111 tensors)

model.0.bias f4 [64]
0.0 0.0 0.0 0.0 0.0 0.0 0.0 0.0
0.0 0.0 0.0 0.0 0.0 0.0 0.0 0.0
0.0 0.0 0.0 0.0 0.0 0.0 0.0 0.0
0.0 0.0 0.0 0.0 0.0 0.0 0.0 0.0
0.0 0.0 0.0 0.0 0.0 0.0 0.0 0.0
0.0 0.0 0.0 0.0 0.0 0.0 0.0 0.0
0.0 0.0 0.0 0.0 0.0 0.0 0.0 0.0
0.0 0.0 0.0 0.0 0.0 0.0 0.0 0.0
00000000: 0000 0000 0000 0000 0000 0000 0000 0000
00000010: 0000 0000 0000 0000 0000 0000 0000 0000
00000020: 0000 0000 0000 0000 0000 0000 0000 0000
00000030: 0000 0000 0000 0000 0000 0000 0000 0000
00000040: 0000 0000 0000 0000 0000 0000 0000 0000
00000050: 0000 0000 0000 0000 0000 0000 0000 0000
00000060: 0000 0000 0000 0000 0000 0000 0000 0000
00000070: 0000 0000 0000 0000 0000 0000 0000 0000
00000080: 0000 0000 0000 0000 0000 0000 0000 0000
00000090: 0000 0000 0000 0000 0000 0000 0000 0000
000000a0: 0000 0000 0000 0000 0000 0000 0000 0000
000000b0: 0000 0000 0000 0000 0000 0000 0000 0000
000000c0: 0000 0000 0000 0000 0000 0000 0000 0000
000000d0: 0000 0000 0000 0000 0000 0000 0000 0000
000000e0: 0000 0000 0000 0000 0000 0000 0000 0000
000000f0: 0000 0000 0000 0000 0000 0000 0000 0000

model.0.A f4 [3, 3, 3]
0.043230347 -0.07619766 -0.28288463 0.2555586 0.40715137 -0.45709997 0.04716873 -0.15842089
0.35358047 0.057951562 0.4674729 0.45991838 -0.54482645 -0.5905321 -0.2681621 0.17398927
-0.22314034 -0.28828263 0.49147087 -0.50527406 -0.45907024 0.5669291 -0.19200598 -0.15883774
0.41368476 0.3952432 -0.46663702
00000000: 4e12 313d 850d 9cbd 41d6 90be 94d8 823e
00000010: 2576 d03e 0209 eabe 0034 413d 1639 22be
00000020: 8008 b53e 9e5e 6d3d 9c58 ef3e 6c7a eb3e
00000030: bf79 0bbf 1d2d 17bf 8b4c 89be 3e2a 323e
00000040: e77e 64be c899 93be 12a2 fb3e a459 01bf
00000050: 410b ebbe 4422 113f 379d 44be 5ca6 22be
00000060: 7dce d33e 515d ca3e 0ceb eebe

model.0.F f4 [3, 21, 1, 3, 3]
0.077838294 0.070278965 0.11502717 -0.045917306 -0.057701275 0.04102854 0.06777882 -0.17168088
0.15819561 -0.10700448 0.11017207 0.06186 0.01126871 0.011239266 0.11924622 0.03021496
-0.14853375 0.075439215 -0.077466466 0.14144067 0.13738294 -0.103075765 0.06366669 0.12915765
-0.085485056 -0.10746823 -0.098825336 -0.10157453 0.05797039 0.13957515 0.026100498 0.024899667
-0.011687945 0.15155247 0.13630043 0.0020877023 -0.042810645 0.053261694 0.098430134 0.046960972
0.088157594 0.0230447 -0.029911375 -0.10546794 0.03396216 0.014048022 -0.0741041 -0.0074225813
0.123396374 -0.07206754 -0.134045 0.14106059 0.1261718 0.1213749 0.017303245 -0.103627294
-0.063123785 -0.18101177 0.065268286 0.14150466 0.07606027 0.08279065 -0.042263314 0.11219751
-0.14000264 -0.0058641476 0.07408822 0.07635412 -0.114379406 -0.14784504 -0.13980858 -0.14803278
0.0322356 0.1294504 -0.14407766 -0.14694653 -0.02219967 -0.0034027023 -0.055357672 0.017655
0.07637318 0.078222215 -0.07201235 -0.15871744 0.15097201 0.13025554 -0.16532522 0.026577082
0.093088046 0.064687714 -0.0072992835 -0.011704366 0.092284 -0.0012084002 0.06804302 -0.08107992
-0.12123955 -0.16301118 -0.15033887 0.014529652 -0.04288654 -0.12087919 0.004421312 0.104073256
-0.05141377 0.11773977 -0.041637115 -0.11395152 -0.13737589 0.018651292 0.12170029 -0.033211723
-0.024336373 -0.16654392 0.13861078 0.02978402 0.0463015 0.06705143 0.15327047 -0.022814136
-0.025516711 -0.19125351 0.09672311 0.010637263 0.04761455 0.117865086 -0.029389836 -0.0845121
-0.10366655 0.1106622 0.118885905 0.008942938 0.096193746 0.15366103 -0.084237926 0.031624053
-0.15868649 0.09834256 0.023801371 -0.15473376 0.077905096 0.034944933 0.010736043 0.06648568
0.039525848 -0.12679482 0.12959425 0.0054139937 0.025298193 -0.16633819 -0.051996462 -0.12569633
-0.052269865 0.055457234 -0.122265734 -0.06006638 -0.06769257 0.102044456 0.11547419 -0.0417334
0.028378405 0.035775658 0.053270042 -0.052727118 -0.14352122 -0.046325028 0.090334065 -0.024150195
-0.09268582 0.16153757 0.05443883 0.10891152 -0.015581272 -0.05631277 0.033079013 0.022931138
0.14276265 -0.007882565 -0.09487664 -0.06562152 -0.05917144 0.14452824 -0.0071003106 -0.1065378
-0.12727605 0.06516248 -0.032074302 -0.14781596 0.12091268 0.056993835 -0.17208341 0.04550298
0.050239544 -0.060902137 0.05404383 -0.14082973 -0.05091561 -0.05737295 0.15252995 -0.10161756
0.11729381 -0.06650512 0.013968016 0.1453617 -0.045828946 -0.12134799 0.16687106 -0.14775988
-0.037174787 0.0023964767 -0.16355842 -0.054101292 -0.070066564 0.049679272 -0.07311765 0.056630764
-0.07779971 -0.12641445 0.03925074 0.1360991 -0.060090266 -0.15538904 -0.10348835 0.043088112
0.035097264 0.04769188 -0.14166257 -0.10953261 -0.13052844 0.09949849 0.042106982 0.0027762516
0.15598956 0.11025952 0.065803096 0.1703203 0.05489175 0.17508814 -0.13706347 0.052627377
0.1638303 -0.046341162 0.01828333 -0.043162446 -0.09468005 0.124907 0.13255678 -0.062481653
0.15991823 -0.022355283 0.12662485 0.005251783 0.10528793 0.1171139 0.11802627 0.013922999
00000000: af69 9f3d 6bee 8f3d 5d93 eb3d c913 3cbd
00000010: 2c58 6cbd 8b0d 283d 9fcf 8a3d 1dcd 2fbe
00000020: 08fe 213e 2a25 dbbd e5a1 e13d e960 7d3d
00000030: 65a0 383c e624 383c 5d37 f43d 5d85 f73c
00000040: 3b19 18be e07f 9a3d bda6 9ebd d3d5 103e
00000050: 1dae 0c3e 6319 d3bd ae63 823d e741 043e
00000060: ca12 afbd 4e18 dcbd f064 cabd 4f06 d0bd
00000070: 5c72 6d3d caec 0e3e b6d0 d53c 63fa cb3c
00000080: cb7e 3fbc 9230 1b3e 5792 0b3e d5d1 083b
00000090: 375a 2fbd ef28 5a3d bd95 c93d 265a 403d
000000a0: f88b b43d 3dc8 bc3c b308 f5bc 93ff d7bd
000000b0: e81b 0b3d ad29 663c e4c3 97bd 2039 f3bb
000000c0: 3db7 fc3d 2598 93bd 1843 09be 3072 103e
000000d0: 2e33 013e 6793 f83d 89bf 8d3c 8c3a d4bd
000000e0: 0b47 81bd 265b 39be 61ab 853d 99e6 103e
000000f0: 7dc5 9b3d 258e a93d 4c1c 2dbd cfc7 e53d
00000100: da5c 0fbe 0928 c0bb 91bb 973d 8d5f 9c3d
00000110: c03f eabd b164 17be fb29 0fbe e895 17be
00000120: 7a09 043d a58e 043e 1889 13be 2779 16be
00000130: 15dc b5bc dfff 5ebb babe 62bd 38a1 903c
00000140: 8b69 9c3d f832 a03d 367b 93bd d386 22be
00000150: 6898 1a3e b561 053e 044b 29be 2eb8 d93c
00000160: f2a4 be3d fe7a 843d d42e efbb abc3 3fbc
00000170: 65ff bc3d 2f63 9eba 245a 8b3d 3b0d a6bd
00000180: 714c f8bd 67ec 26be 6ff2 19be c70d 6e3c
00000190: cca9 2fbd 828f f7bd a7e0 903b 5c24 d53d
000001a0: 3f97 52bd 8c21 f13d ae8b 2abd 6a5f e9bd
000001b0: 44ac 0cbe 98ca 983c 003e f93d 0409 08bd
000001c0: 135d c7bc 7d8a 2abe fcef 0d3e 9efd f33c
000001d0: a4a6 3d3d 4352 893d eff2 1c3e b6e4 babc
000001e0: 6c08 d1bc f6d7 43be c416 c63d ea47 2e3c
000001f0: 7907 433d 4063 f13d f4c2 f0bc ae14 adbd
00000200: 214f d4bd dda2 e23d 747a f33d 6785 123c
00000210: 3a01 c53d 5159 1d3e ef84 acbd 3988 013d
00000220: b67e 22be d367 c93d 18fb c23c 8772 1ebe
00000230: b58c 9f3d 6b22 0f3d 3ae6 2f3c a529 883d
00000240: dbe5 213d 80d6 01be 5bb4 043e df67 b13b
00000250: 283e cf3c 8f54 2abe 3efa 54bd 8ab6 00be
00000260: ed18 56bd 2027 633d 7566 fabd 2a08 76bd
00000270: 67a2 8abd affc d03d bb7d ec3d a4f0 2abd
00000280: d479 e83c 7f89 123d b031 5a3d 64f8 57bd
00000290: 3af7 12be 50bf 3dbd 1101 b93d a1d6 c5bc
000002a0: 10d2 bdbd 1b6a 253e 40fb 5e3d 010d df3d
000002b0: 9748 7fbc 38a8 66bd dc7d 073d 15da bb3c
000002c0: 5f30 123e e025 01bc af4e c2bd 9364 86bd
000002d0: c05d 72bd 36ff 133e b9a9 e8bb 7d30 dabd
000002e0: a754 02be e873 853d 5860 03bd 115d 17be
000002f0: 11a1 f73d 5e72 693d a236 30be 5561 3a3d
00000300: fbc7 4d3d 8574 79bd 105d 5d3d ab35 10be
00000310: e38c 50bd e6ff 6abd d030 1c3e de1c d0bd
00000320: bd37 f03d d633 88bd 1bda 643c b3d9 143e
00000330: 22b7 3bbd 4c85 f8bd 3fe0 2a3e 5e4e 17be
00000340: 9744 18bd 350e 1d3b dc7b 27be 5199 5dbd
00000350: 0f7f 8fbd 7e7c 4b3d b5be 95bd a9f5 673d
00000360: 7455 9fbd ca72 01be 62c5 203d 905d 0b3e
00000370: 3621 76bd 4e1e 1fbe b3f1 d3bd 297d 303d
00000380: 26c2 0f3d 9058 433d fe0f 11be a252 e0bd
00000390: 3fa9 05be ddc5 cb3d 5f78 2c3d c6f1 353b
000003a0: babb 1f3e becf e13d c6c3 863d 7268 2e3e
000003b0: 2cd6 603d 4e4a 333e 5e5a 0cbe ce8f 573d
000003c0: 21c3 273e 3bd0 3dbd ecc6 953c 1bcb 30bd
000003d0: 9de7 c1bd 3ecf ff3d f7bc 073e c3ec 7fbd
000003e0: 9bc1 233e 6d22 b7bc f2a9 013e 2617 ac3b
000003f0: 33a1 d73d 6ad9 ef3d c2b7 f13d 4a1d 643c

model.2.bias f4 [64]
0.0 0.0 0.0 0.0 0.0 0.0 0.0 0.0
0.0 0.0 0.0 0.0 0.0 0.0 0.0 0.0
0.0 0.0 0.0 0.0 0.0 0.0 0.0 0.0
0.0 0.0 0.0 0.0 0.0 0.0 0.0 0.0
0.0 0.0 0.0 0.0 0.0 0.0 0.0 0.0
0.0 0.0 0.0 0.0 0.0 0.0 0.0 0.0
0.0 0.0 0.0 0.0 0.0 0.0 0.0 0.0
0.0 0.0 0.0 0.0 0.0 0.0 0.0 0.0
00000000: 0000 0000 0000 0000 0000 0000 0000 0000
00000010: 0000 0000 0000 0000 0000 0000 0000 0000
00000020: 0000 0000 0000 0000 0000 0000 0000 0000
00000030: 0000 0000 0000 0000 0000 0000 0000 0000
00000040: 0000 0000 0000 0000 0000 0000 0000 0000
00000050: 0000 0000 0000 0000 0000 0000 0000 0000
00000060: 0000 0000 0000 0000 0000 0000 0000 0000
00000070: 0000 0000 0000 0000 0000 0000 0000 0000
00000080: 0000 0000 0000 0000 0000 0000 0000 0000
00000090: 0000 0000 0000 0000 0000 0000 0000 0000
000000a0: 0000 0000 0000 0000 0000 0000 0000 0000
000000b0: 0000 0000 0000 0000 0000 0000 0000 0000
000000c0: 0000 0000 0000 0000 0000 0000 0000 0000
000000d0: 0000 0000 0000 0000 0000 0000 0000 0000
000000e0: 0000 0000 0000 0000 0000 0000 0000 0000
000000f0: 0000 0000 0000 0000 0000 0000 0000 0000

model.2.A f4 [3, 3, 3]
-0.09705651 0.4043248 0.22756705 -0.028005308 -0.1570167 0.30410472 0.34368616 0.47441733
0.034147546 0.29979205 -0.50819695 0.31100383 0.52763623 0.11139023 -0.20145477 -0.39204425
0.52229506 -0.38573694 -0.5118384 -0.12880813 0.11456114 -0.105591305 0.41545045 -0.30133027
0.1466629 0.21661 0.20053256
00000000: 90c5 c6bd a903 cf3e 5607 693e 636b e5bc
00000010: fcc8 20be 9db3 9b3e a2f7 af3e d4e6 f23e
00000020: 4cde 0b3d 587e 993e 3219 02bf e53b 9f3e
00000030: 2b13 073f 9020 e43d 294a 4ebe 06ba c8be
00000040: 21b5 053f 507f c5be d707 03bf 47e6 03be
00000050: 089f ea3d 4140 d8bd ecb5 d43e f647 9abe
00000060: cd2e 163e 03cf 5d3e 6858 4d3e

model.2.F f4 [3, 21, 21, 3, 3]
-0.039589472 0.013169838 -0.03451035 -0.028835468 0.018506072 0.014602706 -0.02706202 0.023794318
0.022346728 0.0015835429 0.01541286 -0.013248819 0.02753224 0.009543579 -0.03350748 0.032685228
-0.021482775 0.01776042 0.0052259024 0.021417985 0.012469023 0.011732406 -0.0037276458 -0.027497664
0.0049675032 0.027512437 0.012930149 0.0016507029 0.01010129 0.014158691 -0.024366787 0.034615986
0.018040588 0.030513454 -0.026102418 -0.036827736 0.010538942 -0.017084936 0.006102981 0.040698152
0.03930665 0.018168418 0.031431608 0.004873109 0.023701912 -0.0032680405 0.038516488 -0.020156574
0.015824514 -0.017435323 -0.02926876 -0.033365753 0.009025729 -0.0074062445 0.013248652 -0.018296355
0.0010155216 0.02196405 -0.020782968 0.021731097 0.03943041 -0.020670496 -0.033936612 -0.028235177
0.009531941 -0.02702638 0.011398769 -0.048652697 0.0003581615 -0.02987669 0.022191508 0.01598107
-0.027620118 0.02937913 -0.026563963 -0.00085627276 0.03782804 -0.03137235 0.025882201 0.024669208
0.0018505773 -0.024641195 -0.0020778826 0.016730106 0.0065873684 -0.029430171 -0.011253909 -0.021872485
-0.030453801 0.01143564 0.00024804656 -0.022137538 -0.016393377 0.017977215 0.0032360936 -0.019125992
0.016692864 -0.027386557 0.041097198 0.018407969 0.033220038 0.025661938 0.019329749 0.02096115
0.016934711 0.0024117131 0.015022871 0.036701098 -0.0025770294 -0.020413563 0.001705495 -0.029500678
0.0010341401 0.025459442 -0.01284512 0.018620979 -0.030404141 0.0034465988 0.0138586275 0.031217286
-0.04675995 -0.024047295 0.020656154 -0.017762676 0.032332066 -0.022300515 -0.017863054 0.04285373
-0.03171248 0.0019590203 0.02708811 -0.018733358 0.02577395 0.025646545 0.006349452 -0.037348833
-0.015948331 0.0062791193 -0.015061007 -7.6879056e-05 -0.034352053 -0.0433591 -0.008909421 0.026198154
0.0034403752 -0.0070085167 0.023659058 -0.013574276 -0.011467679 -0.023595372 0.03483876 0.0043916493
0.020721542 0.02764915 -0.006332571 0.017389508 0.021133782 0.009640493 -0.035204537 0.012412669
-0.023795594 -0.031524684 -0.008008446 -0.02648904 -0.01393644 0.010547996 -0.0056364923 0.009125164
0.0032342398 0.0070545794 0.0282991 0.013798967 0.00023275666 0.031452265 -0.03193811 0.006042894
-0.019550867 0.034475002 0.007205678 0.008973019 0.0036386652 -0.007575366 0.020687569 -0.027175363
0.032778747 0.0031027617 0.008313146 -0.009456743 -0.014109569 -0.008029648 0.010575732 -0.018825348
0.018692173 0.02289562 0.010036161 0.0065910374 -0.0012407604 -0.0027483182 -0.02971627 -0.029120307
0.0046429834 -0.04229766 -0.019568171 -0.015927887 -0.031770617 -0.015573625 -0.024222549 0.025230123
0.0067218323 0.026424306 -0.02019004 -0.032613844 -0.02521764 0.027598789 0.03689478 -0.007711995
-0.041757803 -0.028616508 -0.005167578 -0.016563121 -0.020560952 0.023674447 0.019964864 0.022012997
0.03443596 0.020539645 0.00932891 -0.018292908 -0.0018044378 -0.040997595 -0.01439795 -0.003177676
-0.01925653 -0.02217791 -0.03133942 -0.007506915 0.036605548 -0.020104334 -0.020316793 0.037578136
-0.007186713 0.021464445 0.013582975 -0.03230227 0.027214851 0.037840977 0.017086843 0.026403265
0.01413618 0.021448866 -0.0034056043 -0.004611849 -0.04136753 0.0049448963 0.012752004 -0.0026875127
00000000: 9228 22bd 4ec6 573c ba5a 0dbd 5c38 ecbc
00000010: 0c9a 973c 3040 6f3c 2bb1 ddbc 4dec c23c
00000020: 7c10 b73c e28e cf3a 3886 7c3c 9311 59bc
00000030: 4b8b e13c ac5c 1c3c 243f 09bd f2e0 053d
00000040: a5fc afbc 4d7e 913c 0c3e ab3b c574 af3c
00000050: df4a 4c3c 4739 403c 854b 74bb c842 e1bc
00000060: 70c6 a23b c361 e13c fad8 533c 665c d83a
00000070: e27f 253c dbf9 673c db9c c7bc 7ec9 0d3d
00000080: dbc9 933c 5af7 f93c bdd4 d5bc aed8 16bd
00000090: 87ab 2c3c b5f5 8bbc 84fb c73b 1bb3 263d
000000a0: 0300 213d efd5 943c 6ebe 003d 9aae 9f3b
000000b0: 832a c23c 9f2c 56bb 77c3 1d3d 661f a5bc
000000c0: 69a2 813c 86d4 8ebc 0ac5 efbc 87aa 08bd
000000d0: a7e0 133c 15b0 f2bb e010 593c 3de2 95bc
000000e0: 401b 853a f4ed b33c 0b41 aabc 6a05 b23c
000000f0: c881 213d 2c55 a9bc 1e01 0bbd 754d e7bc
00000100: dc2b 1c3c 6d66 ddbc e7c1 3a3c 0d48 47bd
00000110: 9fc7 bb39 f6bf f4bc f7ca b53c bcea 823c
00000120: 9643 e2bc 80ac f03c ab9c d9bc 7e77 60ba
00000130: 93f1 1a3d 4b80 00bd e906 d43c 1417 ca3c
00000140: 128f f23a 55dc c9bc 162d 08bb 930d 893c
00000150: dada d73b 8b17 f1bc 5162 38bc ed2d b3bc
00000160: 407a f9bc 8d5c 3b3c 3f0c 8239 c859 b5bc
00000170: 674b 86bc f444 933c a414 543b 1dae 9cbc
00000180: 79bf 883c c659 e0bc 8955 283d 4fcc 963c
00000190: bc11 083d fc38 d23c 6c59 9e3c b8b6 ab3c
000001a0: aaba 8a3c d50d 1e3b 7d22 763c e453 163d
000001b0: 61e3 28bb 583a a7bc ea8a df3a 68ab f1bc
000001c0: fc8b 873a 5290 d03c 5774 52bc 068b 983c
000001d0: 1b12 f9bc 55e0 613b 4c0f 633c 65bb ff3c
000001e0: 5d87 3fbd d5fe c4bc 1837 a93c 0883 91bc
000001f0: a16e 043d 92af b6bc 8a55 92bc 6587 2f3d
00000200: f2e4 01bd e862 003b e2e7 dd3c b376 99bc
00000210: e423 d33c b418 d23c 100f d03b 17fb 18bd
00000220: 13a6 82bc 12c1 cd3b 71c2 76bc 213a a1b8
00000230: bdb4 0cbd 5099 31bd d2f8 11bc 839d d63c
00000240: eb77 613b b3a7 e5bb a4d0 c13c a466 5ebc
00000250: efe2 3bbc 154b c1bc 16b3 0e3d d3e7 8f3b
00000260: 39c0 a93c 7880 e23c 7581 cfbb 7174 8e3c
00000270: c120 ad3c 29f3 1d3c a232 10bd 825e 4b3c
00000280: faee c2bc 0720 01bd db35 03bc 8bff d8bc
00000290: ab55 64bc 80d1 2c3c 53b2 b8bb b681 153c
000002a0: 8af5 533b 1a2a e73b 84d3 e73c 1015 623c
000002b0: 2410 7439 17d4 003d 89d1 02bd 7803 c63b
000002c0: 2429 a0bc a935 0d3d 9c1d ec3b 9203 133c
000002d0: ac76 6e3b c73a f8bb fa78 a93c de9e debc
000002e0: 0243 063d b457 4b3b dd33 083c 74f0 1abc
000002f0: d22b 67bc c98e 03bc d645 2d3c 9e37 9abc
00000300: 5420 993c 988f bb3c b66e 243c a1f9 d73b
00000310: 03a1 a2ba 211d 34bb 896f f3bc b68d eebc
00000320: 2b24 983b 5040 2dbd 6e4d a0bc 337b 82bc
00000330: e821 02bd 8528 7fbc 5e6e c6bc 67af ce3c
00000340: d142 dc3b c977 d83c 9565 a5bc 1896 05bd
00000350: 3995 cebc db16 e23c fb1e 173d e7b4 fcbb
00000360: 3b0a 2bbd 2b6d eabc c954 a9bb 62af 87bc
00000370: 716f a8bc eaf0 c13c 5b8d a33c 9a54 b43c
00000380: b90c 0d3d c242 a83c 49d8 183c 02db 95bc
00000390: e382 ecba 18ed 27bd 61e5 6bbc 8e40 50bb
000003a0: dfbf 9dbc 73ae b5bc c35d 00bd 91fc f5bb
000003b0: b3ef 153d d8b1 a4bc 676f a6bc 88eb 193d
000003c0: 857e ebbb 34d6 af3c 208b 5e3c 634f 04bd
000003d0: aef1 de3c 24ff 1a3d b5f9 8b3c a94b d83c
000003e0: 709b 673c 88b5 af3c 8f30 5fbb fe1e 97bb
000003f0: 0071 29bd cc08 a23b c8ed 503c fb20 30bb

model.3.weight f4 [63]
0.39108884 0.25104812 0.3459042 0.44099545 0.9243747 0.3691117 0.58783257 0.26066974
0.7616963 0.22727479 0.6087112 0.60416204 0.09778534 0.27015135 0.49433213 0.843473
0.42781985 0.3613843 0.77442306 0.9623156 0.38377735 0.87345296 0.7360192 0.29934794
0.90694314 0.30007887 0.24445674 0.8599965 0.532175 0.45415184 0.32729644 0.9641208
0.2219949 0.66942734 0.27595893 0.24256751 0.7064713 0.19809006 0.9299643 0.6070143
0.15610074 0.2771277 0.20918725 0.45841977 0.6764725 0.5474375 0.5452288 0.5239153
0.29508317 0.7277686 0.1857734 0.7507918 0.7787447 0.8815296 0.8606207 0.7389899
0.70870274 0.35129473 0.14452556 0.3729041 0.15271182 0.12648472 0.8581399
00000000: cc3c c83e 6189 803e 5b1a b13e 28ca e13e
00000010: d2a3 6c3f 35fc bc3e 327c 163f 8176 853e
00000020: 87fe 423f b9ba 683e 7fd4 1b3f 5daa 1a3f
00000030: ae43 c83d 4751 8a3e 1a19 fd3e d9ed 573f
00000040: 340b db3e 5d07 b93e 9740 463f 515a 763f
00000050: 777e c43e 9d9a 5f3f c16b 3c3f 2244 993e
00000060: 6d2d 683f f0a3 993e de52 7a3e bb28 5c3f
00000070: 9f3c 083f 9786 e83e 6693 a73e 9fd0 763f
00000080: a252 633e 975f 2b3f 7d4a 8d3e 9e63 783e
00000090: 4edb 343f 1fd8 4a3e 2412 6e3f 4a65 1b3f
000000a0: dfd8 1f3e afe3 8d3e 2f35 563e ffb5 ea3e
000000b0: 4d2d 2d3f dd24 0c3f 1d94 0b3f 501f 063f
000000c0: 2415 973e 0b4f 3a3f 623b 3e3e e433 403f
000000d0: d05b 473f edab 613f a351 5c3f 712e 3d3f
000000e0: 8b6d 353f e7dc b33e 82fe 133e 49ed be3e
000000f0: 7d60 1c3e 3685 013e 0eaf 5b3f

model.3.bias f4 [63]
0.085186064 0.04573218 0.039671194 0.008921264 -0.040797435 0.043570112 0.11598467 0.07014474
0.006033761 0.02174714 0.06999672 0.0491575 -0.024143286 0.032748677 0.09152876 0.09372754
0.10699267 0.055409245 -0.003529951 0.029320179 0.08899872 0.07522744 -0.119582444 0.09261773
0.039374825 0.0250341 -0.0681198 0.006798404 0.07320086 0.023295611 -0.0016204446 -0.07777172
0.07725641 0.088836476 -0.08578521 -0.0063834395 0.0054499237 -0.028338037 -0.10803651 -0.0056337127
1.0204337e-05 -0.012525917 -0.016673198 0.08926794 0.09447248 -0.033524636 0.060381554 -0.09250429
0.03139443 -0.08459351 0.021894261 -0.02660924 0.12168222 -0.071910225 -0.06750829 0.0042089913
0.13324991 0.04636952 0.11203964 0.1115338 0.040324878 0.09509063 0.035443258
00000000: 0876 ae3d ab51 3b3d 437e 223d 7e2a 123c
00000010: 361b 27bd 9376 323d 5f89 ed3d 0ca8 8f3d
00000020: dbb6 c53b 0f27 b23c 715a 8f3d 6059 493d
00000030: 24c8 c5bc 7a23 063d 6e73 bb3d 39f4 bf3d
00000040: f91e db3d cef4 623d c056 67bb df30 f03c
00000050: f644 b63d d810 9a3d a4e7 f4bd 5dae bd3d
00000060: 7f47 213d 5014 cd3c 6582 8bbd 25c5 de3b
00000070: 55ea 953d 70d6 be3c 1965 d4ba c846 9fbd
00000080: 9c38 9e3d e6ef b53d 28b0 afbd 2c2c d1bb
00000090: 4695 b23b 2c25 e8bc 3f42 ddbd 029b b8bb
000000a0: 4b33 2b37 8139 4dbc 3b96 88bc 1cd2 b63d
000000b0: ca7a c13d 2151 09bd a652 773d e472 bdbd
000000c0: 7297 003d 5d3f adbd 985b b33c 9ffb d9bc
000000d0: 8734 f93d ab45 93bd c941 8abd 94eb 893b
000000e0: aa72 083e f7ed 3d3d 0a75 e53d d56b e43d
000000f0: b32b 253d e0be c23d f32c 113d

model.3.running_mean f4 [63]
-0.044817884 0.044471838 0.028783945 0.053757634 0.07576801 -0.056282714 -0.056132056 -0.050670262
0.071805395 0.044430215 -0.061189424 0.057730384 -0.0972915 -0.039264623 -0.052736018 -0.054807127
-0.061375786 0.056475766 0.090151414 0.06282018 -0.06705041 -0.06559104 0.09048877 -0.03322788
-0.07194838 0.0310514 0.036574703 -0.06555145 -0.040447704 0.049895383 0.005957881 0.06800139
-0.042804286 -0.054067787 0.06722636 0.04774783 -0.062908255 0.06302405 0.08207013 0.050641272
0.05357397 -0.0712594 0.03783137 -0.040189978 -0.025825445 0.05270703 -0.0626161 0.08805426
0.05670015 0.10237662 -0.052821364 0.076927096 -0.06305627 0.10900233 0.10364413 0.07129524
-0.073588386 -0.03400758 -0.031952728 -0.047852475 -0.0338477 0.008251699 0.089186855
00000000: f592 37bd 1a28 363d 4fcc eb3c f730 5c3d
00000010: 422c 9b3d b488 66bd baea 65bd 9f8b 4fbd
00000020: b50e 933d 75fc 353d c3a1 7abd b276 6c3d
00000030: c440 c7bd f1d3 20bd b901 58bd 707d 60bd
00000040: 2d65 7bbd 2253 673d 4ea1 b83d dea7 803d
00000050: ba51 89bd 9854 86bd 2d52 b93d f519 08bd
00000060: ac59 93bd 815f fe3c 5bcf 153d d73f 86bd
00000070: 7eac 25bd 1a5f 4c3d 543a c33b 5044 8b3d
00000080: 8c53 2fbd 2f76 5dbd f9ad 893d 3b93 433d
00000090: 0bd6 80bd c112 813d 6214 a83d 396d 4f3d
000000a0: 6170 5b3d 73f0 91bd 11f5 1a3d 3f9e 24bd
000000b0: e28f d3bc 54e3 573d df3c 80bd cb55 b43d
000000c0: 6b3e 683d d5aa d13d 375b 58bd f48b 9d3d
000000d0: a523 81bd 9d3c df3d 6043 d43d 3d03 923d
000000e0: 82b5 96bd 884b 0bbd dde0 02bd f500 44bd
000000f0: e3a3 0abd 2232 073c 99a7 b63d

model.3.running_var f4 [63]
0.000794671 0.0008423779 0.0004285508 0.0007133201 0.0015104272 0.0010502442 0.0010461237 0.00095246104
0.0016401557 0.0006737025 0.00085835304 0.0010575654 0.0026667449 0.00060732657 0.0007474413 0.0009853487
0.0009922596 0.0010512612 0.0020618804 0.0011576117 0.0013148378 0.0012898992 0.0023801771 0.00034984841
0.001504772 0.0004180504 0.00037994405 0.0013105484 0.00052814314 0.0007020591 0.00015150834 0.0012446977
0.00060022884 0.0009971634 0.0010700808 0.0006867983 0.0011383292 0.0011362912 0.0018209219 0.00091481925
0.0007896797 0.0014493869 0.0004455328 0.00048734157 0.0006537578 0.00086047675 0.0011581128 0.002077161
0.00091915886 0.002396737 0.00088283455 0.001438025 0.0010430434 0.0029207824 0.0028491775 0.0015388285
0.0014845738 0.0005125163 0.00030470695 0.0007215272 0.0005446814 0.00022753455 0.0025836816
00000000: 7851 503a 06d3 5c3a 1daf e039 1afe 3a3a
00000010: 87f9 c53a 59a8 893a 161e 893a 94ae 793a
00000020: 7efa d63a 699b 303a 1903 613a 029e 8a3a
00000030: 8ec4 2e3b ff34 1f3a f0ef 433a d126 813a
00000040: b50e 823a 79ca 893a 9d20 073b 01bb 973a
00000050: a356 ac3a d611 a93a bffc 1b3b dc6b b739
00000060: c53b c53a c62d db39 3a33 c739 b5c6 ab3a
00000070: 1673 0a3a 630a 383a 36de 1e39 2025 a33a
00000080: ad58 1d3a 40b3 823a f441 8c3a 410a 343a
00000090: fd33 953a 9bef 943a 00ac ee3a 7bd0 6f3a
000000a0: 8202 4f3a 5bf9 bd3a 6696 e939 e181 ff39
000000b0: f160 2b3a 9e91 613a d1cb 973a fb20 083b
000000c0: b5f3 703a 9312 1d3b 066e 673a 1d7c bc3a
000000d0: bbb6 883a 996a 3f3b 44b9 3a3b 84b2 c93a
000000e0: 0896 c23a 635a 063a 13c1 9f39 df24 3d3a
000000f0: f3c8 0e3a 5796 6e39 fc52 293b

model.5.bias f4 [64]
0.0 0.0 0.0 0.0 0.0 0.0 0.0 0.0
0.0 0.0 0.0 0.0 0.0 0.0 0.0 0.0
0.0 0.0 0.0 0.0 0.0 0.0 0.0 0.0
0.0 0.0 0.0 0.0 0.0 0.0 0.0 0.0
0.0 0.0 0.0 0.0 0.0 0.0 0.0 0.0
0.0 0.0 0.0 0.0 0.0 0.0 0.0 0.0
0.0 0.0 0.0 0.0 0.0 0.0 0.0 0.0
0.0 0.0 0.0 0.0 0.0 0.0 0.0 0.0
00000000: 0000 0000 0000 0000 0000 0000 0000 0000
00000010: 0000 0000 0000 0000 0000 0000 0000 0000
00000020: 0000 0000 0000 0000 0000 0000 0000 0000
00000030: 0000 0000 0000 0000 0000 0000 0000 0000
00000040: 0000 0000 0000 0000 0000 0000 0000 0000
00000050: 0000 0000 0000 0000 0000 0000 0000 0000
00000060: 0000 0000 0000 0000 0000 0000 0000 0000
00000070: 0000 0000 0000 0000 0000 0000 0000 0000
00000080: 0000 0000 0000 0000 0000 0000 0000 0000
00000090: 0000 0000 0000 0000 0000 0000 0000 0000
000000a0: 0000 0000 0000 0000 0000 0000 0000 0000
000000b0: 0000 0000 0000 0000 0000 0000 0000 0000
000000c0: 0000 0000 0000 0000 0000 0000 0000 0000
000000d0: 0000 0000 0000 0000 0000 0000 0000 0000
000000e0: 0000 0000 0000 0000 0000 0000 0000 0000
000000f0: 0000 0000 0000 0000 0000 0000 0000 0000

model.5.A f4 [3, 3, 3]
0.08874655 0.1831986 0.27540606 -0.21957168 0.3043883 -0.17267883 -0.24032894 0.2554058
0.29577568 0.23044662 -0.5177067 -0.33639237 -0.3195165 0.2851378 0.4911612 0.19342749
0.22264832 -0.43777248 0.16466728 -0.30689397 0.0037975593 -0.5939536 -0.06719924 -0.38953036
0.28114334 -0.3259413 0.1264698
00000000: c0c0 b53d 6a98 3b3e 0602 8d3e 66d7 60be
00000010: c9d8 9b3e b8d2 30be ca18 76be 8dc4 823e
00000020: e96f 973e 33fa 6b3e 6d88 04bf 9f3b acbe
00000030: ab97 a3be 95fd 913e 7b79 fb3e db11 463e
00000040: ecfd 633e b723 e0be 8a9e 283e 3521 9dbe
00000050: 79e0 783b 580d 18bf c19f 89bd 8670 c7be
00000060: 05f2 8f3e c7e1 a6be 4d81 013e

model.5.F f4 [3, 21, 21, 3, 3]
-0.026420718 0.019044146 0.013234577 0.020059625 -0.018417288 0.007280473 -0.021552071 -0.012220078
0.0016863495 0.004856573 -0.029879311 0.036693837 -0.014702054 -0.023477247 0.016158177 0.011771794
0.00402386 0.038952835 -0.0045965314 0.012576946 -0.0117933275 -0.005274554 0.0008076583 0.032151975
0.008539179 0.0143207945 0.025399914 -0.0266114 -0.020595435 -0.006196914 0.011155756 0.031527836
-0.01663585 -0.0062840804 -0.0015986317 0.025042858 -0.004024911 -0.017913448 -0.02196511 -0.017841918
-0.043752667 -0.011515324 -0.04904985 -0.019718556 0.0059891185 -0.013094462 -0.009450228 -0.006718736
-0.026448 -0.011744197 0.0023560307 -0.021734552 -0.0076089907 0.027166447 -0.0060353302 -0.012874492
0.015523568 -0.0069694947 -0.017388886 -0.021622133 -0.010424845 -0.0062549817 -0.0080868 -0.0019284434
0.0144658275 -0.013018346 -0.023663042 -0.03129557 -0.0097116465 -0.013712854 0.02931029 0.021476148
0.0220762 -0.03786626 -0.03360555 -0.012245824 -0.013630271 -0.004714113 -0.03478079 0.007641644
-0.015517696 -0.023583421 -0.007650431 0.02381105 0.02112101 0.013812005 -0.00045466024 -0.015312624
-0.032549012 0.018855175 0.00022066884 -0.033394437 -0.0012380277 0.007462466 0.0055204225 -0.027289174
0.0022534467 -0.04712721 -0.02395696 -0.024321012 -0.0039737923 -0.033690743 0.008076397 0.0018700849
-0.014377355 0.01508001 -0.029366946 -0.022345195 0.015563307 0.0053797723 -0.01249775 -0.0026882912
-0.0061800866 -0.031425767 -0.025799932 0.019521005 0.003076727 -0.008001804 -0.014882364 -0.011087062
-0.035120737 0.012567984 -0.0109197 -0.003210462 0.012186797 0.0037432231 0.034524992 0.003546725
-0.014469888 -0.02400293 0.0307277 0.00820752 -0.0011951466 0.002429634 -0.01935941 -0.00235859
-0.005543673 -0.0036731632 0.019986806 -0.0010769427 -0.017855108 -0.029105619 0.017473798 0.010350029
-0.010134494 0.019486355 -0.011940151 -0.0040356875 0.009236716 0.026242604 -0.047034554 -0.0049515166
0.040082555 -0.009263468 -0.009207535 0.004310954 0.0075673084 0.019280996 -0.012254299 -0.004845676
0.026625209 0.02826966 -0.022893626 -0.008938532 0.009058835 0.0042840224 0.0133063905 -0.003799023
-0.017842282 -0.023124743 0.020601464 -0.008523695 0.04468263 0.017095743 -0.01330354 -0.008298699
-0.019129518 -0.025890782 -0.012256484 0.01136064 0.00524372 -0.023360787 -0.013373658 0.0014755576
0.02702636 -0.033082217 0.020841394 -0.03652827 -0.009575548 0.005080363 -0.015852228 0.00044991917
0.0008680612 0.028322242 0.01228794 -0.014581859 -0.023280874 0.011150744 -0.017294994 -0.004935438
0.03342894 0.02384355 0.0014049516 -0.014896203 0.0017931003 -0.011278174 0.03460855 -0.00833558
0.010775608 0.02544274 0.007899473 -0.027727703 0.032254722 0.0032482632 -0.017469648 0.018832594
-0.029431552 -0.031542223 -0.003109851 0.03544022 -0.011835238 0.006573888 0.021229109 0.04532442
0.03273022 0.010359717 0.001085846 0.020302115 -0.019748453 0.0269656 0.027447902 0.018516418
0.024377357 0.034919802 -0.02526139 0.012157699 0.036503527 -0.00014393943 -0.011708945 0.024739351
-0.022657264 0.03673335 0.0374436 0.043309912 0.029467674 0.0226467 -0.02793437 -0.008912887
-0.0074213827 0.006289815 0.013487641 -0.030528713 0.03144746 0.007370063 0.010178812 -0.022799995
00000000: 4370 d8bc 7802 9c3c d7d5 583c 1554 a43c
00000010: dadf 96bc 0991 ee3b f88d b0bc b936 48bc
00000020: 8008 dd3a e323 9f3b 75c5 f4bc 474c 163d
00000030: e2e0 70bc 5b53 c0bc 275e 843c 7cde 403c
00000040: 96da 833b 028d 1f3d 809e 96bb 890f 4e3c
00000050: cd38 41bc 2ad6 acbb 08b9 533a cab1 033d
00000060: eae7 0b3c c4a1 6a3c 7b13 d03c 2700 dabc
00000070: c2b7 a8bc 7b0f cbbb a2c6 363c 5523 013d
00000080: e847 88bc b0ea cdbb 2e89 d1ba ae26 cd3c
00000090: 67e3 83bb 39bf 92bc 2df0 b3bc 3729 92bc
000000a0: ff35 33bd c5aa 3cbc 7fe8 48bd cf88 a1bc
000000b0: 5e40 c43b 288a 56bc 21d5 1abc d828 dcbb
000000c0: 7aa9 d8bc bc6a 40bc a367 1a3b a90c b2bc
000000d0: d754 f9bb 2b8c de3c 05c4 c5bb 89ef 52bc
000000e0: 9056 7e3c 5c60 e4bb 2373 8ebc e620 b1bc
000000f0: f8cc 2abc 97f6 ccbb 7f7e 04bc d3c3 fcba
00000100: 1402 6d3c e74a 55bc ffd8 c1bc c92f 00bd
00000110: 991d 1fbc e1ab 60bc 221c f03c bfee af3c
00000120: 26d9 b43c a719 1bbd f9a5 09bd b5a2 48bc
00000130: 8051 5fbc d978 9abb 4d76 0ebd c266 fa3b
00000140: ef3d 7ebc 0532 c1bc 77b0 fabb 640f c33c
00000150: f805 ad3c bf4b 623c 775f eeb9 cde1 7abc
00000160: 1d52 05bd 2b76 9a3c 5763 6739 9bc8 08bd
00000170: 5145 a2ba b487 f43b a9e4 b43b 8c8d dfbc
00000180: 90ae 133b 7608 41bd 6341 c4bc dc3c c7bc
00000190: 9636 82bb 4eff 09bd dd52 043c a31d f53a
000001a0: ff8e 6bbc 2512 773c f392 f0bc 450d b7bc
000001b0: 3efd 7e3c cd48 b03b 5dc3 4cbc 0b2e 30bb
000001c0: 5382 cabb 4eb8 00bd 615a d3bc 84ea 9f3c
000001d0: eaa2 493b 001a 03bc 29d5 73bc 82a6 35bc
000001e0: c3da 0fbd f2e9 4d3c 8be8 32bc 9d66 52bb
000001f0: 22ab 473c dd50 753b 146a 0d3d 2c70 683b
00000200: 1c13 6dbc cba1 c4bc a8b8 fb3c d578 063c
00000210: 77a6 9cba 7f3a 1f3b a097 9ebc 9392 1abb
00000220: b3a7 b5bb 74b9 70bb 5fbb a33c 3328 8dba
00000230: e044 92bc e86e eebc 3625 8f3c 2b93 293c
00000240: 260b 26bc d9a1 9f3c a0a0 43bc cd3d 84bb
00000250: 9855 173c bbfa d63c 4ea7 40bd 5540 a2bb
00000260: 9b2d 243d cdc5 17bc 33db 16bc e742 8d3b
00000270: 2ff7 f73b 2ef3 9d3c 41c6 48bc 7ac8 9ebb
00000280: 1c1d da3c c695 e73c 6a8b bbbc ec72 12bc
00000290: 826b 143c fc60 8c3b 0c03 5a3c 08f9 78bb
000002a0: fa29 92bc 1a70 bdbc 67c4 a83c f8a6 0bbc
000002b0: 2205 373d 5f0c 8c3c 17f7 59bc 44f7 07bc
000002c0: 82b5 9cbc e818 d4bc 6bcf 48bc fa21 3a3c
000002d0: 83d3 ab3b 1f5f bfbc 301d 5bbc 7f67 c13a
000002e0: 6366 dd3c 3881 07bd 92bb aa3c ab9e 15bd
000002f0: c2e2 1cbc 2c79 a63b 88dc 81bc 21e3 eb39
00000300: 9a8e 633a 0c04 e83c 5b53 493c c0e8 6ebc
00000310: 88b7 bebc 9cb1 363c 3bae 8dbc 74b9 a1bb
00000320: c9ec 083d 8c53 c33c 5a26 b83a 340f 74bc
00000330: 7606 eb3a 17c8 38bc b2c1 0d3d f591 08bc
00000340: 2d8c 303c 4b6d d03c cb6c 013c 3525 e3bc
00000350: 871d 043d d0e0 543b 821c 8fbc d046 9a3c
00000360: 701a f1bc 6b32 01bd a4ce 4bbb c429 113d
00000370: 96e8 41bc c569 d73b abe8 ad3c 19a6 393d
00000380: 2010 063d cdbb 293c f252 8e3a 9f50 a63c
00000390: 82c7 a1bc f6e6 dc3c 6cda e03c beaf 973c
000003a0: 06b3 c73c 1108 0f3d f9f0 cebc 1631 473c
000003b0: b984 153d 72ee 16b9 e0d6 3fbc 2eaa ca3c
000003c0: ba9b b9bc b675 163d 765e 193d bc65 313d
000003d0: 3166 f13c 9285 b93c 9fd6 e4bc 5c07 12bc
000003e0: 122f f3bb cb1a ce3b 44fb 5c3c 5a17 fabc
000003f0: 0dcf 003d 9280 f13b 08c5 263c 0ec7 babc

model.6.weight f4 [63]
0.85185635 0.5311828 0.38878652 0.83895457 0.1512845 0.9734528 0.6592293 0.76182765
0.5195477 0.24886416 0.5782405 0.46459806 0.38151667 0.47474474 0.13112216 0.6380234
0.33287382 0.94697624 0.32386544 0.5879252 0.28456008 0.98770875 0.18605827 0.3906237
0.15806712 0.9712612 0.7464914 0.4760565 0.29062256 0.34466243 0.94129264 0.26068693
0.7957689 0.42120796 0.51284814 0.5934167 0.37167507 0.8121623 0.9039015 0.11348527
0.3857364 0.66044325 0.2551137 0.22352558 0.12713735 0.79143244 0.92598605 0.46267086
0.74236524 0.70398474 0.13071497 0.77973527 0.7069775 0.7199574 0.16092269 0.970584
0.6517308 0.30046785 0.6285569 0.33914995 0.48414353 0.524115 0.6231285
00000000: 4213 5a3f 99fb 073f 070f c73e bac5 563f
00000010: 53ea 1a3e 3434 793f 40c3 283f 2307 433f
00000020: 1401 053f 3fd6 7e3e 9207 143f ccdf ed3e
00000030: 2756 c33e be11 f33e e344 063e 8055 233f
00000040: 706e aa3e 096d 723f b1d1 a53e 4482 163f
00000050: dcb1 913e 7bda 7c3f 0f86 3e3e d4ff c73e
00000060: 59dc 213e 93a4 783f 0f1a 3f3f adbd f33e
00000070: 7bcc 943e 9877 b03e 8ef8 703f c278 853e
00000080: 83b7 4b3f 92a8 d73e 044a 033f 28ea 173f
00000090: 324c be3e dee9 4f3f 1766 673f f76a e83d
000000a0: 3e7f c53e cf12 293f 439e 823e e4e3 643e
000000b0: 4b30 023e 519b 4a3f 6c0d 6d3f 32e3 ec3e
000000c0: a60b 3e3f 5838 343f 25da 053e bb9c 473f
000000d0: 7afc 343f 214f 383f ebc8 243e 3178 783f
000000e0: d4d7 263f ecd6 993e 1be9 203f 10a5 ad3e
000000f0: a9e1 f73e 672c 063f 5985 1f3f

model.6.bias f4 [63]
0.086468965 -0.10207595 0.12344792 -0.0022968927 0.017345162 -0.1074522 0.032407865 0.0008747585
0.0014004387 -0.053413633 0.0591674 0.051852394 0.010168529 -0.08640453 -0.013757653 -0.08451177
0.021747729 -0.047086805 0.128875 0.06453335 -0.059894916 -0.024802215 0.028561419 0.047110904
0.027622718 0.04291717 0.03854686 0.010257614 0.03614542 0.043635264 0.0606475 0.007892597
0.028811911 0.061670758 0.0031924592 0.09525846 0.035378307 -0.073356986 0.056932993 0.01583352
-0.01657445 0.123033024 0.0063465107 -0.049961284 0.18195745 0.007723563 -0.03079859 -0.12135495
0.06985734 0.056250818 -0.010150957 -0.018871441 0.020273963 0.015593398 0.0084855985 -0.009811328
0.025494698 -0.03225584 0.04627024 -0.010511686 0.14283915 0.13787876 -0.08544359
00000000: a416 b13d 320d d1bd 43d2 fc3d 7787 16bb
00000010: 7117 8e3c e60f dcbd 1cbe 043d 0d50 653a
00000020: ed8e b73a 41c8 5abd 8459 723d 2d63 543d
00000030: e799 263c dcf4 b0bd c767 61bc 8214 adbd
00000040: 4b28 b23c 18de 40bd cff7 033e 102a 843d
00000050: 5f54 75bd 042e cbbc a3f9 e93c 5df7 403d
00000060: 0a49 e23c eac9 2f3d 50e3 1d3d 8d0f 283c
00000070: 380d 143d e4ba 323d 8369 783d f34f 013c
00000080: f506 ec3c 7a9a 7c3d 9438 513b de16 c33d
00000090: d8e8 103d 303c 96bd 9232 693d 4cb5 813c
000000a0: 24c7 87bc bdf8 fb3d 64f6 cf3b 34a4 4cbd
000000b0: 0e53 3a3e f115 fd3b 534d fcbc f288 f8bd
000000c0: 5d11 8f3d 4267 663d 3350 26bc 4898 9abc
000000d0: 9515 a63c 747b 7f3c 2e07 0b3c b1bf 20bc
000000e0: 42da d03c b31e 04bd dd85 3d3d 3539 2cbc
000000f0: 6d44 123e 1730 0d3e 0dfd aebd

model.6.running_mean f4 [63]
-0.10643103 0.22719897 -0.15539414 0.04646165 0.1027048 0.21217078 -0.10697315 0.023295496
0.1341052 0.17451335 -0.12698871 -0.066973805 0.09200945 0.23264341 0.05885066 0.19169347
-0.014306227 0.19381233 -0.15975541 -0.16135533 0.18191162 0.11786525 -0.03483096 -0.03310527
-0.010135668 -0.14821318 -0.18975142 0.13931912 0.033722427 -0.048752688 -0.10796398 0.09264498
0.117403276 -0.07972122 -0.06353291 -0.07364046 -0.112163305 0.2650877 -0.17362313 0.15217927
0.13062753 -0.17937675 -0.079894185 0.10268982 -0.07800048 -0.0019288597 0.0976289 0.12859812
-0.13736448 -0.036014847 0.08341199 0.08310022 -0.048069183 -0.010713232 0.09037115 0.13715652
0.03884756 0.058439463 0.005727108 0.08728676 -0.07400335 -0.12226823 0.14326563
00000000: 83f8 d9bd d9a6 683e a41f 1fbe 924e 3e3d
00000010: e556 d23d 4c43 593e bd14 dbbd 32d6 be3c
00000020: e052 093e a1b3 323e 5409 02be 9029 89bd
00000030: 736f bc3d 133a 6e3e 640d 713d 4b4b 443e
00000040: aa64 6abc bd76 463e ec96 23be 553a 25be
00000050: 0a47 3a3e 5663 f13d e9aa 0ebd 6499 07bd
00000060: 1310 26bc 32c5 17be 324e 42be aca9 0e3e
00000070: 8720 0a3d e6b0 47bd 381c ddbd a7bc bd3d
00000080: 2171 f03d e144 a3bd 8b1d 82bd cfd0 96bd
00000090: e0b5 e5bd 93b9 873e 43ca 31be e2d4 1b3e
000000a0: 39c3 053e 8aae 37be 909f a3bd 0a4f d23d
000000b0: b7be 9fbd cbd1 fcba a9f1 c73d 3aaf 033e
000000c0: 46a9 0cbe 4e84 13bd e8d3 aa3d 7330 aa3d
000000d0: 31e4 44bd 8d86 2fbc 8214 b93d c272 0c3e
000000e0: 9e1e 1f3d 385e 6f3d 77aa bb3b 67c3 b23d
000000f0: 128f 97bd c467 fabd 3ab4 123e

model.6.running_var f4 [63]
0.031228917 0.026536588 0.026122814 0.030861845 0.014402023 0.027874092 0.04150681 0.018831305
0.03604731 0.02262183 0.027643617 0.01777857 0.021457437 0.030045064 0.008241701 0.027564557
0.013752139 0.035801563 0.023113389 0.040728424 0.025775537 0.029969808 0.02020886 0.027209207
0.030350253 0.040327955 0.048072357 0.027089735 0.009447118 0.014401369 0.033859137 0.022412645
0.02852903 0.02308314 0.013709913 0.022648232 0.0158165 0.055188376 0.04051608 0.016055379
0.05754555 0.033188265 0.028926264 0.008692719 0.0035520706 0.030806825 0.025839107 0.006254334
0.030503146 0.01680812 0.006826533 0.023636019 0.029112026 0.029639376 0.011716788 0.037983637
0.014932477 0.010997286 0.021723907 0.013372794 0.01312777 0.024011906 0.023587199
00000000: c9d3 ff3c 4263 d93c 83ff d53c fbd1 fc3c
00000010: 76f6 6b3c 3558 e43c 0b03 2a3d 1c44 9a3c
00000020: 58a6 133d 6b51 b93c de74 e23c 5da4 913c
00000030: 82c7 af3c 1121 f63c 3308 073c 11cf e13c
00000040: a750 613c a9a4 123d 4a58 bd3c d9d2 263d
00000050: 3827 d33c 3e83 f53c 0d8d a53c d8e5 de3c
00000060: 18a1 f83c ed2e 253d 85e7 443d 4beb dd3c
00000070: 16c8 1a3c b8f3 6b3c e1af 0a3d b99a b73c
00000080: b6b5 e93c da18 bd3c 8b9f 603c c988 b93c
00000090: 9b91 813c 350d 623d 30f4 253d 9286 833c
000000a0: e2b4 6b3d 6bf0 073d c6f6 ec3c e86b 0e3c
000000b0: dbc9 683b 985e fc3c 89ac d33c 28f1 cc3b
000000c0: bce1 f93c 2fb1 893c 1cb1 df3b 53a0 c13c
000000d0: 587c ee3c 47ce f23c c5f7 3f3c bb94 1b3d
000000e0: 59a7 743c f62d 343c 56f6 b13c 9019 5b3c
000000f0: dc15 573c 9eb4 c43c f139 c13c

model.8.bias f4 [64]
0.0 0.0 0.0 0.0 0.0 0.0 0.0 0.0
0.0 0.0 0.0 0.0 0.0 0.0 0.0 0.0
0.0 0.0 0.0 0.0 0.0 0.0 0.0 0.0
0.0 0.0 0.0 0.0 0.0 0.0 0.0 0.0
0.0 0.0 0.0 0.0 0.0 0.0 0.0 0.0
0.0 0.0 0.0 0.0 0.0 0.0 0.0 0.0
0.0 0.0 0.0 0.0 0.0 0.0 0.0 0.0
0.0 0.0 0.0 0.0 0.0 0.0 0.0 0.0
00000000: 0000 0000 0000 0000 0000 0000 0000 0000
00000010: 0000 0000 0000 0000 0000 0000 0000 0000
00000020: 0000 0000 0000 0000 0000 0000 0000 0000
00000030: 0000 0000 0000 0000 0000 0000 0000 0000
00000040: 0000 0000 0000 0000 0000 0000 0000 0000
00000050: 0000 0000 0000 0000 0000 0000 0000 0000
00000060: 0000 0000 0000 0000 0000 0000 0000 0000
00000070: 0000 0000 0000 0000 0000 0000 0000 0000
00000080: 0000 0000 0000 0000 0000 0000 0000 0000
00000090: 0000 0000 0000 0000 0000 0000 0000 0000
000000a0: 0000 0000 0000 0000 0000 0000 0000 0000
000000b0: 0000 0000 0000 0000 0000 0000 0000 0000
000000c0: 0000 0000 0000 0000 0000 0000 0000 0000
000000d0: 0000 0000 0000 0000 0000 0000 0000 0000
000000e0: 0000 0000 0000 0000 0000 0000 0000 0000
000000f0: 0000 0000 0000 0000 0000 0000 0000 0000

model.8.A f4 [3, 3, 3]
-0.5721852 0.35750157 -0.4272764 0.23205012 -0.22179466 0.41321343 0.2781768 -0.109385245
0.10113147 0.506403 -0.46454924 0.12894404 0.55789965 -0.189575 0.10353844 0.47684225
-0.4112626 0.10016527 0.57442194 -0.4344018 -0.0013174262 -0.20636307 -0.015030049 -0.53958184
-0.4148018 0.34802923 -0.53498363
00000000: bb7a 12bf 720a b73e f9c3 dabe 8c9e 6d3e
00000010: 241e 63be b690 d33e 316d 8e3e 5f05 e0bd
00000020: 041e cf3d a1a3 013f 66d9 edbe e809 043e
00000030: 83d2 0e3f f31f 42be f60b d43d ab24 f43e
00000040: 0391 d2be 7323 cd3d 510d 133f ea69 debe
00000050: 7dad acba d750 53be 9840 76bc 0922 0abf
00000060: e760 d4be e330 b23e b0f4 08bf

model.8.F f4 [3, 21, 21, 3, 3]
0.048581704 0.047822304 0.009967038 0.0320761 0.018555416 0.03819179 0.017842826 -0.0026608089
0.001399727 0.012640163 -0.017380038 -0.0037362366 -0.018548843 0.0320173 0.0111762835 -0.037249878
-0.03176979 -0.014419554 -0.021051208 0.048926946 -0.018738445 -0.012047478 -0.0066885035 -0.01776109
-0.013268937 0.007952286 -0.0214411 0.028294086 -0.0031789856 -0.023072243 -0.006758406 -0.014327508
0.042518087 -0.013063188 0.005559834 0.025571091 -0.054215122 -0.00667977 -0.01933464 0.009357483
-0.043548413 0.005397662 -0.013757151 0.0276118 0.020360528 -0.03164154 0.0006333827 0.01713618
-0.025658429 0.028414035 0.0066992887 -0.019881109 0.022632498 -0.04569117 -0.020456878 -0.029666297
-0.015080073 -0.014279532 -0.015971344 0.02740324 -0.0020791152 -0.018636832 0.0046711415 -0.039081883
-0.028718779 0.023214726 0.0144226905 -0.007116908 -0.0038774614 -0.022066472 0.019265067 0.026189461
0.010080322 0.009479143 0.0019123725 -0.014644187 0.0053737722 -0.005632712 0.019369774 -0.014496922
-0.027018094 0.0039967797 -0.026836349 -0.027534235 0.036976457 -0.060241945 0.022073384 0.025545323
-0.027781934 -0.02852102 -0.004144296 0.010113816 -0.009411164 0.0034098318 0.021949178 0.033299338
-0.02846411 0.0019815369 -0.0039597563 -0.0014511175 0.0002473241 -0.014514817 0.01225952 -0.025482982
0.022722391 0.030783989 -0.030440139 -0.0076371008 -0.006626364 -0.014038506 -0.008561582 0.030005101
-0.0028249868 -0.030644031 -0.00414542 -0.012337942 -0.028606739 -0.024832413 -0.028872002 -0.01126302
-0.025685603 0.017314928 0.023272619 0.014401525 -0.023447456 0.017592644 0.0352135 0.06407091
0.01198098 0.040829435 0.0025377104 -0.017572632 -0.010882153 -0.006550306 0.03883827 -0.0074933367
-0.0077122953 0.01084232 -0.041229796 -0.032514736 -0.047702737 -0.0045791646 -0.023015117 -0.0048133004
0.0072795204 0.038807735 0.03270144 0.0017576178 0.025998948 0.039811723 0.015795778 -0.042604458
0.040772874 0.0020954034 0.008318286 0.011250358 0.024824187 -0.026275177 0.027953269 0.016441036
0.0028416105 -0.0010558256 -0.019412681 -0.012726082 0.038191438 0.016933633 -0.06336901 -0.0046423567
-0.015652549 -0.012125151 0.017712224 0.002430461 -0.012310153 0.008081943 -0.018183174 0.018893367
0.04528517 -0.000121937715 -0.012493623 0.023932856 -0.019374564 -0.025118047 -0.014688689 0.009901181
-0.009681365 0.019250374 -0.0077390936 -0.011485248 -0.022958314 -0.00055416086 -0.02779298 0.007926311
-0.024433782 -0.054351963 0.04109688 0.025130043 0.008263197 -0.0056252936 0.012197049 -0.03652446
0.00827447 -0.025717176 0.027036678 -0.020634465 0.01703661 -0.03141921 -0.014101311 -0.0047645806
-0.0077085565 -0.03879124 0.04528396 0.048246615 -0.039960384 -0.034660235 0.018984048 -0.036677547
-0.012091242 -0.000546863 0.0035782624 -0.03677112 0.024543528 0.0014667368 0.01450045 0.022349073
-0.006611135 -0.00035674078 0.021336649 -0.019591577 0.0096051125 0.027923156 -0.017303118 0.018198362
-0.01977194 0.0055067264 -0.039122503 -0.016028877 -0.0248482 -0.017572751 -0.0044597946 -0.033559505
0.0019296466 0.022223879 -0.026624931 -0.0013916369 -0.019775413 -0.0294489 0.030333793 -0.027934395
-0.0014639598 0.029591786 0.0055049052 0.0018149769 -0.03029346 0.009905919 0.0086897435 0.035015885
00000000: 9cfd 463d 52e1 433d ca4c 233c 3b62 033d
00000010: 8701 983c ff6e 1c3d 1e2b 923c f760 2ebb
00000020: 0b77 b73a b018 4f3c 9560 8ebc a6db 74bb
00000030: bef3 97bc 9324 033d bb1c 373c 5493 18bd
00000040: 0a21 02bd fe3f 6cbc 9573 acbc 9f67 483d
00000050: 5e81 99bc c962 45bc 3c2b dbbb b57f 91bc
00000060: f565 59bc 4e4a 023c 3fa5 afbc 00c9 e73c
00000070: 8756 50bb 0002 bdbc 9e75 ddbb edbd 6abc
00000080: 7227 2e3d fb06 56bc 452f b63b 777a d13c
00000090: ad10 5ebd f9e1 dabb ae63 9ebc 2150 193c
000000a0: d25f 32bd dfde b03b ac65 61bc 2432 e23c
000000b0: 1fcb a63c 8f9a 01bd 9809 263a 2d61 8c3c
000000c0: a031 d2bc 8dc4 e83c b585 db3b b5dd a2bc
000000d0: ca67 b93c aa26 3bbd 2f95 a7bc bc06 f3bc
000000e0: 6912 77bc b3f4 69bc 56d6 82bc c27c e03c
000000f0: c441 08bb 45ac 98bc 6010 993b 5314 20bd
00000100: a543 ebbc cf2c be3c 264d 6c3c f434 e9bb
00000110: 021d 7ebb bfc4 b4bc c6d1 9d3c 488b d63c
00000120: ef27 253c 684e 1b3c 93a8 fa3a 2cee 6fbc
00000130: 7816 b03b 9d92 b8bb 5cad 9e3c 7f84 6dbc
00000140: 0d55 ddbc 6bf7 823b e7d7 dbbc 7a8f e1bc
00000150: a074 173d 42c0 76bd 3ed3 b43c 6d44 d13c
00000160: f096 e3bc eaa4 e9bc e0cc 87bb 6bb4 253c
00000170: 4831 1abc 7c77 5f3b c3ce b33c e364 083d
00000180: 912d e9bc acdc 013b d8c0 81bb 6c33 beba
00000190: 47ab 8139 8ecf 6dbc 27dc 483c b0c1 d0bc
000001a0: 4f24 ba3c b42e fc3c 995d f9bc a540 fabb
000001b0: f821 d9bb c301 66bc e145 0cbc 42cd f53c
000001c0: 6a23 39bb 3109 fbbc 4ed6 87bb 1425 4abc
000001d0: ae58 eabc 586d cbbc fa84 ecbc 8888 38bc
000001e0: 9d6a d2bc 09d8 8d3c 38a6 be3c 60f4 6b3c
000001f0: e114 c0bc 731e 903c 083c 103d 9c37 833d
00000200: df4b 443c c43c 273d b74f 263b 7bf4 8fbc
00000210: 0f4b 32bc f3a3 d6bb e114 1f3d aa8a f5bb
00000220: 6cb7 fcbb fca3 313c 93e0 28bd 2c2e 05bd
00000230: f263 43bd d10c 96bb 338a bcbc e4b8 9dbb
00000240: 0b89 ee3b dcf4 1e3d f2f1 053d de5f e63a
00000250: bffb d43c 9e11 233d 2666 813c 0382 2ebd
00000260: 7501 273d 0953 093b 6c49 083c 6c53 383c
00000270: 185c cb3c 0a3f d7bc 41fe e43c 5aaf 863c
00000280: 503a 3a3b a163 8aba 5807 9fbc 0e81 50bc
00000290: a06e 1c3d 67b8 8a3c 9dc7 81bd e91e 98bb
000002a0: c639 80bc 92a8 46bc 3a19 913c 5f48 1f3b
000002b0: 86b0 49bc 206a 043c e1f4 94bc 43c6 9a3c
000002c0: f17c 393d d0b8 ffb8 0eb2 4cbc d60e c43c
000002d0: 68b7 9ebc 5dc4 cdbc d4a8 70bc 9038 223c
000002e0: 979e 1ebc f6b2 9d3c 3998 fdbb 9f2c 3cbc
000002f0: 1313 bcbc 1b45 11ba 1bae e3bc 5cdd 013c
00000300: 5b29 c8bc 2aa0 5ebd 3455 283d 85dd cd3c
00000310: 5c62 073c 6254 b8bb 22d6 473c ac9a 15bd
00000320: a591 073c d4ac d2bc 067c dd3c 9c09 a9bc
00000330: 5c90 8b3c 6eb1 00bd 2f09 67bc 3320 9cbb
00000340: 0f98 fcbb 90e3 1ebd ac7b 393d 3e9e 453d
00000350: 80ad 23bd e4f7 0dbd 6f84 9b3c 323b 16bd
00000360: 581a 46bc 5b5b 0fba 4881 6a3b 509d 16bd
00000370: 820f c93c 853f c03a 4c93 6d3c 6715 b73c
00000380: 38a2 d8bb f008 bbb9 32ca ae3c 847e a0bc
00000390: c35e 1d3c 1abf e43c 45bf 8dbc bb14 953c
000003a0: c3f8 a1bc c571 b43b eb3e 20bd fe4e 83bc
000003b0: 748e cbbc bbf4 8fbc 7823 92bb b175 09bd
000003c0: 32ec fc3a da0e b63c 871c dabc 9667 b6ba
000003d0: 0c00 a2bc d23e f1bc 937e f83c acd6 e4bc
000003e0: 57e2 bfba 796a f23c 7e62 b43b 85e4 ed3a
000003f0: fd29 f8bc 704c 223c 6d5f 0e3c d16c 0f3d

model.9.weight f4 [63]
0.440139 0.5857713 0.549195 0.9855614 0.61009294 0.8917156 0.6971709 0.23884954
0.39931664 0.88383365 0.23581478 0.1948331 0.5995232 0.3585017 0.98693264 0.3302335
0.54219115 0.9607888 0.34862053 0.54651874 0.63375884 0.60259366 0.8161306 0.5924442
0.48947793 0.657755 0.8681874 0.64530915 0.35182434 0.49580535 0.33440715 0.2474769
0.7226077 0.71117246 0.09541931 0.37847197 0.120228305 0.8448055 0.85740817 0.30413282
0.7260717 0.5821551 0.42372596 0.98756087 0.9938545 0.8646196 0.44525108 0.30386505
0.6819566 0.88730097 0.73105204 0.8976937 0.13401416 0.61272365 0.36345088 0.7936637
0.33418015 0.43587533 0.25041175 0.70938516 0.32769015 0.67080635 0.47937393
00000000: e659 e13e 1cf5 153f 0b98 0c3f c04d 7c3f
00000010: 0d2f 1c3f 7947 643f cb79 323f f994 743e
00000020: 3b73 cc3e ec42 623f 6e79 713e 5482 473e
00000030: 5a7a 193f 898d b73e 9ea7 7c3f 5e14 a93e
00000040: 0acd 0a3f 41f6 753f 647e b23e a7e8 0b3f
00000050: 053e 223f 9443 1a3f efed 503f 6caa 173f
00000060: da9c fa3e a262 283f 8841 5e3f fb32 253f
00000070: 5222 b43e 33da fd3e 6a37 ab3e 966a 7d3e
00000080: d1fc 383f 660f 363f 336b c33d 14c7 c13e
00000090: 423a f63d 2c45 583f 1a7f 5b3f 4cb7 9b3e
000000a0: d6df 393f 1e08 153f 9cf2 d83e cad0 7c3f
000000b0: 406d 7e3f b657 5d3f f3f7 e33e 3394 9b3e
000000c0: b594 2e3f 2826 633f 3a26 3b3f 41cf 653f
000000d0: 023b 093e 75db 1c3f 3c16 ba3e 8b2d 4b3f
000000e0: a919 ab3e 0d2b df3e f835 803e 449a 353f
000000f0: 01c7 a73e f7b9 2b3f 8070 f53e

model.9.bias f4 [63]
0.010382259 -0.0074582575 0.016260527 -0.09914262 0.11198253 -0.034434933 -0.022152778 -0.013275854
-0.017852252 0.12015069 0.122979134 -0.010598091 0.07296252 -0.023457006 -0.07467333 0.020271348
-0.00600402 0.008816274 0.031599183 0.09528278 0.058345612 0.06911941 0.049672697 0.0065801768
0.0036320684 0.09543846 -0.052259985 0.017583193 0.016329756 0.020080071 -0.011889399 -0.0015244586
0.020043958 0.007538325 0.013481647 0.10061034 0.0732153 -0.07460743 0.036483727 -0.03662714
-0.06986541 -0.081637405 0.02318972 0.034192502 -0.004467123 0.01866736 0.026538223 -0.075002566
-0.0018558218 0.08955169 -0.003984248 0.00793276 -0.0041442295 -0.019149227 0.0124815535 0.023917401
0.029701166 0.10657356 -0.02759955 0.006054246 -0.028820438 -0.012975096 -0.099184036
00000000: 5a1a 2a3c 6664 f4bb cc34 853c 490b cbbd
00000010: 1957 e53d a50b 0dbd be79 b5bc f882 59bc
00000020: e33e 92bc 9111 f63d 7cdc fb3d 9ea3 2dbc
00000030: 606d 953d e828 c0bc 55ee 98bd 1910 a63c
00000040: 5fbd c4bb 2272 103c 256e 013d 9e23 c33d
00000050: cffb 6e3d 7a8e 8d3d 9975 4b3d 869e d73b
00000060: ff07 6e3b 3d75 c33d 910e 56bd a10a 903c
00000070: fbc5 853c f67e a43c c1cb 42bc 58d0 c7ba
00000080: 3a33 a43c 0e04 f73b 20e2 5c3c cb0c ce3d
00000090: e7f1 953d c8cb 98bd f66f 153d 5706 16bd
000000a0: 9915 8fbd 8331 a7bd 5ef8 bd3c 700d 0c3d
000000b0: f260 92bb 4bec 983c b066 d93c f29a 99bd
000000c0: 0c3f f3ba e066 b73d 4b8e 82bb 68f8 013c
000000d0: 51cc 87bb d7de 9cbc 6e7f 4c3c 6dee c33c
000000e0: dc4f f33c 3d43 da3d 7418 e2bc b262 c63b
000000f0: d718 ecbc 7f95 54bc 0021 cbbd

model.9.running_mean f4 [63]
0.0046485336 -0.0077250907 0.00642222 0.1502669 -0.11466831 0.033031695 -0.08314184 0.11945515
0.111017 -0.06586537 -0.10771323 -0.054708898 -0.062022563 -0.0740151 0.07521733 -0.016272612
-0.04044496 -0.05244492 -0.1333426 -0.080830544 -0.045681685 -0.19149698 -0.17994006 -0.044134576
-0.084027044 -0.097404376 0.17075647 -0.078759685 -0.092930235 -0.024334287 0.06966982 0.11346361
-0.0027332935 -0.04211533 0.08484754 -0.08462224 -0.16073035 0.15701777 -0.035260845 0.2582963
0.20801213 0.25484464 -0.11868731 -0.089318685 -0.07255229 -0.09122409 -0.054676645 0.08185172
-0.04307836 -0.08927638 -0.08608851 0.025887266 0.058478836 -0.0024468543 -0.0742291 -0.002223663
-0.09970002 -0.092226416 0.08725605 -0.036721375 0.17320512 0.11836068 0.17028327
00000000: ba52 983b c222 fdbb 7c71 d23b 91df 193e
00000010: 38d7 eabd 3e4c 073d 4546 aabd e7a4 f43d
00000020: e25c e33d 6ce4 86bd c198 dcbd 7016 60bd
00000030: 5f0b 7ebd 3b95 97bd 8b0b 9a3d 244e 85bc
00000040: 9da9 25bd 7cd0 56bd f68a 08be 7c8a a5bd
00000050: b81c 3bbd c917 44be 3542 38be 75c6 34bd
00000060: 5f16 acbd f27b c7bd c9da 2e3e c24c a1bd
00000070: 3552 bebd b358 c7bc 0daf 8e3d 9c5f e83d
00000080: 0e21 33bb 2081 2cbd 8cc4 ad3d 6d4e adbd
00000090: 7f96 24be 44c9 203e ad6d 10bd 6a3f 843e
000000a0: 2201 553e ff7a 823e 5512 f3bd b7ec b6bd
000000b0: 4c96 94bd b2d3 babd 9ef4 5fbd e0a1 a73d
000000c0: ef72 30bd 89d6 b6bd 2c4f b0bd 8811 d43c
000000d0: 8187 6f3d 675b 20bb 6d05 98bd e0ba 11bb
000000e0: 862f ccbd 34e1 bcbd 4db3 b23d 2769 16bd
000000f0: af5c 313e 1667 f23d bd5e 2e3e
